training_ml_models/models/all_features_NN_lwp_k_fold_0.pth (torch, 187231 bytes, 7 tensors)

network.0.weight f4 [256, 18]
0	0x3e5cded4	0.21569377
1	0x3e48fb32	0.19627073
2	0xbe3698eb	-0.17831771
3	0xbd83e344	-0.06439832
4	0x3e312a36	0.17301258
5	0xbe3b575a	-0.1829504
6	0x3c997f6f	0.018737523
7	0x3d1c6145	0.0381787
8	0xbe44f7f6	-0.19235215
9	0x3e559396	0.20857081
10	0xbe1fe118	-0.1561321
11	0x3e034283	0.12818341
12	0xbe4b4d28	-0.19853652
13	0xbe353e1a	-0.17699471
14	0x3ceaa476	0.028642874
15	0xbe65d8c8	-0.22445977
16	0x3d134edf	0.03596389
17	0xbe58716d	-0.21137019
18	0xbe1be540	-0.1522417
19	0xbe636b71	-0.22208954
20	0xbdeaacf0	-0.114587665
21	0x3e1e9df1	0.15489937
22	0x3da3c81e	0.07997154
23	0xb9d99019	-0.00041496826
24	0x3e5b36f2	0.21407679
25	0x3d52db85	0.05147888
26	0xbcf5acc4	-0.029989608
27	0x3da2f08e	0.079560384
28	0xbe6b762a	-0.22994295
29	0x3e3f006b	0.18652503
30	0xbe2fac46	-0.17155561
31	0xbe2e409b	-0.17016833
32	0xbd1c2876	-0.038124524
33	0x3e3ee020	0.18640184
34	0xbb94003c	-0.0045166295
35	0x3c3791d3	0.011204201
36	0x3e3a4bd8	0.18192995
37	0xbe11af90	-0.14227128
38	0x3d93742e	0.07199894
39	0x3e0e4ebb	0.13897221
40	0xbe3aa9f4	-0.18228894
41	0xbd24646d	-0.040134836
42	0x3dccd2d4	0.1000115
43	0x3e299be1	0.1656337
44	0x3dce08cd	0.10060272
45	0x3e108055	0.14111455
46	0xbe15013e	-0.14551255
47	0xbe741e78	-0.23839748
48	0x3e15b60d	0.14620228
49	0xbcc1ce33	-0.023657894
50	0xbe6538d6	-0.22384962
51	0x3e0108dd	0.12601037
52	0xbd1c3e7c	-0.038145527
53	0x3e4921e3	0.19641833
54	0x3dad7bd7	0.08470886
55	0xbe0d57d1	-0.1380303
56	0xbe57489f	-0.21023796
57	0xbe13fa9b	-0.14451067
58	0xbe123f28	-0.14281905
59	0xbe58511d	-0.21124692
60	0x3e8bddf4	0.27317774
61	0x3cf5d392	0.030008111
62	0xbe5ab200	-0.21356964
63	0x3da9653a	0.082712606
64	0xbe2f0ded	-0.17095156
65	0xbe0fadf8	-0.14031208
66	0x3e650c10	0.22367883
67	0xbe15b79a	-0.1462082
68	0x3e0314ec	0.1280095
69	0xbe5d4587	-0.21608554
70	0xbe12d61f	-0.14339493
71	0xbdf4c8cf	-0.11952364
72	0xbde80343	-0.11328747
73	0x3e832f95	0.2562224
74	0x3e819a02	0.2531281
75	0x3e1b274b	0.15151708
76	0xbde2360d	-0.110454656
77	0xbe4c5bb1	-0.19956852
78	0xbcac8e42	-0.021063928
79	0xbdb217cd	-0.08695946
80	0xbe402e9f	-0.18767785
81	0xbdf70238	-0.1206097
82	0x3e4219ce	0.18955156
83	0xbdec00cd	-0.1152359
84	0xbd4c878e	-0.049933963
85	0xbe3696d1	-0.1783097
86	0x3dc94c69	0.09829027
87	0x3dfbbb77	0.122916155
88	0x3cfc133e	0.030770894
89	0xbc47f1af	-0.012203618
90	0xbe1e9914	-0.15488082
91	0xbe371bc2	-0.17881683
92	0x3dc2b3d3	0.09506955
93	0xbcfc11e3	-0.030770248
94	0xbda3f287	-0.08005243
95	0x3e32f3cc	0.17475814
96	0xbe57cc14	-0.21073943
97	0x3e41e4e3	0.1893497
98	0xbb1a6bc5	-0.002356277
99	0x3d9d6994	0.07686153
100	0x3d874a51	0.066059716
101	0xbe06e23d	-0.1317224
102	0x3df8a60c	0.12141046
103	0x3e1c9361	0.15290596
104	0xbd5c0ab8	-0.05372116
105	0xbe0d24c0	-0.1378355
106	0xbe55244d	-0.20814629
107	0xbe3e9aaa	-0.18613687
108	0x3e727e5b	0.23681013
109	0x3d230386	0.039798282
110	0x3e0b7f55	0.13622792
111	0xbd1f0b4c	-0.038829133
112	0xbd89e717	-0.0673353
113	0x3e520d48	0.20512879
114	0x3e8f62b9	0.28005007
115	0xbdf5ba32	-0.119984046
116	0x3bb71f04	0.005588414
117	0x3e484348	0.19556916
118	0xbe7fcba2	-0.24980024
119	0xbd30d757	-0.043174114
120	0x3e602766	0.2189003
121	0xbd3a9581	-0.045552734
122	0x3e57db0e	0.21079656
123	0xbe372971	-0.17886902
124	0xbcf8c1fa	-0.030365933
125	0x3daa540d	0.08316813
126	0x3e7d7644	0.24752146
127	0x3e27f896	0.16403422
128	0x3c70c3ba	0.014695102
129	0x3e513617	0.2043079
130	0x3d86483b	0.065567456
131	0xbe7beb28	-0.24601424
132	0x3d902915	0.07039086
133	0xbdf03f2d	-0.117308
134	0xbd6d8cf0	-0.057995737
135	0x3e0086ad	0.12551375
136	0xbd447030	-0.047958553
137	0xbd9ca261	-0.07648159
138	0xbe2c1992	-0.1680663
139	0xbe1d2065	-0.15344389
140	0xbda420a9	-0.08014042
141	0xbdab81b5	-0.08374349
142	0x3e06be6a	0.13158575
143	0x3e6d0074	0.23144704
144	0xbe00571e	-0.12533233
145	0x3e6b7289	0.2299291
146	0xbccb4c9c	-0.024816804
147	0xbd802553	-0.06257119
148	0xbe687eb3	-0.22704582
149	0xbdfbcbd3	-0.12294736
150	0xbe4edb0b	-0.20200746
151	0xbe21baaa	-0.15793863
152	0xbe03af87	-0.12859927
153	0xbe10e510	-0.1414988
154	0x3e469cef	0.19395803
155	0xbd18978e	-0.03725391
156	0x3c1f5bdd	0.009726492
157	0xbd5fba83	-0.05462123
158	0x3d7197cd	0.05898266
159	0xbde55eb9	-0.111997075
160	0xbdd0566c	-0.10172734
161	0xbe534629	-0.20632233
162	0x3e00fd36	0.12596592
163	0x3d9579a0	0.07298589
164	0x3ddc5cd5	0.10759894
165	0x3df5cf30	0.120024085
166	0x3e1858da	0.14877644
167	0xbc891c14	-0.016737022
168	0xbd4fbcc8	-0.050717145
169	0x3d331a16	0.04372605
170	0x3e240f28	0.16021407
171	0xbb84e41b	-0.0040555126
172	0xbdca3680	-0.09873676
173	0x3e57e6a7	0.2108408
174	0x3e6d4839	0.23172082
175	0x3ce1a70c	0.027545474
176	0x3e527c86	0.20555314
177	0x3e5818f3	0.21103267
178	0x3e1d1dc5	0.15343387
179	0xbde679db	-0.11253711
180	0x3e3b059b	0.18263857
181	0xbd1d1613	-0.03835113
182	0xbd1dcea4	-0.038527146
183	0x3b55e848	0.003263967
184	0x3d0cb572	0.034352727
185	0xbd3db630	-0.046316326
186	0x3e5ea053	0.21740846
187	0x3dd86591	0.10566247
188	0x3e05cb34	0.13065797
189	0xbe4c64bb	-0.199603
190	0x3dfbd9a4	0.12297371
191	0xbe33f105	-0.1757241
192	0xbe485a58	-0.19565713
193	0xbe5a53c0	-0.2132101
194	0x3e30df08	0.1727258
195	0x3e238563	0.15968852
196	0xbdc273f4	-0.094947726
197	0xbd89770f	-0.06712162
198	0x3d491240	0.04908967
199	0x3d8a051c	0.06739256
200	0xbd4b57a9	-0.049644146
201	0x3cca6204	0.02470494
202	0x3e42c9ce	0.19022295
203	0x3e16f434	0.14741594
204	0x3cef8da0	0.029242337
205	0x3e314498	0.17311323
206	0xbe3b76fc	-0.18307108
207	0x3e2856ad	0.16439314
208	0xbd99395c	-0.074816436
209	0xbe2f0850	-0.17093015
210	0x3d9da462	0.07697369
211	0x3ca80a10	0.02051261
212	0xbe2fe34f	-0.17176555
213	0x3e016575	0.12636359
214	0xbc953b8d	-0.018216873
215	0x3e10ea7b	0.14151947
216	0x3dd45c7b	0.10369202
217	0xbe004453	-0.12526064
218	0x3e7776c0	0.24166393
219	0xbd59566d	-0.053060938
220	0xbe010b79	-0.12602033
221	0xbd69e009	-0.057098422
222	0x3d444814	0.0479203
223	0xbdb4fd41	-0.08837367
224	0xbe0b1309	-0.1358148
225	0xbdf015a5	-0.11722878
226	0x3dd7f027	0.10543852
227	0x3e5cc69e	0.21560141
228	0x3c8b774f	0.017024664
229	0x3ca0fc8d	0.019651676
230	0xbdfa0317	-0.122076206
231	0x3cac0141	0.020996692
232	0xbd83292f	-0.064043395
233	0x3dde4933	0.108538054
234	0x3d73dcde	0.059536807
235	0xbe4c6e33	-0.19963913
236	0x3df83561	0.12119556
237	0x3e04f2ef	0.12983297
238	0xbca132b0	-0.01967749
239	0xbe73c023	-0.23803763
240	0xbcc83d63	-0.024443334
241	0x3de41b62	0.11138035
242	0xbe3fbd8e	-0.18724653
243	0x3e7b50c4	0.24542528
244	0xbc4c5903	-0.012472394
245	0xbe07e993	-0.13272695
246	0xbdb0d1c1	-0.086337574
247	0x3dc5bd84	0.09655288
248	0x3deaca53	0.114643715
249	0xbe08ecf7	-0.13371645
250	0x3df836ea	0.12119849
251	0xbd71b859	-0.0590137
252	0xbe534b9c	-0.20634311
253	0x3de1d2fa	0.11026569
254	0x3da6f749	0.08152635
255	0x3dad0a22	0.08449198

network.0.bias f4 [256]
0	0xbda0155f	-0.07816576
1	0x3e0de518	0.13856924
2	0x3db5acbb	0.08870836
3	0x3e310098	0.17285383
4	0x3e5b62e3	0.21424441
5	0x3e533160	0.20624304
6	0xbd5427c7	-0.051795747
7	0x3de00697	0.10938757
8	0xbe048b3c	-0.12943739
9	0xbd2fcd40	-0.04292035
10	0x3e72a880	0.2369709
11	0x3e7701e7	0.2412182
12	0x3e2a3a50	0.16623807
13	0x3cf2e8fc	0.029652111
14	0x3e5aef91	0.2138045
15	0x3d2cb9c7	0.04216936
16	0x3db67b74	0.089102656
17	0x3e115d1a	0.14195672
18	0xbdc741d5	-0.09729353
19	0xbcb5fff3	-0.022216773
20	0x3e0c0f7a	0.13677779
21	0x3d8caa8b	0.06868466
22	0x3dcbd199	0.09952087
23	0xbcde6ca3	-0.027151411
24	0x3b0e4f15	0.0021714617
25	0xbd0ff96a	-0.03514997
26	0x3e085f09	0.13317503
27	0x3e308842	0.17239478
28	0x3e500e59	0.20317973
29	0xbe4c3580	-0.19942284
30	0xbd50ddb1	-0.05099267
31	0x3c0ef867	0.008726216
32	0xbe6accb6	-0.22929654
33	0x3c738f96	0.0148657765
34	0x3d7308a6	0.05933442
35	0x3e60534b	0.21906774
36	0x3e4ef0fa	0.20209113
37	0x3e435329	0.19074692
38	0xbe52056e	-0.20509884
39	0x3d0a9534	0.033833697
40	0xbe051a6b	-0.12998359
41	0xbde380eb	-0.111085735
42	0x3d5c9362	0.053851493
43	0xbdca7685	-0.09885887
44	0x3d4d01b5	0.050050456
45	0x3e0b5957	0.13608299
46	0xb9cc72ed	-0.00038995538
47	0xbe16241b	-0.1466221
48	0x3e4f0046	0.20214948
49	0xbc954d2d	-0.018225277
50	0x3e6aac28	0.22917235
51	0xbd019ba1	-0.03164256
52	0xbe35f51c	-0.17769283
53	0xbd55f3d4	-0.052234486
54	0x3e26ee4b	0.16301839
55	0x3d6dc531	0.058049385
56	0xbd3a5b75	-0.045497376
57	0x3e1b3bd7	0.15159546
58	0x3e264e32	0.16240767
59	0x3d13fe27	0.03613105
60	0x3e850674	0.25981486
61	0x3dae887b	0.08522125
62	0x3e15c224	0.1462484
63	0x3e5edc9c	0.21763843
64	0x3e199732	0.14999083
65	0x3e4063eb	0.18788116
66	0xbd918342	-0.071051136
67	0x3bc3f426	0.0059800325
68	0xbe247a27	-0.16062222
69	0xbe32c409	-0.17457594
70	0xbc50b1ad	-0.012737674
71	0x3de3acdf	0.11116957
72	0x3e564865	0.20926054
73	0x3e1a7c6c	0.15086526
74	0x3e38594f	0.18002819
75	0xbe1b7da8	-0.15184653
76	0x3e12500d	0.1428835
77	0x3e3b6ace	0.18302462
78	0xbe30b16f	-0.17255186
79	0xbe468b9c	-0.19389194
80	0xbe2f1d79	-0.17101087
81	0x3e6a2c4b	0.22868459
82	0x3e164fe9	0.14678921
83	0xbd898997	-0.06715696
84	0x3e5b8693	0.21438055
85	0x3dfb4ff0	0.12271106
86	0x3e0c9ac4	0.13730913
87	0xbe0b68fd	-0.13614269
88	0xbe6c7efe	-0.23095319
89	0x3e0a031c	0.13477749
90	0x3d8b653a	0.06806417
91	0xbe3afb8b	-0.18260019
92	0xbe14cf92	-0.14532307
93	0x3e804a40	0.25056648
94	0xbd445283	-0.04793025
95	0x3e7fc88d	0.24978848
96	0xbd76cd03	-0.06025411
97	0xbe7bfe1a	-0.24608651
98	0xbe518054	-0.2045911
99	0x3e91b170	0.28455687
100	0x3e8affe7	0.27148363
101	0x3d77d685	0.060507316
102	0x3e4cd43e	0.20002839
103	0xbb371ddd	-0.0027941384
104	0xbd0f6d9f	-0.035016652
105	0x3d92d158	0.071688354
106	0x3e6e1848	0.2325145
107	0x3d2210ea	0.03956691
108	0x3e24dee0	0.16100645
109	0x3ce917d8	0.028453752
110	0x3da17568	0.078837216
111	0x3db1f181	0.08688641
112	0x3d851f6c	0.06500134
113	0x3e51c4b8	0.20485198
114	0xbde68cbf	-0.11257314
115	0xbcb43e93	-0.022002494
116	0x3e69a22f	0.22815774
117	0x3ca05407	0.019571317
118	0xbd500fed	-0.050796438
119	0x3e0adf36	0.1356171
120	0xbcac282b	-0.021015247
121	0x3bc85bc0	0.006114453
122	0xbccdf745	-0.025142321
123	0xbdb2eb89	-0.08736331
124	0xbcb3108d	-0.021858478
125	0x3dc10013	0.09423842
126	0x3e592aeb	0.21207778
127	0xbdc8024b	-0.09766062
128	0x3e7643ea	0.24049345
129	0xbe425e3b	-0.18981259
130	0x3e343da5	0.1760164
131	0xbd0153b8	-0.03157398
132	0x3e305463	0.17219691
133	0x3e299285	0.16559799
134	0x3cf4ed59	0.029898332
135	0xbe44f0b3	-0.19232444
136	0x3e4745bc	0.19460195
137	0x3e5703c7	0.20997535
138	0xbe1e76fd	-0.15475078
139	0xbc5b54dd	-0.013386932
140	0x3d8d56c0	0.06901312
141	0x3dff8ca7	0.12477999
142	0x3df06ede	0.11739896
143	0xbd211f19	-0.039336298
144	0x3e37c32a	0.17945543
145	0xbe5bbdd7	-0.21459137
146	0xbde427f9	-0.11140437
147	0xbdedd2ce	-0.116124734
148	0x3e186e48	0.14885819
149	0x3c7a068a	0.015260348
150	0x3b0ab328	0.0021163914
151	0xbc6ad340	-0.0143325925
152	0x3e73007e	0.23730657
153	0xbe63440c	-0.22193927
154	0xbe32ac4c	-0.17448539
155	0xbd2e2529	-0.042515907
156	0x3e1f0af1	0.15531518
157	0xbdaec1ad	-0.085330345
158	0xbe5935b2	-0.2121189
159	0xbc4a623f	-0.012352525
160	0x3dfbe872	0.12300195
161	0x3d28bbcd	0.041194726
162	0x3db0d5f6	0.0863456
163	0x3d6b9218	0.057512373
164	0xbe224f00	-0.15850449
165	0xbe4bd440	-0.19905186
166	0x3e4e6c76	0.20158562
167	0xbe3f8392	-0.18702534
168	0x3e333b53	0.17503099
169	0x3dfde1a3	0.123965524
170	0x3e16530a	0.14680114
171	0x3cf77a8d	0.030209804
172	0x3db6cb86	0.08925538
173	0x3e335b13	0.17515211
174	0xbdf914c9	-0.121621676
175	0x3d7ec7f2	0.0622024
176	0xbe09451d	-0.13405271
177	0x3da2bf84	0.07946685
178	0x3ae0d798	0.0017154096
179	0x3dcd4fe4	0.100250036
180	0x3bb5d06b	0.005548527
181	0x3e5b8f3e	0.21441361
182	0x3d29084f	0.04126769
183	0x3e3264ad	0.17421217
184	0xbe2957b4	-0.16537362
185	0x3e487cfc	0.19578928
186	0x3e1c54cf	0.15266727
187	0xbd23cdce	-0.039991193
188	0xbca12b1f	-0.019673882
189	0x3d45fa47	0.048334386
190	0xbc0673e7	-0.008206344
191	0x3d85a222	0.06525065
192	0x3e21fcda	0.15819111
193	0x3c0cad80	0.0085862875
194	0xbe0a0aba	-0.13480654
195	0x3e0d9871	0.13827683
196	0x3c2cf3cc	0.010556173
197	0x3e568084	0.20947462
198	0xbe463b8d	-0.19358654
199	0xbe0578a7	-0.13034306
200	0xbe50fe63	-0.20409541
201	0x3dc86eba	0.097867444
202	0x3df0c694	0.11756626
203	0x3e4226bb	0.18960087
204	0x3e1a70d9	0.1508211
205	0x3e567722	0.20943883
206	0xbe277331	-0.16352536
207	0xbe3ba37a	-0.1832408
208	0x3da6392d	0.08116374
209	0xbdef1e87	-0.116757445
210	0xbd626458	-0.055271477
211	0x3d382a9f	0.04496252
212	0x3e741d55	0.23839314
213	0x3e44d5df	0.1922221
214	0x3d2905f3	0.04126544
215	0x3ccd0f41	0.025031688
216	0x3e64645e	0.22303912
217	0xbd55ec54	-0.052227333
218	0x3c9bf2a6	0.019036602
219	0x3e322fae	0.17401001
220	0x3e6dbe82	0.23217204
221	0x3dbee5b3	0.093211554
222	0x3cfb3f63	0.030669874
223	0x3e0e869c	0.13918537
224	0x3d8c6d26	0.06856756
225	0xbe5a146b	-0.21296851
226	0x3e584c2c	0.21122807
227	0xbe4e6594	-0.20155936
228	0x3e16c699	0.14724196
229	0xbdf9f6bb	-0.12205263
230	0x3da1619d	0.078799464
231	0xbe07069a	-0.13186112
232	0xbd3ea080	-0.046539783
233	0xbe07bea9	-0.13256325
234	0x3d80b443	0.06284382
235	0xbe447eab	-0.19188945
236	0x3e4cd175	0.20001777
237	0xbe49129c	-0.19636005
238	0xbe0ea922	-0.13931707
239	0x3e38ac97	0.18034588
240	0xbdfa192c	-0.122118324
241	0xbb29c154	-0.0025902586
242	0xbe39fa7e	-0.18161961
243	0xbe2c3002	-0.16815189
244	0x3d7f9b22	0.062403806
245	0xbe0a7c6f	-0.1352403
246	0x3e0fc6a7	0.14040624
247	0x3c215285	0.009846334
248	0x3cdad56d	0.026713097
249	0xbe3b8253	-0.18311433
250	0xbdd2b460	-0.1028831
251	0x3ddbf3e1	0.107398756
252	0x3e2a2979	0.16617383
253	0x3e44e628	0.19228423
254	0x3c25dc06	0.010123258
255	0x3d8ae6c8	0.06782299

network.2.weight f4 [128, 256]
0	0x3d5d7c90	0.05407387
1	0x3db20a90	0.08693421
2	0xbd6bb4f6	-0.057545625
3	0xbc854e62	-0.016272727
4	0xbd9a1c46	-0.07524924
5	0xbd27c9d3	-0.04096396
6	0x3d43d8b3	0.047814082
7	0xbd8ce552	-0.06879677
8	0xbd2f52b9	-0.0428035
9	0xbd222b38	-0.039591998
10	0x3d18f31b	0.03734122
11	0x3cd08218	0.025452659
12	0xbd0a1031	-0.033706848
13	0x3a3ed40a	0.0007279521
14	0xbc334da2	-0.010943802
15	0xbcf1b44d	-0.02950492
16	0xbd3661e5	-0.044526953
17	0xbcc04c20	-0.0234738
18	0xbd539027	-0.051651146
19	0xbd6bf836	-0.05760976
20	0x3da66cb6	0.08126204
21	0xbb584db1	-0.0033005292
22	0xbc2d1201	-0.0105633745
23	0x3d55c9c7	0.052194383
24	0xbd5dd2fc	-0.05415629
25	0x3d1fe453	0.039036106
26	0xbd0e19b3	-0.034692477
27	0xbd42717f	-0.04747152
28	0x3b8e45c0	0.004341811
29	0xbca805d1	-0.020510586
30	0x3d856797	0.06513899
31	0xbd713039	-0.05888388
32	0x3c6f9204	0.014622215
33	0x3d9b2f79	0.07577414
34	0xbc3ac88c	-0.011400353
35	0xbb339fa6	-0.002740839
36	0x3d226832	0.03965015
37	0x3d833c6b	0.06408008
38	0x3d28c75a	0.04120574
39	0xbcfd60f5	-0.030930022
40	0xbbdefe20	-0.0068051964
41	0x3d06ff47	0.032958295
42	0xbc85e699	-0.01634531
43	0xbd6647c5	-0.05622079
44	0x3a4927a8	0.0007673451
45	0x3d2a0a1a	0.04151354
46	0x3bbcf4ca	0.005766486
47	0xbb519299	-0.0031978248
48	0xbc393b87	-0.011305696
49	0xbd8c7608	-0.0685845
50	0xbd5ddaf2	-0.05416388
51	0xbd720de7	-0.05909529
52	0x3c035212	0.008015173
53	0xbbdc0274	-0.0067141596
54	0x3c5ef24f	0.013607576
55	0x3c29b1b7	0.010357312
56	0x3cddfaf0	0.027097195
57	0x3d22b03b	0.039718848
58	0x3d01b9cc	0.03167133
59	0x3d541f93	0.051787924
60	0x3dcee021	0.10101343
61	0xbcf3b1d8	-0.029747888
62	0xbd3bbaa6	-0.0458323
63	0xbc826b18	-0.015920207
64	0x3b91091c	0.0044261348
65	0xbd172fc4	-0.036910787
66	0xbba45e28	-0.005016107
67	0x3d4f927d	0.05067681
68	0xbd39500e	-0.04524236
69	0x3d76558e	0.060140185
70	0xbc97f2e6	-0.01854844
71	0xbca6ec5a	-0.020376373
72	0xbcec17f0	-0.028820008
73	0x3d1c457b	0.0381522
74	0xba800c50	-0.0009769294
75	0x3d494210	0.049135268
76	0xbd821dfb	-0.063533746
77	0x39d94f4a	0.0004144854
78	0x3d21a058	0.039459556
79	0x3d1db693	0.038504194
80	0xbce36af9	-0.02776097
81	0xbc8a31eb	-0.016869506
82	0x3d2e37dd	0.042533744
83	0xbd520335	-0.05127259
84	0xbd03931f	-0.032122727
85	0xbd940039	-0.07226605
86	0x3b5d54c8	0.0033772457
87	0x3cc1c67a	0.023654211
88	0x3d028438	0.031864375
89	0x3d8075e1	0.062724836
90	0xbcb09a96	-0.021558087
91	0x3bffdbfd	0.007808207
92	0xbd811eff	-0.0630474
93	0xbd0238b6	-0.031792365
94	0x3cdc0851	0.026859434
95	0x3d64698f	0.05576473
96	0x3d352e25	0.04423346
97	0xbd0badb1	-0.034101192
98	0xbc860e06	-0.016364109
99	0x3d6f9089	0.05848745
100	0x3d889902	0.06669809
101	0x3c5798ee	0.01315902
102	0x3c58eee1	0.013240547
103	0xbc9ef05f	-0.019401727
104	0x3b4bf30b	0.0031120207
105	0xbcc8b335	-0.024499515
106	0x3b064f42	0.0020494019
107	0xbc3df54a	-0.011594126
108	0xbd0ddab9	-0.03463242
109	0xbcc84852	-0.024448548
110	0xbcc538e6	-0.024074983
111	0x3cab6b7a	0.020925272
112	0x3c18ad26	0.009318626
113	0xbbbf7eeb	-0.005843987
114	0xbbe36bd8	-0.006940346
115	0x3d11ba95	0.03557833
116	0xbb52b21b	-0.0032149616
117	0x3d8a1d3f	0.067438595
118	0xbd8af40c	-0.067848295
119	0x3cc06cbb	0.023489347
120	0x3d31a09f	0.04336607
121	0xbcc3da7d	-0.023907894
122	0xbb63ffec	-0.0034789992
123	0x3d93dabf	0.07219457
124	0x3c939813	0.01801685
125	0xbc6ff3ee	-0.01464556
126	0xbd881982	-0.0664549
127	0xbd28aff4	-0.041183427
128	0x3ab1090e	0.0013506727
129	0xbd699330	-0.057025135
130	0xbd0fc9af	-0.03510445
131	0xbce907cf	-0.028446106
132	0x3cce01c2	0.025147323
133	0x3ce24914	0.027622737
134	0xbc37aa00	-0.011209965
135	0xbd134770	-0.0359568
136	0x3da5e8ca	0.081010416
137	0x3ce5313c	0.027977578
138	0x3db62f54	0.08895746
139	0xbc41a610	-0.011819378
140	0xbd0a9947	-0.033837583
141	0x3c6b329d	0.014355329
142	0xbc4f8b37	-0.012667469
143	0x3bcddd3b	0.0062824762
144	0x3d8dc481	0.06922246
145	0xbd69d98e	-0.057092242
146	0x3cf92375	0.030412415
147	0xbd2bc429	-0.04193512
148	0x3c5dcccd	0.013537598
149	0x3caf98b4	0.02143512
150	0x3b90237a	0.0043987604
151	0x3cb639c6	0.022244345
152	0x3d5c37fd	0.053764332
153	0x3d422555	0.047398884
154	0xbd2c8c9d	-0.042126287
155	0xbc88000d	-0.016601587
156	0x3d28798b	0.041131537
157	0xbd7dc07d	-0.06195115
158	0x3d2f91bd	0.042863596
159	0x3aaf200e	0.0013360993
160	0x3d0f5803	0.034996044
161	0xbd0f6a4b	-0.03501348
162	0x3d7973f4	0.060901597
163	0x3d7ed4c8	0.062214643
164	0xbd5753ee	-0.052570276
165	0x3cc850fb	0.024452677
166	0x3d8d7705	0.06907467
167	0xbb5a6a94	-0.0033327686
168	0x3d8852b8	0.06656402
169	0x3d02de18	0.031950086
170	0xbc9aea9a	-0.018910695
171	0x3cfdb413	0.030969655
172	0x3d737383	0.059436332
173	0x3d26b9f4	0.040704682
174	0xbd929310	-0.07156956
175	0x3d403be1	0.046932105
176	0xbd21e2cf	-0.039522942
177	0x3d47d990	0.04879147
178	0xbc98323a	-0.018578637
179	0x3d0beb73	0.03416009
180	0x3d8c4856	0.068497345
181	0x3a7e8248	0.00097087445
182	0xbcf426a0	-0.029803574
183	0xbce3eba9	-0.027822332
184	0x3d95ba84	0.07310966
185	0x3d7204cd	0.05908661
186	0x3d4120ab	0.047150295
187	0x3c6a79ad	0.014311236
188	0x3d5493bf	0.051898714
189	0xbcc31942	-0.023815755
190	0xbcb13d48	-0.021635666
191	0xbca8baf5	-0.02059696
192	0xbd03dc5a	-0.032192566
193	0xbb2e207f	-0.0026569662
194	0x3d758635	0.059942443
195	0x3ce8d5ed	0.02842232
196	0xbc784122	-0.015152248
197	0x3c8874e9	0.01665731
198	0xbb72b16a	-0.0037032017
199	0xbd6a9b39	-0.057276938
200	0xbd36dbc2	-0.04464317
201	0x3d8c966d	0.06864629
202	0xbc64590d	-0.013937247
203	0x3c8948ef	0.01675841
204	0xbd3c6113	-0.045991015
205	0x3d4b5c89	0.049648795
206	0x3d3a6cf2	0.045514055
207	0x3d125bb3	0.035731982
208	0x3c87273d	0.016498202
209	0x3c723705	0.0147836255
210	0xbcd87589	-0.026423233
211	0x3d4288b0	0.047493637
212	0xbcdd4c44	-0.027013905
213	0x3d952d2c	0.072840065
214	0x3db12af3	0.0865077
215	0x3cfd7a7b	0.030942192
216	0x3ca7b6c7	0.020472897
217	0x3d0a2d97	0.033734884
218	0x3c7e8143	0.015533748
219	0xbc9e52c9	-0.019326584
220	0x3d0518b7	0.032494273
221	0xbd55ad2a	-0.052167095
222	0x3c1d48a1	0.009599836
223	0xbcc02786	-0.023456346
224	0x3c17bf7c	0.009261962
225	0x3b997d37	0.004684116
226	0xbd13cd43	-0.036084425
227	0xbc4b5e1d	-0.012412575
228	0x3cf3a4bd	0.02974164
229	0x3d790958	0.060799927
230	0xbd922c91	-0.071374066
231	0xbc79691e	-0.015222816
232	0x3bd95027	0.0066318694
233	0xbcfca969	-0.0308425
234	0xbd81eb86	-0.06343751
235	0x3d1fbd58	0.03899893
236	0x3d73142f	0.05934542
237	0xbc815ce2	-0.01579136
238	0xbd85d7fb	-0.06535336
239	0x3d8caa18	0.0686838
240	0xbd8a09df	-0.06740164
241	0x3d128afd	0.03577708
242	0x3d2115e5	0.03932752
243	0xbd1eaac7	-0.038737085
244	0x3d0820a8	0.03323427
245	0x3b114a60	0.0022169575
246	0x3d0094ca	0.031391896
247	0x3d023e17	0.031797495
248	0xbb83d3dc	-0.0040230583
249	0x3d372e59	0.044721935
250	0xbbc2dc12	-0.0059466446
251	0x3cb34d10	0.021887332
252	0x3cb8609e	0.022507008
253	0xbcaadf96	-0.020858567
254	0xbd230836	-0.039802752
255	0xbc0da4e2	-0.008645268

network.2.bias f4 [128]
0	0x3b5d578a	0.0033774101
1	0x3d0a74f1	0.03380293
2	0x3d300269	0.04297105
3	0xbcfd29cd	-0.030903721
4	0xbcc1427c	-0.023591273
5	0xbcfe7fc8	-0.03106679
6	0xbb5c6bcb	-0.0033633586
7	0x3d1d814c	0.038453385
8	0x3cd1bbd1	0.025602253
9	0x3d2193d4	0.03944762
10	0x3c131303	0.008976701
11	0x3cd82327	0.02638395
12	0x3d5841b8	0.05279705
13	0x3c8cd865	0.017193029
14	0xbb7fda27	-0.003903994
15	0xbcd84741	-0.026401164
16	0xbc9c4f14	-0.019080676
17	0xbd25c445	-0.04047038
18	0x3c4d8ce9	0.012545803
19	0x3d0aeedc	0.0339192
20	0x3c24329b	0.010021831
21	0x3d0f944c	0.035053536
22	0x3cfb0b71	0.030645104
23	0x3d9189c6	0.07106356
24	0xbc105980	-0.008810401
25	0xbcac759e	-0.021052178
26	0xbc2b3de5	-0.0104517685
27	0x3cf174be	0.029474612
28	0x3d57a74d	0.052649785
29	0xbc2d5a81	-0.01058066
30	0xbc058193	-0.008148569
31	0xbd323aa6	-0.043512963
32	0x3d86584b	0.06559809
33	0xbd2e24dc	-0.04251562
34	0x3b92f6a7	0.0044849697
35	0xbd37e8f6	-0.044899903
36	0x3ce7e16a	0.028305728
37	0x3d6946b6	0.0569522
38	0xbd701b1b	-0.0586196
39	0x3d4cc7d6	0.049995266
40	0xbb0f01f9	-0.0021821244
41	0x3d8505b6	0.0649523
42	0xbd24ad02	-0.040204056
43	0x3cf9c7d9	0.030490803
44	0x3c9de10b	0.019272348
45	0xbd6b4d5c	-0.057446823
46	0xbd09a62c	-0.03360574
47	0xbd05a035	-0.03262349
48	0xbd40ffe7	-0.047119047
49	0x3cf63c31	0.030057998
50	0x3d5fdd30	0.0546543
51	0x3d909406	0.07059483
52	0xbda16a2f	-0.07881581
53	0xba008509	-0.0004902636
54	0x3c5ee859	0.013605201
55	0xbcf2e463	-0.029649919
56	0xbc908b4c	-0.017644547
57	0x3d760adf	0.06006896
58	0x3d8109e5	0.06300715
59	0x3c081f7c	0.008308288
60	0xbd2e9126	-0.042618893
61	0x3d34add9	0.044111107
62	0x3c80d4f7	0.01572655
63	0x3bf29847	0.007403407
64	0xbd40a520	-0.047032475
65	0xbd6d62de	-0.057955615
66	0xbd2adf78	-0.041717023
67	0xbd2d652c	-0.042332813
68	0xbd16ee02	-0.036848076
69	0xbc93473a	-0.0179783
70	0x3c395494	0.011311669
71	0x3d357c5d	0.044308055
72	0xbd063223	-0.032762658
73	0xbc460907	-0.012087113
74	0x3cd7476f	0.02627918
75	0x3d05e89f	0.032692548
76	0xbd37e755	-0.04489835
77	0xbc19a96f	-0.009378775
78	0xbcc32452	-0.02382103
79	0xbd5a0f24	-0.053237095
80	0xbd3c2e9b	-0.045942884
81	0x3bc25ed7	0.005931716
82	0x3c8ed123	0.017433709
83	0x3d168bc0	0.03675437
84	0x38011154	3.0772135e-05
85	0xbb0cb2d4	-0.0021468895
86	0xbd5f3ad2	-0.054499455
87	0x3cac27d3	0.021015083
88	0x3d6e5ae7	0.05819216
89	0xbca0751c	-0.019587092
90	0xbb0cef1f	-0.0021504832
91	0xbb038207	-0.0020066516
92	0xbc56eb46	-0.013117617
93	0x3d40bfe6	0.04705801
94	0x3d76e86a	0.06028024
95	0x3d2556f6	0.040366136
96	0x3b61d4b7	0.0034459063
97	0x3d1c9715	0.03823002
98	0x3ca0346a	0.019556243
99	0xbc0f52ae	-0.00874774
100	0xbd6bc1ab	-0.057557743
101	0x3d5d5475	0.054035623
102	0xbbf8c54b	-0.0075918785
103	0x3c348d12	0.011019962
104	0x3d27e7ad	0.040992428
105	0x3d70c165	0.058778185
106	0xbd3659d7	-0.04451927
107	0xbd185a48	-0.037195474
108	0x3d2eb77e	0.04265546
109	0x3cc37051	0.023857268
110	0xbbdc80e6	-0.006729233
111	0x3c2d77bb	0.010587628
112	0xbc83612d	-0.016037548
113	0x3c9fbdc7	0.019499673
114	0xbbc11389	-0.0058922214
115	0x3d895fc8	0.06707722
116	0xbc18ee15	-0.009334107
117	0x3ae6ac5c	0.0017598975
118	0xbcf2eab3	-0.029652929
119	0x3d80dc30	0.062919974
120	0xbd9766fa	-0.07392688
121	0xbd3e81e4	-0.046510592
122	0xbc90e828	-0.017688826
123	0x3d071c87	0.03298619
124	0x3d263742	0.04058004
125	0xbd0dcd41	-0.034619574
126	0x3d209a20	0.039209485
127	0x3d1b25ea	0.037877955

network.4.weight f4 [64, 128]
0	0xbe2b8ec4	-0.1675368
1	0x3dcabee9	0.098996945
2	0xbd6ba5cb	-0.05753116
3	0x3d4d2c15	0.050090868
4	0xbd4d2996	-0.050088488
5	0x3dc927f3	0.09822073
6	0xbcd81436	-0.026376825
7	0x3d695374	0.056964353
8	0x3d9013f3	0.07035055
9	0x3cbb636e	0.02287456
10	0xbdfa77df	-0.12229895
11	0xbcc9b92f	-0.024624435
12	0x3c3e7c82	0.011626365
13	0xbd82b40f	-0.06382
14	0x3c9b80e5	0.01898236
15	0x3e3d6f3c	0.18499464
16	0x3d5edbd1	0.054408852
17	0x3b6364cb	0.0034697528
18	0x3cd047b3	0.025424814
19	0xbdf0d3f7	-0.11759179
20	0xbd1c8df1	-0.038221303
21	0x3ca92eb9	0.020652162
22	0xbd733f61	-0.059386615
23	0x3d6fc355	0.058535893
24	0xbd5795a3	-0.05263294
25	0xbe0c5655	-0.13704808
26	0xbda78b17	-0.08180826
27	0xbdedc5b8	-0.116099775
28	0x3db348e9	0.08754141
29	0x3cef46af	0.02920851
30	0xbe06e3c3	-0.13172822
31	0x3de7e47a	0.11322875
32	0xbd6c146b	-0.05763666
33	0xbe169a84	-0.1470738
34	0xba08315e	-0.00051953446
35	0x3e233d90	0.15941453
36	0xbc16d139	-0.009205156
37	0xbd57f012	-0.052719183
38	0x3da8dd1d	0.08245299
39	0x3be360df	0.006939038
40	0xbd401fae	-0.046905212
41	0xbe33d428	-0.175614
42	0x3d384204	0.044984832
43	0xbdb93679	-0.09043593
44	0xbdce0fcf	-0.10061609
45	0xbd969520	-0.07352662
46	0x3d56332f	0.052294906
47	0x3dbe69dd	0.092975356
48	0xbd68773f	-0.056754347
49	0xbc85b5db	-0.016322067
50	0x3cccaeee	0.024985757
51	0xbd8551e4	-0.0650976
52	0x3c8ebc8e	0.017423894
53	0x3d379bdb	0.04482637
54	0x3dc81a77	0.09770673
55	0xbd5ddce8	-0.05416575
56	0xbdb8437f	-0.08997249
57	0xbe065003	-0.1311646
58	0xbc886cd0	-0.016653448
59	0xbdd2c02d	-0.10290561
60	0x3e01851f	0.12648438
61	0xbc2f43c6	-0.010697311
62	0xbcdcdf81	-0.026962044
63	0xbe268fd1	-0.16265799
64	0xbc30d5c2	-0.010793151
65	0x3ddfad01	0.1092167
66	0xbdaa09e5	-0.083026685
67	0xbe13cee2	-0.14434388
68	0xbe01971e	-0.12655303
69	0x3d89e378	0.06732839
70	0x3d49af0e	0.04923921
71	0xbd5c99eb	-0.053857725
72	0x3ce0cd7e	0.027441736
73	0x3d2992ca	0.041399755
74	0xbd1911d1	-0.037370507
75	0xbe1aa81f	-0.15103196
76	0x3e861a22	0.26191813
77	0x3d9662c8	0.0734306
78	0x3daa6561	0.08320118
79	0x3de123ee	0.10993181
80	0x3e943d1f	0.28952882
81	0xbe11cfb0	-0.14239383
82	0x3c8c2b31	0.017110439
83	0xbe16d497	-0.14729534
84	0xbc620169	-0.0137942815
85	0x3d77d66b	0.06050722
86	0x3d966e5c	0.07345268
87	0xbe05908a	-0.13043419
88	0xbd342b70	-0.043986738
89	0xbcfab4a6	-0.030603718
90	0xbcbf902a	-0.023384172
91	0xbdd143c2	-0.10218002
92	0x3dd00d85	0.10158829
93	0xbdfccf5e	-0.1234424
94	0xbdb2470f	-0.087049596
95	0xbe2e62eb	-0.17029922
96	0xbdf38ef2	-0.11892499
97	0x3c4db43b	0.012555177
98	0xbc82ecc6	-0.015982043
99	0x3d91241c	0.070869654
100	0xbdcbdaf0	-0.099538684
101	0x3d8a02bd	0.067388035
102	0xbac297f5	-0.0014846312
103	0x3d5a11f4	0.053239778
104	0x3cb0dca9	0.021589594
105	0xbdf743b8	-0.12073463
106	0xbd452b85	-0.048137207
107	0xbcf3eae9	-0.0297751
108	0xbdee0bab	-0.11623319
109	0xbe002c5f	-0.12516926
110	0x3dcd5adc	0.10027096
111	0xbe132857	-0.14370857
112	0xbdfb5147	-0.12271362
113	0xbe2a70fc	-0.16644663
114	0x3d1d1aec	0.038355753
115	0xbd298ab4	-0.041392043
116	0x3c730249	0.014832088
117	0xbda4de57	-0.080502205
118	0x3d83a43f	0.06427812
119	0xbb6deb0d	-0.0036303431
120	0xbcc96693	-0.024585044
121	0xbe00a808	-0.12564099
122	0x3dc28c77	0.09499448
123	0x3d5ec1ba	0.05438397
124	0x3d6d2c36	0.05790349
125	0x3bfab3dd	0.007650836
126	0xbddb41ee	-0.107059345
127	0x3dc9654f	0.09833776
128	0xbd9eab80	-0.07747555
129	0xbd1cec4c	-0.038311288
130	0xbc47e53e	-0.012200652
131	0x3d78fd94	0.060788706
132	0xbd48352d	-0.048878837
133	0x3c875c65	0.01652355
134	0xbd4aae68	-0.049482733
135	0x3d824756	0.063612625
136	0x3d29bbc6	0.04143884
137	0xbc920bd4	-0.017827906
138	0xbdf2635d	-0.11835358
139	0x3dc7ec2b	0.09761842
140	0x3db96e3c	0.09054229
141	0xbdfbcf8b	-0.12295445
142	0x3d7e26d2	0.06204874
143	0x3d8f3d73	0.069941424
144	0xbd575614	-0.052572325
145	0xbd66c3e8	-0.056339175
146	0x3d9348e2	0.07191636
147	0xbdb07b51	-0.08617271
148	0x3da37770	0.07981765
149	0xbd0cbcc8	-0.034359723
150	0xbd64e179	-0.05587909
151	0xbcc83cbd	-0.024443025
152	0x3d1c3d77	0.038144555
153	0xbe0b0da6	-0.13579425
154	0xbc80a988	-0.015705839
155	0xbd8619a3	-0.065478586
156	0x3d2b0aed	0.041758467
157	0xbccdf59f	-0.025141535
158	0xbd6691fe	-0.056291573
159	0x3e33ce58	0.17559183
160	0x3dd42ee2	0.10360505
161	0xbd95fe7a	-0.07323928
162	0xbcd65d9e	-0.026167687
163	0x3d96033f	0.07324838
164	0xbdac9db1	-0.08428515
165	0x3d85777c	0.065169305
166	0x3e385bd3	0.18003778
167	0xbae0f19c	-0.0017161849
168	0x3db523ad	0.08844695
169	0xbc1083ba	-0.008820469
170	0x3de6b3ae	0.1126474
171	0xbc9644fc	-0.018343441
172	0xbda2a927	-0.079424195
173	0x3c0985b3	0.008393693
174	0xbd147a7b	-0.03624962
175	0x3db1456b	0.086558186
176	0xbe0be652	-0.13662079
177	0xbca756c9	-0.020427125
178	0xbd061b73	-0.03274102
179	0xbd4a0eaa	-0.04933039
180	0xbdd92a20	-0.10603738
181	0x3e067afd	0.13132854
182	0x3d223ead	0.039610554
183	0xbca4595d	-0.020062143
184	0x3d4ce6db	0.05002485
185	0xbd38c446	-0.045109056
186	0xbc6460ee	-0.013939125
187	0xbdc78a9e	-0.09743236
188	0x3db1fd0b	0.08690842
189	0xbcb21c10	-0.021741897
190	0xbcfdf146	-0.030998837
191	0xbd16d696	-0.03682574
192	0x3dca492d	0.098772384
193	0xbce57478	-0.028009638
194	0xbd3bf8f5	-0.04589172
195	0xbdfa5ffd	-0.122253396
196	0xbe09ab5c	-0.13444275
197	0xbd5e6776	-0.054297887
198	0x3cf92da0	0.030417264
199	0x3d703961	0.05864847
200	0xbd3f9e1f	-0.046781655
201	0xbba6ac46	-0.0050864546
202	0x3d3bc8df	0.045845862
203	0xbdd771a5	-0.10519723
204	0x3e89c048	0.2690451
205	0x3c2b7d52	0.01046689
206	0x3dd7130a	0.10501678
207	0x3d2fdc33	0.042934608
208	0x3e1de4a1	0.15419246
209	0xbdeb6c30	-0.114952445
210	0xbdd6c135	-0.1048607
211	0xbd2cef74	-0.042220548
212	0x3db0dae3	0.08635499
213	0x3d82fab7	0.06395476
214	0xbd287a29	-0.041132126
215	0xbba1e53d	-0.0049406574
216	0x3df2f955	0.118639626
217	0xbd37410d	-0.04473977
218	0xbdf22f39	-0.11825413
219	0xbdbe2037	-0.09283488
220	0xbd346fb5	-0.044051845
221	0xbdcaa2a5	-0.09894303
222	0x3e4890d4	0.19586498
223	0xbd8bf7c0	-0.06834364
224	0xbd0f3c1f	-0.034969445
225	0xbd0d596d	-0.03450911
226	0xbd823cbc	-0.063592404
227	0x3de20e11	0.11037839
228	0xbde93905	-0.11387829
229	0x3c9941f1	0.018708201
230	0x3d4a9cb6	0.049465857
231	0x3e0c56e0	0.13705015
232	0x3ddce273	0.10785379
233	0xbddbba7e	-0.1072893
234	0xbd1090d3	-0.035294365
235	0xbbb8b885	-0.005637231
236	0xbd78cc22	-0.06074155
237	0x3d266eda	0.04063306
238	0x3dac9ab2	0.08427943
239	0xbe090853	-0.13382082
240	0x3bd25447	0.006418738
241	0xbe012e43	-0.12615304
242	0xbbb53094	-0.0055294726
243	0x3b3eed56	0.0029133162
244	0x3cd65bb2	0.02616677
245	0xbd870caf	-0.06594216
246	0x3e2235be	0.15840814
247	0xbd8fa9d8	-0.07014817
248	0xbd9ffede	-0.07812284
249	0xbd264d16	-0.04060086
250	0xbce4eed2	-0.02794591
251	0x3d50778a	0.05089525
252	0x3d909f1f	0.070616
253	0x3cf0f1b2	0.029412124
254	0x3cb1949f	0.021677313
255	0x3d67279d	0.056434263

network.4.bias f4 [64]
0	0xbd56b102	-0.0524149
1	0xbd8748cc	-0.06605682
2	0x3d6d2cae	0.057903938
3	0x3b4ade80	0.0030955374
4	0x3db6467d	0.08900163
5	0x3d6eb5dc	0.058278903
6	0xbda86a4b	-0.08223399
7	0xbbb517cd	-0.005526519
8	0x3d98d34d	0.074621774
9	0xbd4df186	-0.050279163
10	0xbcf33132	-0.029686544
11	0x3da8fe5c	0.0825164
12	0xbda014bf	-0.07816457
13	0x3c059b22	0.008154662
14	0xbb97eaad	-0.00463613
15	0xbdaf317c	-0.0855436
16	0x3c766fa5	0.015041267
17	0x3d871246	0.06595282
18	0x3d0218a7	0.03176179
19	0x3c1fa63e	0.009744225
20	0xbc7e2b03	-0.0155131845
21	0x3c91be94	0.01779107
22	0x3ccec503	0.025240427
23	0x3ce9e203	0.028550154
24	0xbdab273b	-0.08357092
25	0x3cb8d543	0.022562629
26	0xbd2b88d2	-0.04187853
27	0xbd8d2b70	-0.06893051
28	0x3d142fd5	0.03617843
29	0xbce14882	-0.027500395
30	0x3da1592c	0.07878336
31	0xbd201abb	-0.039087992
32	0x3c9607b7	0.018314226
33	0x3da5b72c	0.08091578
34	0x3c37664c	0.011193823
35	0xbc9a5fb8	-0.01884447
36	0xbbfce869	-0.007718135
37	0x3d7b8102	0.06140233
38	0x3ca26ad7	0.019826336
39	0x3ca15faf	0.019698946
40	0x3a8d7f2d	0.0010795348
41	0x3dc900cf	0.09814607
42	0x3d9f5491	0.07779802
43	0x3c02d1b8	0.007984571
44	0xbd1bbf91	-0.03802449
45	0x3d0b361c	0.03398715
46	0x3c757eff	0.0149838915
47	0x3dc8efad	0.098113395
48	0xbd77fe3c	-0.06054519
49	0x3d1781eb	0.036989134
50	0x3da0353a	0.07822652
51	0x3d919f8f	0.071105115
52	0xbd2cb362	-0.04216326
53	0x3cba201a	0.022720385
54	0x3c03db0c	0.00804783
55	0x3da2aed1	0.079435
56	0xbd4c8aa5	-0.04993691
57	0x3d20d984	0.03926994
58	0x3d9613e9	0.07328016
59	0xbdbdb573	-0.09263124
60	0x3d5e7cb5	0.05431815
61	0x3d0ee746	0.03488853
62	0xbd1af27b	-0.037828904
63	0x3d8fc15a	0.07019301

network.6.weight f4 [1, 64]
0	0x3e9e235c	0.30886352
1	0x3dde8c5a	0.10866614
2	0xbda65143	-0.08120968
3	0x3d98ad70	0.074549556
4	0xbde6e2ce	-0.11273728
5	0x3e00f1eb	0.12592284
6	0xbdd6c032	-0.10485877
7	0x3e456158	0.19275415
8	0x3e393f93	0.18090658
9	0xbd6bdecc	-0.057585523
10	0xbe20e3a2	-0.15711835
11	0xbdd1772e	-0.1022781
12	0xbe176578	-0.14784801
13	0x3e6a0f82	0.22857478
14	0x3dd5cb23	0.10439136
15	0x3db2ef9a	0.087371066
16	0x3d75bc4d	0.05999403
17	0x3e06bd53	0.13158159
18	0xbd5a3f94	-0.05328329
19	0xbd680c1b	-0.05665217
20	0x3df81c49	0.1211477
21	0xbe08da18	-0.13364446
22	0x3e400270	0.1875093
23	0x3dcf3ff1	0.10119618
24	0xbdb09186	-0.086215064
25	0x3c39cbeb	0.011340122
26	0x3d5d1933	0.05397911
27	0xbdf2863a	-0.11842008
28	0x3d8ffc56	0.07030551
29	0xbe35fb76	-0.17771706
30	0xbe2739ec	-0.16330689
31	0xbe109daf	-0.14122652
32	0xbd556197	-0.052095022
33	0xbdfb5761	-0.122725256
34	0x3e54149b	0.20710985
35	0x3e3e63e3	0.18592791
36	0x3dfe43a1	0.12415243
37	0x3e59d268	0.2127167
38	0x3e1dd81b	0.15414469
39	0x3df31bac	0.11870512
40	0xbde4b414	-0.1116716
41	0x3e3b30eb	0.1828038
42	0xbdc51069	-0.096222706
43	0xbd4707b6	-0.048591338
44	0xbe0802ef	-0.13282369
45	0x3e8faadc	0.28060043
46	0xbdfe910e	-0.12430011
47	0x3e8b90df	0.27258965
48	0x3e1cb8ae	0.15304825
49	0xbda7fc07	-0.08202367
50	0x3db0d3f6	0.08634178
51	0xbe2fe014	-0.17175323
52	0xbde5002f	-0.11181676
53	0x3e221da2	0.15831617
54	0xbdab1471	-0.08353508
55	0xbdac1d68	-0.08404046
56	0x3e655f52	0.22399643
57	0xbe0510bb	-0.12994663
58	0xbd4e5951	-0.050378148
59	0xbdd4c3e1	-0.103889234
60	0x3e281ede	0.16418025
61	0x3dcd923c	0.100376576
62	0xbe06ee7f	-0.13176917
63	0xbdb97a27	-0.09056502
