training_ml_models/models/most_importances_NN_lwp_k_fold_0.pth (torch, 172233 bytes, 7 tensors)

network.0.weight f4 [256, 3]
000000 d9 a9 de be 18 6f 15 be b4 42 d5 be c7 05 82 3e
       -0.43488958 -0.1459316 -0.41652453 0.25395033
000010 df 6c ed be 7d 8a 73 bd f8 db 63 bd 71 c2 bd 3e
       -0.46372125 -0.059458245 -0.0556297 0.3706241
000020 57 2a 00 3f 87 e7 10 bf 21 f3 5c 3e 03 e9 91 be
       0.50064605 -0.5660328 0.21577121 -0.28498086
000030 47 e5 83 3e 03 d4 06 bf b5 87 d8 3c ba aa d8 3e
       0.25760862 -0.52667254 0.026431898 0.42317754
000040 8d de 6b be cc a9 b4 3e 07 a2 ee bd 0a a5 db 3e
       -0.23034115 0.35285795 -0.11651998 0.42899352
000050 99 c6 88 3e c9 87 fa be 0b fa 5b bd 3d ac 08 3e
       0.26714018 -0.4893172 -0.053705256 0.13346954
000060 c1 a4 47 3d db 19 dd 3e 9c a4 10 bf 2d b1 e9 ba
       0.048741106 0.4318379 -0.56501174 -0.0017829292
000070 44 b1 d5 bd 32 a3 ed 3e 57 ee 0e 3f fb 3f e7 3d
       -0.10434201 0.4641357 0.5583243 0.112915
000080 f9 51 00 3e b0 40 81 3e 67 5a 24 3e 9c 2f c9 3e
       0.1253127 0.25244665 0.16050111 0.39294136
000090 c7 3c 1c 3f 81 34 fa bd d0 33 86 be af 07 e9 be
       0.6103024 -0.122170456 -0.26211405 -0.45513675
0000a0 e9 4a d3 be 4d dc 97 be d7 ec b2 be 7c 43 b1 be
       -0.4126809 -0.29660264 -0.3494632 -0.346218
0000b0 6e a7 05 3f fd 57 ca 3e 63 66 e5 bd 89 80 01 3f
       0.522086 0.39520255 -0.11201169 0.50586754
0000c0 35 ce d6 be ed dd c0 be 66 58 d8 3e f6 88 93 3d
       -0.41954198 -0.37669316 0.42254943 0.072038576
0000d0 ad 9a a3 3e 08 df 92 be c3 ab 9e 3c a1 e2 96 be
       0.31953946 -0.28685784 0.019369012 -0.2946978
0000e0 c6 f2 07 be a4 ca 18 3f d8 57 d3 be cd 64 6b 3e
       -0.13276204 0.59684205 -0.41277957 0.22987671
0000f0 c3 df d2 3e 92 ce af be 8e a7 13 3f dc 3d e4 3e
       0.41186342 -0.34337288 0.57677543 0.44578445
000100 4a 5c ce 3e c4 ab 77 3e c8 81 11 3f 6a 87 c4 be
       0.40304786 0.24186617 0.56838655 -0.38384563
000110 0c 5f e7 bd e3 d0 1f 3e a0 1f 29 3c 2f e3 ec 3e
       -0.11297426 0.15607028 0.010322481 0.46267077
000120 b8 d2 4e bc dd e2 6a 3e a0 73 02 3f ab 83 56 3b
       -0.012623481 0.22938104 0.5095768 0.0032732289
000130 71 ae f9 be 57 77 70 be 84 93 02 3e 00 5c e1 3e
       -0.487659 -0.23483025 0.12751585 0.44015503
000140 91 af e4 3e a9 ff 16 3d 51 76 82 be b3 01 0e 3f
       0.44665197 0.03686491 -0.25480893 0.5547134
000150 c3 0b ed be e0 db 08 3f 9c 54 03 3f be 17 fb be
       -0.46298036 0.534605 0.5130098 -0.4904155
000160 cd 8e bd 3d 9f f7 3a be 68 25 11 3f 67 27 0f bf
       0.09255753 -0.18258522 0.566977 -0.559195
000170 8c 5d cd 3d b3 66 04 3f 70 ec d3 3e 8e e5 13 bf
       0.10027608 0.51719207 0.41391325 -0.5777215
000180 1f 6d 98 be 88 aa db be 69 eb bf 3e 72 a1 1e bd
       -0.29770753 -0.42903543 0.3748429 -0.038728185
000190 55 74 a2 3e c4 d2 ff 3e 7f 43 89 3e 9d 6e 10 3f
       0.3172938 0.4996549 0.26809308 0.5641878
0001a0 9f 8c b7 3e 3d 31 26 bf ba 67 34 3d c6 b1 8d 3e
       0.35849473 -0.6491888 0.044044234 0.27674693
0001b0 5c 0c 14 be 1b 5f a8 3e 79 74 c5 be ac a1 fd 3e
       -0.1445784 0.3288506 -0.38565424 0.49537408
0001c0 54 a4 84 be d1 2c 67 be 4c 2e 00 3e e2 fa 05 bf
       -0.25906622 -0.2257569 0.12517661 -0.5233594
0001d0 88 17 60 bd 33 bc 03 bf 06 ee a5 be 8f 3d 00 bf
       -0.05470994 -0.51459044 -0.3240816 -0.5009393
0001e0 ee 12 e0 3d e1 dc ed bc 9c 7f e6 be cb e8 b5 3e
       0.109411106 -0.029035987 -0.45019233 0.3552917
0001f0 1c 72 3d 3e 62 33 d3 be 9f dd d9 3c 92 75 f7 be
       0.1850056 -0.4125014 0.026594935 -0.48331887
000200 7c 50 a3 be 41 8b 83 be 69 1c 17 bf ea 4d 9a 3e
       -0.31897342 -0.2569218 -0.59027725 0.3013757
000210 67 05 fb 3d ed 3e 92 be f7 4a c5 bb 69 f8 ae 3e
       0.1225689 -0.28563634 -0.0060208994 0.34173897
000220 bd 61 c1 3d 5c cb 9a 3e a4 3f 7c be 63 9d 8b be
       0.0944247 0.30233276 -0.24633652 -0.27268514
000230 15 e9 06 bf 71 4f e9 3e 67 de 14 be 8d ef 07 3e
       -0.52699405 0.4556842 -0.14537965 0.13274975
000240 16 4a 3f be b5 66 8f bd 27 0d 04 3f c1 c1 31 be
       -0.18680605 -0.07002012 0.5158257 -0.17359067
000250 c0 af 13 bf c9 42 5c be f0 2b 10 3e 6c 2a 17 bd
       -0.5769005 -0.21509852 0.14079261 -0.03690569
000260 55 8f 0c bf 84 aa f9 3d b1 ce db be ac 4c 7f be
       -0.5490621 0.121907264 -0.4293113 -0.24931592
000270 7b c2 16 3f 0c ce fe bc 7a 0f 85 3e 49 b9 00 bf
       0.58890504 -0.03110411 0.2598837 -0.5028272
000280 e3 0f 33 be 41 ef e3 3e b8 27 98 3e e6 81 73 3e
       -0.17486529 0.44518474 0.29717803 0.23780021
000290 57 b1 e3 3d d1 a1 e7 3e 3f 63 12 bf e5 87 15 3f
       0.11117809 0.45240644 -0.5718269 0.58410484
0002a0 2f 3b c4 bd 67 13 05 bf 8b 6a 66 3d 11 b3 3a 3e
       -0.09581601 -0.5198273 0.05625395 0.18232371
0002b0 ca e0 0e 3d ad 54 e2 be 24 6f 93 be a9 fe f9 be
       0.034882344 -0.44205227 -0.2879573 -0.48827103
0002c0 a0 f4 97 bd b5 c7 8f be 5e 90 8e 3e 38 bc ec 3e
       -0.074197054 -0.28082052 0.27844518 0.4623735
0002d0 fe 2a cc be 17 4a 2f bd 26 90 66 3e 53 9c 0d 3f
       -0.3987655 -0.042795267 0.22515926 0.55316657
0002e0 22 ef 11 bf 79 9c ee 3e b3 96 74 3d a5 9a 05 3f
       -0.5700551 0.46603754 0.05971403 0.52189094
0002f0 ed 92 0f bf 53 1a 0a bf e3 39 ff be 6b 36 1d bd
       -0.56083566 -0.5394642 -0.49848852 -0.038381975
000300 be c0 d8 3d 40 99 d5 be 92 a2 05 be 72 5d 19 be
       0.10583638 -0.41718483 -0.13050297 -0.14977053
000310 cc 9e 1d 3f 8b 8f 74 3e ed 38 1a bf be ef cb 3e
       0.6157043 0.23882882 -0.6024311 0.39831346
000320 b9 b2 96 3e 68 3e 8d be 80 ce 60 3e e0 fe d2 be
       0.2943323 -0.27586675 0.21953773 -0.4121008
000330 37 b9 c7 bd 75 42 a6 3d 05 54 20 3e bf de 9a 3e
       -0.09752124 0.081181444 0.15657051 0.30248067
000340 cc 45 7d be 6e 6f 88 3e 7d 7f 0c 3d 42 fb 0a 3f
       -0.24733657 0.26647514 0.03430127 0.5428964
000350 ec 8f 60 3d bf 53 b4 be ad 04 ed 3d a0 b8 f4 bd
       0.054824755 -0.35220143 0.115731575 -0.11949277
000360 ee 68 e1 3e 3b 6d 9f 3d 94 b2 de 3d a4 8b 9e 3e
       0.44025367 0.07784506 0.10873905 0.30965912
000370 64 49 0c bf bf 9b ba 3e f8 45 59 3e da f0 fa bd
       -0.54799485 0.3644695 0.21218097 -0.1225297
000380 6f 17 39 3e ee 75 9d be 3d 1c f6 bc 93 7e 13 3f
       0.18075345 -0.30754036 -0.030042762 0.5761501
000390 fd a0 24 3e cd 5b 37 3e 0d 34 e2 bd 00 72 08 3f
       0.16077037 0.17906113 -0.11045084 0.5329895
0003a0 74 08 11 3f e7 27 25 3e 97 3b 54 be 72 48 ef be
       0.56653523 0.16128503 -0.20725857 -0.4673496
0003b0 6e f2 62 be b6 20 ff be 53 60 a5 be c0 9e d9 bb
       -0.22162792 -0.49829644 -0.32300052 -0.006641239
0003c0 11 a7 ff 3e f2 5b a2 3e 2e 2b b6 3d d0 aa f5 3e
       0.4993215 0.31710774 0.088949546 0.47981882
0003d0 cc e2 74 be 1f 6d 0e bf 8e eb be be 0b db f0 be
       -0.23914641 -0.55635256 -0.3728909 -0.47042117
0003e0 68 ea 1b be 39 b8 e9 3b 6c 48 93 3e a5 a4 51 bd
       -0.15226138 0.0071325568 0.2876619 -0.051182408
0003f0 f3 bf 3c be 46 f3 a1 be ac cc 1d bf fa 6c b5 be
       -0.18432598 -0.31630915 -0.6164043 -0.35434705

network.0.bias f4 [256]
000000 e4 df 4e be b4 6e ed be cf 40 87 3e d6 55 77 be
       -0.20202595 -0.46373522 0.26416633 -0.24153838
000010 02 fa 89 3d 5f 46 02 bf 31 4d c6 be 11 db 04 bf
       0.06737138 -0.5088863 -0.38730767 -0.5189677
000020 f8 7a d6 3d 1f b6 05 bf 0c 72 65 be 09 aa 63 3e
       0.10472673 -0.5223102 -0.22406787 0.22232832
000030 68 b3 09 be 9f 0c 99 3e 9c fc 33 3e 86 bd 62 3e
       -0.13447344 0.29892442 0.17576832 0.2214261
000040 ef 98 d2 be e4 c4 c9 be 58 a2 1e 3f 37 16 50 bd
       -0.41132304 -0.39408028 0.61966467 -0.050802436
000050 e7 d2 87 3d f2 b3 08 bf a5 03 9c be dc f0 e9 bb
       0.06632023 -0.53399575 -0.3047153 -0.0071393084
000060 d3 7b 19 bf 09 8f e1 bc 54 03 11 be e8 c8 a6 3c
       -0.59954566 -0.027534025 -0.14161426 0.020359471
000070 f2 99 12 bf a3 89 e8 be c3 8a 00 be f5 64 3f 3e
       -0.5726615 -0.45417508 -0.12552933 0.18690856
000080 de b6 0f bf d3 63 0c 3f c2 55 7f be 42 07 16 be
       -0.5613841 0.5483982 -0.24935058 -0.14651206
000090 77 14 f9 bd 4a 91 c0 3e 8d 53 4b 3e 02 d6 67 be
       -0.121621065 0.37610847 0.19856091 -0.22640231
0000a0 c8 61 fa be fc dd e9 3d 3d ff 2f 3d 57 2e e1 be
       -0.48902726 0.11419293 0.042968024 -0.43980667
0000b0 60 94 74 3d 73 72 19 3f 58 24 cb be 5e a6 00 3f
       0.059711814 0.5994026 -0.39676166 0.50253856
0000c0 ad f5 cb bd 42 99 c0 be 04 ab 04 3f a5 7a e6 bd
       -0.09958968 -0.37616926 0.5182345 -0.11253861
0000d0 35 1f c1 3d 5a 58 b1 3e 45 1c 99 3e 3d c5 06 be
       0.094297804 0.3463772 0.2990438 -0.13161178
0000e0 db e7 a7 bc 74 56 76 3d d7 c3 77 be 97 41 6e 3e
       -0.0204963 0.060141042 -0.241958 0.23267208
0000f0 21 25 4a be fe 8d 9a be b6 bd 63 3e cd 01 8e 3c
       -0.19740726 -0.30186456 0.22240338 0.017334843
000100 28 54 a6 be 87 42 05 3f 2f b2 d6 3e b5 b6 80 3d
       -0.3248608 0.5205464 0.41932818 0.062848486
000110 c2 9e 04 be ca 8b 44 bd ef 16 90 be 1f 34 e1 be
       -0.12951186 -0.047984876 -0.28142497 -0.43985078
000120 44 dd 08 3f 2c 98 0f bf e4 5f b6 3d 80 4c 76 3e
       0.53462625 -0.5609157 0.089050084 0.2405262
000130 0c 00 93 3e 66 9a e5 3e 9f 0b ea bd dd 0f e6 3e
       0.28710973 0.4484436 -0.11427998 0.44933978
000140 58 65 55 be 1f df df 3d e3 48 08 bf e6 6f a6 3e
       -0.20839441 0.10931229 -0.53236216 0.32507247
000150 0a a2 76 be 14 09 b2 3e aa be 08 3f cc 48 a5 be
       -0.2408525 0.3477255 0.5341593 -0.32282102
000160 8e b8 95 be c5 23 da be b7 fa f6 be b1 fb 65 3d
       -0.29242367 -0.42605415 -0.48238155 0.056148235
000170 85 0f 5c 3e 6a 0c 28 be 49 cf bc be 9f 95 64 be
       0.21490295 -0.16410986 -0.36876896 -0.22322701
000180 b3 74 a3 be 32 97 48 be e3 73 29 3e 3e 28 07 3f
       -0.31924972 -0.19588926 0.16548114 0.5279578
000190 05 22 0f bf 56 bc 7d bc 9e 07 0c 3f 5e 1b e0 3e
       -0.55911285 -0.015486797 0.5469912 0.4377088
0001a0 59 41 f9 be 68 2b 8b be e0 55 8e be 97 1c 3f be
       -0.4868267 -0.27181554 -0.27799892 -0.1866325
0001b0 d4 5f 16 3f 8f 83 f3 3e 0d 96 34 be f5 14 13 3f
       0.5873997 0.4756131 -0.17635365 0.5745385
0001c0 c6 c3 25 be 14 ad e1 be d3 65 d7 bc e0 04 ab 3e
       -0.16187963 -0.4407736 -0.02629367 0.33402157
0001d0 e8 3b 45 be 56 fc da bd 08 c9 8b 3e dd 9a d2 3e
       -0.19261134 -0.106926605 0.27301812 0.41133776
0001e0 0e de 64 be ca 38 ea 3e de 6b 0a bf bf dc d0 3d
       -0.22350332 0.45746452 -0.5407084 0.10198354
0001f0 39 28 00 3f 1d 55 95 3e 9b de db 3e 68 c0 54 be
       0.50061375 0.291665 0.42943272 -0.20776522
000200 f8 06 c3 bd 38 3a eb be 05 4f 6a 3e 75 24 c4 3e
       -0.095228136 -0.45942855 0.22881706 0.38309065
000210 11 89 85 3e a7 39 7f 3b cf 98 65 3d 56 48 a9 be
       0.26081136 0.0038944276 0.056053933 -0.33063
000220 6a 59 fc 3d 0b ce 6e be 31 0c ba 3e 2b 01 14 be
       0.12321742 -0.23320787 0.36337426 -0.1445357
000230 13 b2 0d bf 63 cd 8a be 47 19 1d be 3a 42 c3 3c
       -0.55349845 -0.27109823 -0.15341674 0.02383529
000240 ed 2f a7 be 2b 85 a3 be a4 68 ff be 82 2d a1 3e
       -0.32653752 -0.31937537 -0.49884522 0.31480032
000250 7f 37 12 bf 72 c2 02 bf 83 9a fe be 6d 1c 01 3f
       -0.5711593 -0.5107795 -0.49727258 0.50434
000260 10 91 5c 3e b1 a2 a0 3e 8a 78 f6 3d 33 24 22 3e
       0.21539712 0.31374124 0.1203471 0.15834121
000270 13 05 cb bb 2a 63 f8 be b5 b1 5c 3d 20 97 f9 3e
       -0.0061956733 -0.48513156 0.053880412 0.48748112
000280 d6 23 45 be 32 65 16 3f b2 ba 61 be 47 3f 19 bd
       -0.19251952 0.5874816 -0.22043875 -0.03741386
000290 32 a1 b2 be 29 96 6e 3e a2 5e 96 be 7e 99 b0 3d
       -0.34888607 0.23299469 -0.29369074 0.08623026
0002a0 23 17 df be 1e b4 e4 3e 58 eb 9f be 80 38 d8 3e
       -0.4357234 0.44668669 -0.3123424 0.42230606
0002b0 c1 29 9d 3e 9b 94 fe be f8 e2 5b be 53 ec 1a be
       0.30695918 -0.49722752 -0.214733 -0.15129213
0002c0 22 33 20 3e 1a 20 b5 3a a3 bb b6 be dc 7b c9 be
       0.15644506 0.0013818771 -0.3569003 -0.3935231
0002d0 cc ed 0b bf f8 9c 3e be b5 76 0b bf c1 24 65 3d
       -0.54659724 -0.18614566 -0.5447801 0.055943254
0002e0 fb 4e 02 bf a2 99 ef 3d ee c4 34 be ce 82 0e 3e
       -0.50901765 0.11699225 -0.17653248 0.13917086
0002f0 26 57 c8 3d 97 00 0f 3f 5a 4d 00 be d5 64 f9 be
       0.09782247 0.55860275 -0.12529507 -0.4870974
000300 17 2e 8d 3e ef ea 09 3f 26 b8 07 3e 79 a2 67 be
       0.27574226 0.53874105 0.13253841 -0.22620572
000310 5b 2a 4f be 97 3b 04 3e 5a d7 c6 be a2 79 21 be
       -0.20231001 0.12913357 -0.38836175 -0.15769055
000320 3b a9 0b bf 7c 2a 2c be 67 c7 e7 be 68 8a bb 3c
       -0.545551 -0.16813082 -0.4526932 0.022893146
000330 8d b9 bd 3e 51 c6 03 3f d9 ba bc 3e 2e 94 99 bd
       0.37055627 0.5147448 0.36861303 -0.07498966
000340 da db c0 3e 80 9b 02 bf 14 4d 31 3e 74 37 64 bc
       0.37667733 -0.51018524 0.17314559 -0.013929237
000350 f7 87 f8 3e 6e c0 e0 3e 38 6a 6b be 25 2e 87 3e
       0.48541233 0.43896812 -0.22989738 0.26402393
000360 03 ba 0e 3f 75 bc 15 3f a8 92 94 3e 1b a6 52 be
       0.5575258 0.5849069 0.2901814 -0.20571177
000370 c7 6e 03 3f 6d 5e d3 be f3 27 17 3f b7 9d 03 bf
       0.5134091 -0.4128298 0.5904533 -0.5141253
000380 79 be ed 3e 2a 5e 93 3b a7 0d f0 3d 0f 1a 86 bd
       0.46434382 0.004497309 0.11721354 -0.06547939
000390 70 13 fc 3e 59 83 88 be b5 6e e6 3e b0 a7 05 bf
       0.4923358 -0.2666271 0.45006338 -0.52208996
0003a0 56 83 67 be 19 4c e7 3e 94 60 96 3c c4 2e 03 bf
       -0.22608694 0.45175245 0.018356599 -0.51243234
0003b0 43 11 29 3e cf 6d f5 3e 9a ef 6d 3e 14 b5 d4 bd
       0.16510491 0.4793534 0.23235932 -0.103861004
0003c0 dd 59 1c be 3f cc b8 bd 9a 39 a3 be 03 df a2 3d
       -0.15268655 -0.09023332 -0.31879884 0.07952692
0003d0 c6 b9 8b 3e 87 50 17 bf 13 77 bf 3e b0 d1 ed 3d
       0.2729017 -0.5910725 0.37395534 0.1161226
0003e0 da e0 61 3c 3d ad 10 be 85 78 05 bf c4 b3 0b be
       0.013786519 -0.14128585 -0.52137023 -0.13642794
0003f0 92 e2 d4 be ab 83 c8 3e e3 3e cc 3d 09 c6 80 3e
       -0.4157911 0.39162955 0.09972932 0.2515109

network.2.weight f4 [128, 256]
000000 a9 0d 4e bd 9d f5 6c 3d 0e 0e 83 3d 62 3e ed ba
       -0.050305996 0.057851423 0.06399165 -0.0018100257
000010 dc a8 15 bd f2 08 27 bd 5b 5b 4a bb 0f a0 4c be
       -0.03653799 -0.040780015 -0.0030877206 -0.19982933
000020 c0 ab 9e 3d 47 4f 1a bd 59 b7 45 3c ae 57 20 bd
       0.077476025 -0.03767326 0.012067639 -0.039146118
000030 13 ed 00 bd 37 cc 42 3d 0f 8c ef 3c 74 44 66 bd
       -0.03147609 0.047558036 0.02924159 -0.056217626
000040 bc 5d dc bd 0f c7 d6 3d 76 e4 7a 3d 33 ce 4b 3c
       -0.10760066 0.10487186 0.061253034 0.012439298
000050 a4 b3 a1 bc 19 cf 5d 3c 42 be 07 be b8 1f ee 3c
       -0.01973898 0.013538145 -0.13256171 0.029067859
000060 b9 6b 17 3c 01 2b 21 3d ca d9 98 bc c5 c5 6f bd
       0.009241992 0.039347652 -0.018658537 -0.058538217
000070 53 4e 4a 3d 54 21 7d 3d a3 f5 64 3d 01 68 d7 bb
       0.049391102 0.061799362 0.05589832 -0.0065736775
000080 19 57 b2 bc f5 18 13 3d 23 2f 33 3d 70 8d cc bc
       -0.021770047 0.035912473 0.043746125 -0.024969786
000090 4b 5e b0 bd 9c a5 f5 bc 14 5c f3 bc c0 69 fd ba
       -0.08611735 -0.029986195 -0.029706992 -0.0019333884
0000a0 2d 10 86 bc f5 20 81 bd 8b 94 01 3d 45 89 27 3d
       -0.016365135 -0.06305114 0.031635802 0.040902395
0000b0 05 a8 a1 bc 73 50 fa bc 72 dd 7d bd 84 5e 99 3c
       -0.019733438 -0.03055594 -0.061978765 0.018721826
0000c0 33 45 58 3d d6 42 19 3d bb d5 e5 3b 97 b7 09 bc
       0.05280037 0.037417255 0.007014004 -0.008405588
0000d0 89 c2 9f 3a a1 77 06 3d c9 59 89 bc eb 74 4e bb
       0.0012188713 0.03282893 -0.016766446 -0.0031502794
0000e0 ee 9f 07 3d 7b a9 54 bd a3 25 a2 bc 5b c7 5c 3c
       0.033111505 -0.05191944 -0.019793337 0.013475264
0000f0 5f c6 30 be 4b d7 a5 bd 2d 43 11 3d 6e a0 56 3d
       -0.17263173 -0.080977045 0.035464454 0.05239909
000100 3f f4 5a 3d fa 3b 8d 3d 49 a5 74 3c fd 58 6f bd
       0.053455587 0.06896205 0.014931985 -0.058434475
000110 f5 da 08 bd 83 74 09 bd 62 f6 9d 3c 73 2b 7d bd
       -0.03341194 -0.03355838 0.019282524 -0.061809015
000120 fb 6f 23 3d a0 03 ab 3b bb 6c 16 3d e8 73 2b 3d
       0.039901715 0.005218938 0.036724787 0.041858584
000130 c8 93 28 3d e4 ef c5 bc e6 75 07 3d 59 f5 59 3d
       0.04115656 -0.02416224 0.03307142 0.053212497
000140 5c f2 5c bd 51 e7 19 3d e0 18 5c bd 3e 80 21 bd
       -0.05394207 0.037574116 -0.05373466 -0.039428942
000150 9e 56 45 bd 78 22 fd bc 2d fb ca bc b0 a9 36 bd
       -0.048178308 -0.030900225 -0.024777973 -0.04459542
000160 6c f3 67 3d ea d5 88 bc 8f fd 16 3c d6 81 3b b9
       0.05662863 -0.016703565 0.0092157265 -0.00017882077
000170 b1 b4 f5 3c 5f d0 62 bd 8a 36 49 3d 9a 3d c5 ba
       0.029993387 -0.0553745 0.049124278 -0.0015048266
000180 f5 24 a1 3a 51 3c 5c bc ec af 40 3d e8 a6 da bc
       0.0012294339 -0.013442115 0.047042772 -0.026690915
000190 4f 29 cc bc 3e 4c c7 bc 2c da e6 bb d7 a3 24 bd
       -0.024922041 -0.024328347 -0.007045051 -0.040195312
0001a0 64 b6 dd bc d1 81 5d 3d b5 2b 7c 3d 98 6b 4b 3d
       -0.02706451 0.05407888 0.06156512 0.049663156
0001b0 65 18 74 3d 0a d0 34 bd 5c ec 9b 3b cf 78 86 3d
       0.059593577 -0.044143714 0.004758401 0.06566011
0001c0 4b cf 5d bd 4f 2a 48 bd 21 27 02 bd a3 0f 25 3c
       -0.054152768 -0.048868474 -0.031775597 0.010074529
0001d0 48 bd e8 bd af e4 16 3c b0 f9 19 3d e9 de 01 3d
       -0.113642275 0.009209796 0.037591636 0.031706724
0001e0 13 4c d7 3c e0 28 d2 3b 68 88 63 3d 2d 45 6e bd
       0.026281392 0.006413564 0.05555001 -0.05817144
0001f0 8e 33 56 bc 74 bb 0b bd 10 e7 03 bd 52 32 08 bd
       -0.013073815 -0.034114316 -0.03220278 -0.033251114
000200 14 62 4c bd a2 23 58 3d 58 bb 70 bc 21 12 a7 3c
       -0.049898222 0.052768357 -0.014693104 0.020394387
000210 6b 77 6b 3d 4a 70 5b 3c b9 a5 13 bd bd 4b 94 bd
       0.057486933 0.013393471 -0.036046717 -0.072410084
000220 a2 26 3e 3d 1a f9 61 3d 0b af 28 3b 0e c4 c1 bd
       0.046423562 0.055169202 0.00257391 -0.094612226
000230 a6 d7 00 3b a1 89 d8 3b 40 4d 80 bd 23 b7 fc 3c
       0.0019659786 0.0066082035 -0.06264734 0.030849045
000240 20 e4 19 3d 50 0e f4 3c c8 4e eb 3c 6e bb 0e bd
       0.037571073 0.029791981 0.02872409 -0.034846716
000250 5a 5c 81 3c ea 23 c7 3d 30 94 8b 3c a5 1f 4e 3c
       0.015791107 0.09723647 0.017038435 0.012580787
000260 4f c6 6c bd 8a b2 d4 3c 4c fc 70 3d 4a 8b ed bc
       -0.05780631 0.02596404 0.05883436 -0.028997082
000270 d1 ac e3 bc b4 66 f9 bc c3 5f 99 bc 19 1d b2 bc
       -0.027792366 -0.03044448 -0.01872242 -0.02174239
000280 0b 91 22 bd e6 35 92 3c 20 15 e7 3d d7 6f 06 3d
       -0.039689105 0.017847966 0.11283326 0.032821503
000290 c4 e0 c6 bc 77 dc 2b 3d 14 7b 5f bc 55 4d 8f bc
       -0.024277098 0.0419583 -0.013640184 -0.01749293
0002a0 a8 59 61 bd 98 b9 4d bc ab 26 e4 bc 46 aa 0b bd
       -0.055017143 -0.012556456 -0.02785047 -0.034097932
0002b0 5d 69 f1 b9 6d e8 7f bd d9 b9 d1 bc 90 54 fd ba
       -0.00046045604 -0.062477518 -0.025601314 -0.001932757
0002c0 9c 0d 2c 3d a3 16 83 bd 75 3c 01 bd 7e b8 1b 3d
       0.042005166 -0.06400802 -0.031551797 0.038017742
0002d0 e6 ad 65 3d 07 5f ea 3c 11 70 36 bd ff 0d 30 3d
       0.056074046 0.028609766 -0.04454047 0.042982098
0002e0 00 de 66 39 a2 6f 91 bb 1b 59 72 3c 3b d2 76 3c
       0.0002201721 -0.0044383565 0.014791752 0.015064771
0002f0 66 c7 0c bd 5f a7 74 bc b1 5a d5 bd ae 5d 5c 3c
       -0.03436985 -0.0149324825 -0.10417689 0.013450069
000300 34 ce 07 bd 44 78 ac bc 03 48 eb 3a c0 2d 84 bd
       -0.033155635 -0.02105344 0.0017950538 -0.064540386
000310 92 43 b8 bc b4 9c 2f 3c 1f 64 36 bc 6c 88 3c bd
       -0.022493158 0.010718513 -0.011132269 -0.04602854
000320 b0 b3 0a 3e 5e 0a 5f bd f1 44 04 bd 47 f3 8e 3c
       0.13545108 -0.054453246 -0.03229231 0.017449988
000330 00 82 a5 3c fe d5 53 bd 60 93 73 b9 0d ef 27 3b
       0.02020359 -0.05171775 -0.00023229187 0.0025624663
000340 90 e9 1e bd ea b8 07 3d 87 73 36 ba 4e 10 6b 3a
       -0.03879696 0.033135332 -0.0006959964 0.0008966968
000350 e6 25 71 3d cb d8 32 3c bf 9b 86 bc 27 0c 5c 3d
       0.058874033 0.010915945 -0.016431687 0.053722527
000360 05 9b 48 bd a1 01 64 3d 71 db 3c bb 32 55 5b bd
       -0.048975963 0.055665616 -0.002881732 -0.053548045
000370 aa 27 c3 3a 16 b9 37 3d 98 99 8d bc 8a ec 5d 3d
       0.001488914 0.044854246 -0.017285153 0.05418066
000380 f4 86 b8 3c cf 82 86 3d ec d4 43 3d cc 5f 47 bc
       0.022525288 0.065679185 0.04781048 -0.012168836
000390 8c 5d 99 3d 61 31 ee 3c ba 89 5f 3d fe 30 06 bd
       0.07488546 0.02907628 0.054574706 -0.032761566
0003a0 0e 0b 86 bd ec eb b4 3b 29 73 e5 ba a8 f1 e3 3c
       -0.06545077 0.005521288 -0.0017505634 0.027825192
0003b0 0e 84 2a 3d ce 1b 1c 3d 17 dc fa 3c bb 0a 87 bd
       0.041629843 0.038112454 0.030622525 -0.065938435
0003c0 c2 b8 6b 3d 2c 83 d9 3c 5f 45 74 3c c2 d3 2d bd
       0.057549246 0.026551805 0.0149091175 -0.042438276
0003d0 21 ce 69 bd c6 02 44 3b 7d 67 70 3d 7b 57 09 3d
       -0.057081345 0.002990888 0.058692444 0.033530694
0003e0 20 ef 7a 3d a2 77 94 bc a3 65 17 be 26 78 eb bc
       0.061263204 -0.018123452 -0.14784865 -0.028743815
0003f0 b0 0a 8a bb 4b 9d 9a b9 8f 12 03 3d 3c f2 32 bd
       -0.0042127 -0.0002949036 0.03200012 -0.043688044

network.2.bias f4 [128]
000000 c2 2e 14 3d 50 34 4a bd 74 8b 9d 3d 2d aa 04 bb
       0.036177404 -0.049366295 0.07692614 -0.0020243034
000010 70 8a 1a 3d c9 00 44 bd 64 c1 32 3d 96 b0 27 bd
       0.03772968 -0.04785231 0.043641463 -0.04093989
000020 f8 d8 63 3d 5e 1d b9 3c 0b 5a 20 ba 5c 2c 0e bd
       0.05562684 0.022597011 -0.0006116933 -0.034710273
000030 96 be 6d 3d 1b 1b 34 bd 67 02 0c 3d e8 3c 67 3d
       0.058043085 -0.043971162 0.03418198 0.05645457
000040 c5 6c 94 bc a2 dc 5c bc 07 db 0e bd ee 46 0a bd
       -0.018118272 -0.013480337 -0.03487685 -0.03375905
000050 75 ab 06 bd e9 61 fc 3c 8e 50 78 3d ce 19 86 bc
       -0.032878358 0.030808406 0.060623698 -0.016369727
000060 36 db 93 3d 40 2d 6b 3d 4c ab 38 3d 4a f7 89 3c
       0.072195455 0.0574162 0.045085236 0.01684155
000070 e5 ce 92 bc 6d 8b 4c 3d ba 8a 26 bd cc 3a 2a bd
       -0.01792092 0.049937654 -0.040659644 -0.04155998
000080 00 00 e3 39 9e 6c ad 3c e0 de 92 3d 0b 2a 8a 3d
       0.00043296814 0.021169957 0.07171416 0.067463
000090 81 08 90 3c da d7 14 bd 9e c0 b8 bb d0 78 3c 3d
       0.01758218 -0.036338665 -0.005638196 0.046013653
0000a0 4f b6 a9 bc c5 a0 73 bc 83 bd 5c 3b fc 6c 19 bd
       -0.020716814 -0.014869873 0.0033682294 -0.03745745
0000b0 99 6e 47 3d 12 0f 2d bc 37 7c 0e bd 92 14 5c 3d
       0.04868946 -0.010562675 -0.03478643 0.053730555
0000c0 22 00 2f bd 03 ff e1 bb ad 13 03 bc 2c 2d 39 3a
       -0.042724736 -0.006896855 -0.008000297 0.0007063921
0000d0 f6 ef b7 bb bc 86 eb bc 78 a8 94 3d b6 3f 31 bd
       -0.0056133224 -0.02875077 0.07258695 -0.04327365
0000e0 73 ad 0b 3d ac c8 15 3d 1e 5c ed bb 4e f9 d6 3c
       0.03410096 0.03656833 -0.0072436472 0.026241925
0000f0 32 2b 9b 3b b4 ef 0c 3d 52 66 49 3d b5 99 bd 3c
       0.004735374 0.034408286 0.049169846 0.023144582
000100 ad 47 8f 3d a0 89 bc bb 80 1b 83 3c e3 84 5a 3d
       0.06996093 -0.005753711 0.016004324 0.053349387
000110 a1 47 6a 3d a3 48 d1 bc 8f 00 85 3d 09 12 8d bb
       0.057197217 -0.025547331 0.06494247 -0.0043051285
000120 4a d4 84 3d fc d3 30 bd 46 ea 65 bd 22 73 40 3d
       0.064858034 -0.043170914 -0.056131624 0.0469848
000130 a6 67 f0 bb c8 11 1d 3b 45 03 f4 3b 5c 97 77 bc
       -0.0073365746 0.0023966897 0.007446679 -0.0151117705
000140 dd 59 8a 3d da 73 bd 3c e0 fd 89 3d 2f 1f f0 bc
       0.06755421 0.023126531 0.06737876 -0.029311744
000150 02 dc e9 3c da b1 0f 3d b1 4c 80 3d 08 8a 41 bd
       0.02854729 0.03508172 0.06264628 -0.047250777
000160 18 d4 13 3d 7b 05 89 3d 08 bf df 3c 4a 3c de bc
       0.03609094 0.066904984 0.02731277 -0.027128357
000170 a7 19 6e 3d a5 3f e5 bc 55 a0 2c 3b c0 6e 85 bb
       0.058129933 -0.02798445 0.0026340683 -0.0040720403
000180 b7 22 4e bc be 82 3c bd fb 8b 57 3d 12 47 68 bb
       -0.012581519 -0.046023123 0.05262373 -0.0035442752
000190 3b b0 6f 3d b6 5e 55 bc cc e8 29 3d d5 73 64 3d
       0.058517676 -0.013023069 0.041481778 0.05577453
0001a0 fc c3 99 bc d9 63 90 3d 97 74 a2 3d a6 f4 52 3d
       -0.01877021 0.070502944 0.07932394 0.051502846
0001b0 63 af 95 3c 5e a9 39 bd b0 93 1d bd 1c 89 d1 3c
       0.018272107 -0.045327537 -0.038470924 0.025578074
0001c0 dd 52 1b bd 48 87 99 3d 02 12 dd 3c 72 16 92 3c
       -0.03792082 0.07496506 0.026986126 0.017832968
0001d0 b8 cc 0e 3d 13 de 82 3d fc 13 24 bc 8b f3 b7 3b
       0.034863204 0.063900135 -0.01001453 0.0056137494
0001e0 a4 e1 60 3d d3 2f 2f bd ee 79 b1 3c bc 30 da 3c
       0.054902688 -0.042770218 0.021664586 0.026634566
0001f0 03 b2 14 3d a8 b6 46 bb 2f a7 52 bc 63 3e 40 bd
       0.036302578 -0.0030321274 -0.0128572425 -0.046934497

network.4.weight f4 [64, 128]
000000 bb 31 89 bd 1d 73 ab bd 8c 6e 60 3d a8 f0 83 bd
       -0.066989385 -0.083715655 0.054792926 -0.06442386
000010 00 72 17 be 7c a3 b9 bd fb f0 52 3d b7 7d a8 3d
       -0.14789581 -0.09064385 0.051499348 0.08227103
000020 29 d7 7c 3d 04 8f 9c bd 78 3d 0d bd f3 1b ab 3c
       0.06172863 -0.076444656 -0.03448245 0.02088735
000030 f3 93 54 bd 0d 96 28 3d 48 42 d8 bb 9c 41 84 bc
       -0.051898908 0.041158725 -0.006599698 -0.016144566
000040 29 c1 b3 3d b8 cc 95 3d 47 dd a4 be ed 14 c8 3d
       0.08777077 0.07314438 -0.3220007 0.09769616
000050 b3 59 6f 3d 0c 37 3e 3e 33 f8 56 bd c8 35 4c bd
       0.058435153 0.18575686 -0.052482795 -0.049855977
000060 89 fe 86 3d 64 df c3 3d 28 bf 2d bd be c9 49 3d
       0.065915175 0.09564093 -0.04241863 0.049264662
000070 d2 0a b6 3d 22 20 6e 3c 41 cf 0a bd d5 e2 92 bc
       0.088887826 0.014534028 -0.03388906 -0.017930428
000080 83 b4 a8 bd 6c bd bb bd 44 34 4b 3d 64 b7 76 bd
       -0.08237555 -0.09166989 0.04961039 -0.06023349
000090 66 ab 5b bd 1e eb 6d bd a9 45 c2 be d2 32 7f 3d
       -0.053630255 -0.058085553 -0.3794377 0.062304325
0000a0 3b 83 80 3d da e9 18 3d 66 b9 45 3d 35 27 3a bc
       0.0627503 0.037332393 0.048272513 -0.011361887
0000b0 b0 98 25 3d cd de 1d 3d 0a 21 a1 bd e0 8d 87 bd
       0.040428817 0.038542558 -0.0786763 -0.066188574
0000c0 e0 0c 91 bb b5 86 96 3d 43 d6 ea 3c 1f bd 95 bc
       -0.0044265836 0.07349912 0.028666621 -0.018278657
0000d0 28 c6 1f 3d 37 58 be 3d a3 df 84 bd 08 c5 80 3d
       0.039007336 0.092941694 -0.06487968 0.06287581
0000e0 1d 25 25 3d 93 da 75 bb 49 65 83 bd 54 67 91 3d
       0.040318597 -0.0037514314 -0.06415803 0.070997864
0000f0 04 a1 36 3d 3b 55 00 bc e9 3b 4d bc 20 42 2a bd
       0.04458715 -0.0078328205 -0.012526491 -0.041566968
000100 e8 4f 2d 3d 95 08 6c bd 42 df 81 3d 70 11 81 bc
       0.042312533 -0.057625372 0.06341411 -0.015755385
000110 88 71 5b bd d6 72 95 ba 43 22 a4 3d b7 af bd 3b
       -0.05357507 -0.0011402022 0.080143474 0.005788769
000120 81 56 0d 3d 7b 64 6d bd 44 c5 92 3c d0 a2 49 bc
       0.034506325 -0.057957154 0.01791633 -0.012306884
000130 ce 4a 8d 3d c5 6f a1 bd f4 52 6f 3d ef 04 07 3d
       0.068990335 -0.078826465 0.05842872 0.03296369
000140 2b d2 82 3d 07 d0 d0 bd 8e 60 15 bc 4b a1 09 be
       0.063877426 -0.10195928 -0.009117259 -0.13440435
000150 b3 f1 4a 3d b8 c0 8a 3d 1e 89 83 3d 7b f8 26 3d
       0.04954691 0.067750394 0.064226374 0.040764313
000160 96 d1 04 bd a5 31 6a bd ec fa 05 bd f6 77 a9 be
       -0.03242644 -0.05717625 -0.03271 -0.33099335
000170 70 70 6b 3d 68 5e 16 3d c1 20 ad 3c 30 b4 31 bd
       0.057480276 0.036711127 0.021133782 -0.04338473
000180 7b 48 76 3d ef 00 dc bc 08 1c c5 3d ab 68 a3 be
       0.060127717 -0.026855914 0.09624487 -0.31915793
000190 4b 10 5f 3c a5 6a 25 3d 84 f3 34 3d 29 ea ce bc
       0.013614724 0.040384907 0.044177547 -0.02525814
0001a0 8f ed 34 bd b7 99 05 3d 40 18 c4 3d 5c c9 35 bd
       -0.044171866 0.032617297 0.09574938 -0.044381484
0001b0 a9 89 5a bd c6 fd 53 be c2 51 e9 3c 77 59 61 3b
       -0.05335394 -0.20702276 0.028481368 0.00343856
0001c0 fa c4 86 bd b6 6a 30 3d 28 73 8b 39 92 36 bf bd
       -0.06580539 0.043070517 0.00026597944 -0.0933658
0001d0 47 3e c7 3d f4 d9 0d bd ce 56 f0 bc fd 4a 57 3d
       0.09728675 -0.034631684 -0.029338267 0.05256175
0001e0 c0 f0 96 bd e1 69 8c be a6 fc d1 3a dc 5b c5 3d
       -0.07370138 -0.2742453 0.001602073 0.096366614
0001f0 08 a4 c6 bd e1 52 42 bc 1a b4 bf bc f5 84 98 bc
       -0.09699255 -0.01186058 -0.023401309 -0.018618086
000200 3b 97 d8 bb d8 e0 a5 3d aa 2b bc 3c 72 95 8e bc
       -0.006609825 0.08099526 0.02297004 -0.017405245
000210 fe af 9f 3d 1a b6 4f 3d 0f 5e ad bc 23 72 49 3d
       0.0779724 0.050710775 -0.021163015 0.049181115
000220 2c 60 85 bd 5b bb 9f 3d 60 25 aa 3d 81 af ae bd
       -0.06512484 0.07799407 0.0830791 -0.085295685
000230 6c af 37 bb cb 75 81 3d 7a 22 0d bd 0e 01 29 bd
       -0.0028028144 0.06321295 -0.034456708 -0.04126077
000240 72 20 70 bc b3 df 9f bd 6e 49 3f bd 71 6a 39 3c
       -0.014656173 -0.07806339 -0.046700887 0.0113168815
000250 aa 1f 22 bd d8 5c 19 3d 6d 56 5b bc 8d a5 66 bd
       -0.03958098 0.03744206 -0.013387305 -0.056310225
000260 75 02 99 3d 63 c0 87 3d af e9 f3 3b c6 65 91 3b
       0.07471172 0.06628492 0.0074436287 0.004437181
000270 88 56 5d bc ba 3f a7 bd 87 d2 62 3c ee 2c 25 bd
       -0.0135094 -0.08166452 0.013844139 -0.04032605
000280 0a 1e 22 bc 8c 01 c2 b9 63 c9 f3 3c 2d 54 46 3d
       -0.009894857 -0.00037003716 0.029759115 0.04842012
000290 b3 06 fa 3b dd 3e 62 3d 22 c4 9f bd 7a ca f3 bc
       0.007630193 0.055235732 -0.07801081 -0.029759634
0002a0 a6 0a 8c bc b7 04 36 3d c4 86 72 3d f8 53 2d 3d
       -0.017094921 0.04443809 0.059210554 0.042316407
0002b0 d6 eb ba bc 1e e7 1b 3b 74 78 48 3d 57 b4 7b bb
       -0.022817533 0.002378888 0.048942998 -0.0038407051
0002c0 fc bc 9d 3c 07 41 9e 3d 03 0f f3 bc 0d e2 0d 3a
       0.019255154 0.07727247 -0.029670244 0.00054124073
0002d0 20 86 42 bd 8d 18 e9 bc 8b 7b ea 3c fd ec 4c 3d
       -0.047491193 -0.02845409 0.028623363 0.050030697
0002e0 3f da e7 bc 79 c3 58 bd 51 38 8d bd ab f8 48 3d
       -0.02830231 -0.052920792 -0.06895507 0.049065273
0002f0 20 b6 bf 3c 92 50 de 3c c3 60 96 bd aa e0 44 3d
       0.023402274 0.027138028 -0.073426746 0.04806582
000300 57 79 4c bd 0b 1f 7b bd 19 52 52 3d 92 04 99 3d
       -0.049920406 -0.0613089 0.051347826 0.07471575
000310 24 ad 81 bd 5f 87 87 bd 6f 2f a6 bd 19 a6 19 3d
       -0.06331852 -0.06617617 -0.08114516 0.03751192
000320 a2 a5 8d bd 36 37 98 bd 3c 6e e5 bb ed 89 36 bd
       -0.069163576 -0.07432406 -0.0070016664 -0.04456513
000330 36 58 3f 3d 36 77 22 3d 4a 55 9d 3d 94 b2 fd bb
       0.046714984 0.03966447 0.07682283 -0.0077422354
000340 7f 4e 90 3b cb 9c 93 3d c4 ce 42 3c 26 81 7b 3c
       0.0044038887 0.0720764 0.011890117 0.015350616
000350 48 8d af bc f9 62 3c bd 61 00 4d bd 2c 86 a2 bd
       -0.021429673 -0.045992825 -0.05004919 -0.079357475
000360 39 15 7a 3d 3b 31 90 3d 18 c7 98 bc 7d 4f da 3c
       0.061055396 0.0704064 -0.018649623 0.026649231
000370 03 62 b5 bd b0 77 39 bd 58 7e ab 3d bf c3 9f bd
       -0.08856585 -0.04528016 0.083737075 -0.078010075
000380 4d a3 a3 bd ea c7 b0 3d 65 90 b1 3d 20 f4 35 3c
       -0.079901315 0.086318806 0.08670119 0.011105567
000390 32 56 56 bd 47 da 6b 3d fd dc 0c 3c c7 2a a0 bd
       -0.052328296 0.057581212 0.00859761 -0.07820659
0003a0 14 40 94 3c 84 1d 86 bd 7e 9e 45 bc 7e 97 01 bd
       0.018096961 -0.065485984 -0.012061713 -0.031638615
0003b0 d6 4f ee 3c 9b a1 70 bd 97 b7 ac 3d db b6 a0 bd
       0.029090803 -0.05874787 0.084334545 -0.07847377
0003c0 f0 b3 ff 3c 30 09 a3 3d 8b 25 79 bc 65 77 cf bc
       0.03121373 0.07960737 -0.015206705 -0.025325486
0003d0 50 93 a9 bd 6a ef 8f bc 03 a7 59 3d 69 d8 04 bd
       -0.08280051 -0.017570216 0.05313779 -0.032432947
0003e0 00 72 17 bd a3 22 80 3c 92 03 49 bd f0 0d 4b bd
       -0.036973953 0.015641516 -0.04907567 -0.04957384
0003f0 fe f6 96 3d ac a2 c9 3c fe 70 1c bd 3d 98 04 bd
       0.07371329 0.0246137 -0.038193695 -0.03237175

network.4.bias f4 [64]
000000 f3 d8 58 bb 55 35 df bc 81 5c 8e bd 54 74 eb 3c
       -0.0033088296 -0.02724711 -0.069512375 0.028741993
000010 60 69 ce bc fe 54 7e bd f5 e6 1f bd 45 b1 54 bd
       -0.025196731 -0.062092774 -0.039038617 -0.05192687
000020 45 2d 4f 3d 1c 04 9a bc da 98 40 bb b0 18 3c bd
       0.05058028 -0.018800788 -0.0029387982 -0.04592198
000030 ad 3b 29 3d 36 df c0 3d 5f f2 83 3d 71 24 21 bb
       0.041316677 0.09417574 0.06442713 -0.002458837
000040 72 55 24 3d 4f c9 b6 3d 70 77 43 bc be e9 95 bb
       0.04012055 0.08925115 -0.011930332 -0.0045749834
000050 9c c7 92 3c ab 1e c4 bc e5 b8 96 bd 98 51 88 3d
       0.017917447 -0.023940405 -0.073594846 0.06656188
000060 2f bb a4 3d 6c ac c6 3c 3b d1 a5 bd e3 76 41 3c
       0.08043515 0.024252139 -0.08096548 0.01180813
000070 c8 3a 38 bd 8e ce d8 bc 89 0b 56 bb 6d b1 78 3d
       -0.044977933 -0.02646568 -0.0032660684 0.06071608
000080 b2 7e e7 3c 99 1b da 3d 1c 3e 89 bb c0 c9 2e 3c
       0.028258655 0.10649795 -0.004188312 0.010668218
000090 30 f0 86 3d f6 44 36 bd eb 21 a8 3d 6b 25 8c bc
       0.06588781 -0.04449936 0.08209594 -0.017107686
0000a0 13 dc 51 3c 36 b0 c1 3d 4c 62 cc 3c e2 b1 8b bc
       0.012808817 0.09457438 0.024949215 -0.017052595
0000b0 9f 27 a4 3d fd ea 83 bd 99 e5 3a 3b f8 35 4b 3d
       0.080153696 -0.06441305 0.0028518199 0.049612015
0000c0 3b 11 cd 3d 63 2f 67 3d 89 2f e6 3c 46 35 53 3d
       0.10013052 0.056441676 0.028098838 0.051564477
0000d0 5d 23 4d bc db f5 81 bd 40 d7 a8 bc 0b 7a 60 3a
       -0.012520638 -0.06345721 -0.020610452 0.00085631077
0000e0 ab ba 1b bd 7a 19 07 3b dd 0c b2 3d b0 3f 51 3b
       -0.038019817 0.002061455 0.0869386 0.003192883
0000f0 02 5b 89 3d 5e e3 9c bd 88 22 bc 3d 11 7d 2a 3d
       0.067068115 -0.07660554 0.09186274 0.04162318

network.6.weight f4 [1, 64]
000000 6a 72 d3 bd 5f b4 bd bc b3 8c af bd 77 fa d9 3d
       -0.10324557 -0.023157297 -0.08571758 0.106434755
000010 2e 1d c0 3e e3 ee c0 bd 94 84 72 bd 4a d8 08 be
       0.37522262 -0.09420564 -0.059208468 -0.13363758
000020 3e d1 25 be 6d d4 42 3e 71 5d b8 3d 43 51 b4 bd
       -0.16193101 0.19026347 0.090021975 -0.08804562
000030 9d e1 43 bd ca 6e ef 3d 67 02 1b be 6b 69 1b 3e
       -0.047822583 0.11691053 -0.15137635 0.15176933
000040 fd 82 99 3e b3 e2 ee bd 88 84 07 be c8 ba ba 3d
       0.2998275 -0.11664333 -0.1323415 0.09117657
000050 c0 e8 f4 bc a8 a4 91 bd 00 a7 8d bc d3 02 b2 3d
       -0.02989614 -0.07111484 -0.017291546 0.08691945
000060 49 40 09 3e 28 cd 10 3d 70 ee 49 bd 97 e6 bc bd
       0.13403429 0.035351902 -0.049299657 -0.09223669
000070 da e1 8e 3e 01 e5 0a be a7 1a 3e 3e fc f8 02 be
       0.27906686 -0.1356392 0.18564855 -0.12790293
000080 c6 e1 04 be 5d 58 bb 3d 4a e3 eb bd 8c da 52 3e
       -0.1297675 0.09147713 -0.11517961 0.20591182
000090 58 8a b6 bd 82 8d 8f 3e 5f 2d 55 3e 2a cb 32 3e
       -0.08913106 0.2803765 0.20818089 0.17460313
0000a0 4c 40 0a 3e 48 84 cd bd a5 72 9f 3d 0b b8 83 bd
       0.1350109 -0.10034996 0.077855386 -0.06431588
0000b0 06 2b 89 3e 00 2d 9a bd a4 36 10 be 59 2f bb 3d
       0.26790637 -0.07528114 -0.14083344 0.0913989
0000c0 f0 5e 25 be 38 a4 ef 3d a2 39 f4 3d 6b fe 28 be
       -0.16149497 0.11701244 0.11925055 -0.16503303
0000d0 60 db 1c bc df 0b d3 bd 4c 69 aa 3d dd 60 d8 3d
       -0.009573787 -0.103049986 0.08320865 0.1056535
0000e0 e3 84 8a 3e 00 76 a0 3b 89 cc 1a 3e df f9 1e be
       0.2705451 0.004896879 0.15117086 -0.15525006
0000f0 e9 c7 14 bd b1 c2 03 be 24 09 30 be 0d ae 88 bd
       -0.03632346 -0.12867238 -0.17190987 -0.066738226
