training_ml_models/models/most_importances_NN_Nd_max_k_fold_0.pth (torch, 176359 bytes, 7 tensors)

network.0.weight f4 [256, 7]
000000 9b 29 36 bd 82 2e 11 be 38 00 9f 3e 0f 13 a4 3e
       -0.04447327 -0.14177898 0.31054854 0.3204579
000010 85 be 9e be c0 06 74 be 7e e5 9e be b3 9d 86 3d
       -0.3100473 -0.238307 -0.31034464 0.065730475
000020 67 92 85 bc 85 94 d0 bd c0 63 42 3e 01 43 6b be
       -0.016305162 -0.10184578 0.18983364 -0.22974779
000030 82 f6 3d 3e 38 85 db be 4d 13 40 bd 12 5d d9 bd
       0.18551067 -0.42875075 -0.046893407 -0.10613455
000040 0f d8 d5 bd 09 1b b8 3e aa 82 2a 3e 87 71 8e bc
       -0.104416005 0.35958126 0.16651407 -0.017388118
000050 5a 0a 3b be cb 82 88 bd 3d 7a a1 bd e1 b3 a1 be
       -0.18265668 -0.06665572 -0.07884643 -0.3158255
000060 c1 99 ce 3d 91 94 ba 3e 5e 30 89 3c 5a d7 53 3e
       0.1008792 0.36441472 0.016746696 0.20687619
000070 a0 4c 7b be 23 2c 44 3e ff 5e a6 3e 24 30 5a be
       -0.24540949 0.19157462 0.3249435 -0.21307427
000080 9c 07 ad 3e 2b 17 a0 be 8a 24 b1 be 67 fd 2e be
       0.33794868 -0.31267676 -0.3459819 -0.17088853
000090 8a d2 b2 be ac a0 c2 bd 3e ca 91 be 31 84 c8 3e
       -0.34926254 -0.09503302 -0.2847461 0.39163354
0000a0 2b 81 1e 3e fa 35 4a bd 05 62 8e be eb a1 8f be
       0.15478961 -0.049367882 -0.27809158 -0.2805322
0000b0 aa 8f 02 bd c1 45 c3 3e 22 95 a3 be 45 35 37 be
       -0.03187529 0.38139156 -0.31949717 -0.17891414
0000c0 d4 2a bd 3e 32 4a 99 3e df 06 83 bd 23 e0 88 be
       0.36946738 0.2993942 -0.06397795 -0.26733503
0000d0 2d f8 26 3c 2a 3c ae be 08 59 3f bd 97 32 af bd
       0.010191006 -0.34030277 -0.046715766 -0.08554571
0000e0 4a 8c 0e 3e 9b 01 66 bd f3 ca 19 be 61 8f 79 3e
       0.13920704 -0.056153875 -0.15018825 0.24371101
0000f0 30 bd ec 3d 6a b2 47 3e bb 5c 2a bc fe f5 95 3e
       0.11559522 0.19501653 -0.010398085 0.2928924
000100 2a c7 3e be ca 34 a7 be b1 0c 88 3d c2 57 2c 3e
       -0.18630663 -0.32657462 0.06643046 0.16830352
000110 24 06 a2 3e 1f 85 74 be 63 0e b3 be 73 d8 cc be
       0.3164531 -0.23878907 -0.34971914 -0.40008888
000120 96 76 6c 3e 9a 30 2b 3e d5 7f 93 be 0b f0 1d be
       0.23092112 0.16717759 -0.28808466 -0.154236
000130 4e b5 23 be 9d 2a 8c 3e be 0e 45 be 5f 23 02 3e
       -0.15987131 0.2737626 -0.19243905 0.12708806
000140 9e 72 59 3e a2 f0 73 be 76 15 0b be 3b c5 4f 3d
       0.21235129 -0.23822263 -0.13582405 0.050725203
000150 2f b9 8f 3d d6 0d 06 be 74 c7 bb 3e c5 0e 8a 3e
       0.07017743 -0.13091215 0.36675608 0.26964393
000160 f9 5b 8c 3e e3 44 73 3e 65 a5 58 3e c4 ae 4c bd
       0.2741392 0.23756747 0.21156843 -0.049971357
000170 8e d2 f0 3d a4 25 be 3e 83 3b 4d be 32 4c 2c be
       0.1175891 0.37138093 -0.20042233 -0.16825941
000180 e5 b4 20 3e 38 9a ad 3e 51 55 9c be 3b 99 67 3d
       0.15694006 0.33906722 -0.3053384 0.056542616
000190 31 ea 37 be 41 2e ad bd cf 17 cb be 2c c4 9c 3e
       -0.1796043 -0.08456088 -0.39666602 0.30618417
0001a0 3e 8d 8a be 50 f6 a9 be 09 dc b6 3e 4a d8 18 be
       -0.27060884 -0.33195734 0.35714749 -0.14926258
0001b0 0e 32 e8 3d f2 82 2f bd 6d 5d 82 3e f3 17 e6 3d
       0.11337672 -0.04284949 0.25461903 0.11235037
0001c0 08 97 8c 3e ae 0f 7c 3d 76 18 78 3e 46 d1 1b be
       0.27458978 0.06153839 0.24228081 -0.1521655
0001d0 b9 3b 79 3e f0 c9 bd be a4 cd c3 3c 43 05 89 3e
       0.24339189 -0.3706813 0.023901768 0.26761827
0001e0 08 2c 78 3d 87 69 b2 3e 26 d6 70 3e fa 6a aa be
       0.060588866 0.34846136 0.23519191 -0.33284742
0001f0 7d e1 d5 3e cb 3b 74 3e ca ed 5d bc da 2c 8f 3e
       0.41773596 0.23850934 -0.013545463 0.27963907
000200 2a 5e 86 3e 85 cf b8 3d 76 6f 06 3e 8d f7 7a bd
       0.26243716 0.09023956 0.13128456 -0.06127124
000210 c9 5a 0c be 2c bf 89 3d 2d 95 d0 bb e6 1d 7e be
       -0.13706507 0.06725916 -0.0063654394 -0.24816093
000220 f7 93 85 3e 9d 38 94 3e 0e b5 81 be 9b 1c aa be
       0.2608945 0.28949443 -0.25333446 -0.3322495
000230 dc 42 ae 3d f2 56 d2 bd 11 0a ae be 60 2b 93 3e
       0.08508846 -0.1027049 -0.33992055 0.2874403
000240 58 81 24 3d 90 6d 30 3e 87 77 8a be 4e 72 17 3d
       0.040162414 0.17229295 -0.27044317 0.036974244
000250 6c 47 b8 be f9 69 73 be c0 f3 3a 3e f7 6a 9b bd
       -0.3599199 -0.23770894 0.18257046 -0.07588761
000260 2f ad d0 3d 60 2c 6b be 83 8e aa 3d 39 ad 1b 3d
       0.10189282 -0.22966146 0.08327963 0.038006995
000270 fc 47 a5 be 3c d7 55 be 22 7c 2e 3e 9a f0 99 bd
       -0.32281482 -0.20882887 0.1703954 -0.07516594
000280 15 2f 9e be e8 5c b0 bc ce 2e 27 be 5d fe 78 3b
       -0.30895296 -0.021528676 -0.16326448 0.003799341
000290 7b 9e 90 3e 2d 71 6a 3e d0 a6 48 3e 60 ff cb be
       0.2824591 0.22894736 0.19594884 -0.39843273
0002a0 29 28 88 3e 46 56 a2 3e cc 24 9c be 42 31 a6 bb
       0.2659314 0.31706446 -0.30496824 -0.00507179
0002b0 70 bb c2 3e 3c 1c 91 be 29 28 8f bd 71 63 a0 3d
       0.38033628 -0.28341854 -0.06990082 0.07831467
0002c0 87 03 af 3d 18 50 28 3e ae 99 80 be df b7 12 3e
       0.08545595 0.16436803 -0.25117248 0.14327954
0002d0 9f 5b 56 bb 4f a5 8a 3e de 4f b4 3d 21 86 44 be
       -0.003270842 0.27079245 0.08804296 -0.19191791
0002e0 0f b0 c2 3e 19 58 a5 3e 3e b0 cb bc 5a e1 80 3d
       0.38024947 0.32293776 -0.024864312 0.062929824
0002f0 50 33 b3 be 5d a6 90 3e 09 0e 15 3e 77 eb ac 3e
       -0.35000086 0.28251925 0.14556135 0.33773395
000300 5a 98 c4 be 9c 95 37 be ca 10 87 3e f6 d7 1d bd
       -0.38397485 -0.17928165 0.26379997 -0.038536035
000310 fa 08 9a 3e bc 7b b2 bd 4c 75 19 3d 1a 3a 8e 3e
       0.30084974 -0.08715007 0.03746538 0.27778703
000320 0e bd 7f bd 7e 29 fb 3c f1 cd 26 3e 59 83 13 3e
       -0.062436156 0.030659433 0.16289498 0.14405574
000330 fe de 8a be ab 55 c5 3e 30 96 6e 3e 86 b7 0a be
       -0.27123255 0.38541922 0.2329948 -0.13546571
000340 b3 63 71 be fd 8d 49 3e a4 5b f0 3c c2 7a 21 be
       -0.23573188 0.1968307 0.029340573 -0.15769485
000350 cc c3 1a 3d 9e df ed 3d 15 5c 2c be f8 7b 57 be
       0.037784383 0.11614917 -0.16832002 -0.21043384
000360 66 7b 9f 3d 43 74 ba 3e 30 58 84 3e d5 b7 a1 3c
       0.07787208 0.36416826 0.25848532 0.019740978
000370 17 59 a7 bd 04 0f 42 be d9 fb 77 be cb 25 98 be
       -0.081712894 -0.1895104 -0.24217166 -0.29716334
000380 19 45 ba 3e b3 bd 96 3e 22 41 b6 3e 0c 7f 27 be
       0.36380842 0.29441604 0.35596567 -0.16357058
000390 84 17 b5 3e 80 c4 2e be 2d 85 9d be 08 6d 98 be
       0.35369503 -0.17067146 -0.30765668 -0.29770684
0003a0 ac 22 79 be ac 0d 82 3e 30 e0 df bb 25 59 e7 3d
       -0.24329633 0.25401056 -0.006832145 0.112963
0003b0 a3 ff e1 3d c2 78 73 bd 3d ee 4d 3d fd b1 54 3c
       0.11035087 -0.059441335 0.05027603 0.012981889
0003c0 f3 8e 9b be 81 2e 4b 3e f6 22 6b be 3b c0 d9 be
       -0.303825 0.19841959 -0.22962555 -0.42529473
0003d0 5f 75 84 bd af f9 a3 bb a4 37 c5 3e 2e f8 45 bd
       -0.06467699 -0.00500413 0.38519013 -0.048332386
0003e0 10 68 1d 3e 95 8f e4 bd f3 d0 bb 3e 55 e2 8e be
       0.15371728 -0.111601986 0.36682853 -0.27907053
0003f0 db 95 9c 3e 76 a2 ea bd 38 30 6e 3e 30 e2 78 be
       0.3058308 -0.11456768 0.23260581 -0.24305034

network.0.bias f4 [256]
000000 46 e1 13 bd 11 e1 a5 bd fa d5 4a be 02 72 60 3e
       -0.03610351 -0.08099569 -0.19808188 0.2191849
000010 d2 12 6d 3d bf b5 4c bc fe 25 54 3e ea 50 7d be
       0.057879277 -0.0124945035 0.20717618 -0.24737898
000020 30 b7 8b 3e 64 27 72 be ca 0d 44 3e ce bb 56 3e
       0.27288198 -0.23647839 0.19145885 0.2097008
000030 07 c3 ac bd a6 ca 58 3e 3b 55 62 3c 6f 21 b5 3d
       -0.08435636 0.21171054 0.013814266 0.088442676
000040 98 87 92 3e 38 91 93 3e 2f a3 3c be 61 eb 7f 3d
       0.28619075 0.2882173 -0.18421625 0.062480334
000050 6e bf 86 be 9d 8c c8 be 91 0d fc 3d b1 4d 51 3e
       -0.26317924 -0.3916978 0.12307275 0.20439793
000060 d0 02 24 bd 16 21 43 3e ae 6c c9 3c 3b e3 c0 3e
       -0.040041745 0.1905559 0.024587955 0.37673363
000070 93 b3 25 bc a1 ed 98 bd e3 ca 6a 3d b7 79 0c be
       -0.010113615 -0.07467199 0.057322394 -0.13718306
000080 71 79 60 be 36 6a 94 3e ab c8 f7 bc c1 c0 cd bd
       -0.21921326 0.28987283 -0.030247053 -0.100465305
000090 da b5 41 be 9e 44 af be 33 56 fc bd 85 04 9e be
       -0.18917027 -0.34232038 -0.12321129 -0.30862823
0000a0 7e f8 f5 3d c8 06 a3 be b5 c0 b1 bd 1c 15 c3 3d
       0.12010287 -0.3184111 -0.08679334 0.09525511
0000b0 16 d4 65 be 7d e4 99 3e bc e8 a0 3e 68 be 9f be
       -0.22444186 0.30057135 0.31427562 -0.31199956
0000c0 6d 8b b3 be 2b d3 b9 3e c0 6b a9 be 3e f3 01 be
       -0.3506731 0.3629392 -0.3309002 -0.12690446
0000d0 71 27 87 3e e0 39 a4 3e 89 dd 71 3e e1 00 98 3d
       0.2639728 0.32075405 0.23619665 0.07422043
0000e0 f2 7f af 3d 31 e0 40 be 14 05 50 3e 4c a8 74 be
       0.085693255 -0.18835522 0.20314437 -0.23892325
0000f0 06 e0 4a 3e 99 94 1a 3d 5b 10 a3 be 96 4c 7d bc
       0.1981202 0.03773937 -0.31848416 -0.015460154
000100 80 d0 b0 be b3 1c bb 3e 7e 24 1c 3d e6 91 9e 3d
       -0.34534073 0.36545333 0.03812074 0.07742672
000110 65 80 8c be 55 d4 89 3c 01 24 fb bd 38 0c 0b bd
       -0.27441707 0.01682488 -0.122627266 -0.0339472
000120 1c d0 47 3e d4 7d 0d 3e f1 91 54 be 26 6e b9 3e
       0.19512981 0.13817531 -0.20758797 0.3621685
000130 e9 48 30 bd b4 f3 80 bd 01 82 14 bd 20 b9 a0 3d
       -0.043038283 -0.06296483 -0.036256794 0.0784781
000140 4a a7 a6 3e 1a f3 5e 3e be a6 28 bc 48 44 2b be
       0.32549506 0.21772423 -0.010293661 -0.16725266
000150 01 f2 51 3e f9 d1 7a be bf 54 58 3e 6e c5 76 3e
       0.20502473 -0.2449416 0.21126078 0.24098751
000160 03 18 9a be 73 f9 d2 3e 2f 54 9d be 58 34 6a be
       -0.30096444 0.4120594 -0.3072829 -0.2287153
000170 29 8d de bd 04 14 6a be a1 e5 96 bc ad 7b 6d be
       -0.10866768 -0.22859198 -0.018420042 -0.2319171
000180 52 6a 73 3c 75 29 6d 3d a1 5d 28 3d 93 7d 95 be
       0.014856892 0.057900865 0.041104916 -0.29197368
000190 b8 f7 43 be c1 e3 ce be d4 c7 89 3c 5c 6b 1c be
       -0.19137466 -0.40408137 0.016818918 -0.1527533
0001a0 1e 79 bf 3e ed 76 57 3d fa 77 a7 bd ca fa d7 bd
       0.37397093 0.05260365 -0.081771806 -0.10545881
0001b0 57 37 65 be f6 b1 9a be e4 b8 38 be 8d 6a 2c 3d
       -0.22384392 -0.30213898 -0.1803928 0.042093802
0001c0 f2 78 7c be f4 f4 87 3e 69 40 99 3e 1b ad 86 be
       -0.24655512 0.26554072 0.29931954 -0.26303944
0001d0 e9 e9 82 be 4e f8 30 be 58 5b 5e be 99 32 4b 3e
       -0.25569084 -0.1728222 -0.21714532 0.1984352
0001e0 57 7f 39 bb 9e 26 00 bd c1 4f 9a be 1d 56 c4 3d
       -0.002830466 -0.03128683 -0.30138972 0.09586737
0001f0 42 65 d7 3d ee 9b 40 be 93 9f 9a be 55 36 4a be
       0.1051736 -0.18809482 -0.3019987 -0.19747289
000200 b9 b5 1b be 40 6f 9a 3e 7e a3 9b be 07 7f 2b 3d
       -0.1520604 0.30163002 -0.30398172 0.04186919
000210 62 84 a6 be f6 f7 a7 3d da d3 25 bd e0 9f 5a 3c
       -0.32522875 0.08201592 -0.04048524 0.013343781
000220 da b0 94 3e 4d eb 0a be 22 81 71 3e 31 c2 2c be
       0.29041177 -0.13566323 0.23584417 -0.16870953
000230 e7 3d 4e 3e bf 48 07 3e 6f 36 68 3e b4 74 64 3e
       0.20140801 0.13211344 0.22677015 0.22310144
000240 4f 61 ac be cb 56 8d 3e eb 1b 34 be c7 51 b7 be
       -0.3366799 0.2760528 -0.17588775 -0.3580458
000250 31 7f 31 3e b4 15 a5 3d 35 3a a1 bd 2d 69 c2 3e
       0.17333676 0.0806078 -0.0787243 0.37970868
000260 4a f6 90 be 53 44 d8 3e 66 8f aa bd 9b 68 1a 3d
       -0.28312904 0.42239627 -0.08328132 0.037697416
000270 6c a6 99 3e 21 b1 11 bd 1d b9 55 3e e1 ca 8c 3d
       0.30009782 -0.035569314 0.20871396 0.068746336
000280 21 f1 cc 3d 73 52 94 be 56 14 41 3e 32 33 89 bd
       0.10006929 -0.28969154 0.18855414 -0.06699218
000290 ca 1c 44 be 6b d6 3b be b9 8a 96 3e d6 e5 8c 3e
       -0.19151607 -0.18343513 0.29402712 0.275191
0002a0 87 4c 24 bd bf c0 ba 3d 4f af a5 3e b2 53 b7 3c
       -0.040112045 0.09118795 0.32360312 0.022378776
0002b0 e1 f3 f9 3d ed 0f 53 3e 09 31 80 3b 2f ed ad be
       0.12204719 0.20611544 0.0039120954 -0.3397002
0002c0 60 e3 47 bd ee 44 51 bd bc f9 6a 3e b3 4a 65 bc
       -0.048800826 -0.051091127 0.22946829 -0.01399486
0002d0 d8 75 af 3e ee b2 aa 3e f3 b0 4d be f7 d9 b9 3d
       0.34269595 0.33339638 -0.20087032 0.090747766
0002e0 0a 05 5f be b8 03 a4 be 22 3e b0 3e 6f 2f 90 be
       -0.21779266 -0.32034087 0.34422404 -0.2816119
0002f0 c8 dc 11 bc f6 cb 40 3e 72 2a 17 3d 33 72 f4 3c
       -0.008902736 0.18827805 0.036905713 0.02983961
000300 89 40 c0 bd ad e8 98 be f4 b1 5c be 74 1b 98 3e
       -0.09387309 -0.29865018 -0.21552259 0.29708445
000310 14 8a d8 3d 5b 11 4c bc bd c3 70 be f8 a9 1e be
       0.10573211 -0.01245531 -0.23512168 -0.15494525
000320 34 1d ab be e2 7d 1d be 1e ef 19 be ef 52 07 be
       -0.33420718 -0.15380052 -0.15032622 -0.1321523
000330 f2 6a 74 3d c7 6a da bc f1 5e da 3d 1c 17 ca 3d
       0.059672303 -0.026662244 0.1066264 0.09867689
000340 b6 d8 3a 3e f0 f7 ac 3e bc 7b 9e 3e 5f 05 31 3e
       0.18246731 0.3378291 0.30953777 0.17287205
000350 6b 95 f4 3e d4 c5 36 3e 08 ec ba bd 6b 5f 82 bd
       0.47770247 0.17848903 -0.09127051 -0.06365856
000360 2e b0 a1 3e b9 ef fe bd e4 2c 64 be a3 12 23 be
       0.31579727 -0.12448067 -0.2228275 -0.15925078
000370 67 83 88 be 00 76 90 bc 40 06 bb bb 2f a4 11 3e
       -0.26662752 -0.017634392 -0.005707532 0.14222787
000380 95 0f a0 3e 08 57 17 be 3e b5 bf bd 78 2f a6 be
       0.31261888 -0.14779294 -0.09360741 -0.3245809
000390 90 e9 b6 be 20 f5 d0 be a9 f1 8c 3e d2 20 13 3d
       -0.3572507 -0.40812016 0.27528122 0.03591997
0003a0 82 c2 b1 bd d4 99 a6 be 52 af b2 be 57 4e e6 3d
       -0.086796775 -0.32539237 -0.34899384 0.11245411
0003b0 72 b4 25 3e af 46 92 be 75 a0 2c be 49 6c b9 be
       0.16182116 -0.28569552 -0.16858084 -0.36215428
0003c0 44 39 cb 3e de 63 26 3d 63 7c ca 3e ce f9 7d be
       0.39692128 0.040622585 0.39548025 -0.24802324
0003d0 b0 8e 81 be a0 36 a8 be f6 06 9b be 08 f5 6c bd
       -0.25304174 -0.32854176 -0.30278748 -0.057850868
0003e0 e7 7f 19 be da 3f 6f 3e 19 7a 88 3d a8 4e 74 bd
       -0.14990197 0.23364201 0.06663913 -0.059645325
0003f0 12 86 78 be 86 c4 27 be 03 94 a0 3e 61 d0 65 bd
       -0.24269894 -0.16383561 0.31362924 -0.05610693

network.2.weight f4 [128, 256]
000000 9d c5 75 3c 78 2a c9 3c b7 1a 10 3d fa 53 32 3d
       0.015000728 0.024556383 0.035181727 0.043537118
000010 f8 6f 49 bc 9a fb 7a bb c5 fa 40 3c fb 73 a8 bc
       -0.012294762 -0.003829694 0.011778538 -0.020563116
000020 3d 54 a8 3b 5d 42 5e bd 57 56 f1 bc d5 e2 aa bd
       0.005136995 -0.054262508 -0.029460115 -0.08344046
000030 13 04 df 3a a2 39 41 3d 20 3c ea ba fc 30 87 3d
       0.0017014764 0.047174104 -0.0017870702 0.0660114
000040 60 8c 93 bd 3f 75 d6 bc a0 95 fe bc 98 f4 43 3d
       -0.07204509 -0.026178954 -0.031077206 0.047840685
000050 30 97 6b bb c2 0a f5 3d 46 7e 0a 3d 22 4b 4f bc
       -0.003594827 0.119649425 0.03381183 -0.01265219
000060 1b 75 16 3d 10 ee a6 bc b0 9f 05 ba 65 54 4b 3d
       0.036732774 -0.020377189 -0.00050973427 0.04964103
000070 9b 15 38 3d 63 40 08 3d 58 28 0b 3d 8b 15 f8 3c
       0.04494248 0.03326453 0.03397402 0.03028371
000080 24 07 60 3b 49 29 49 bb e9 a2 aa bc 2e 70 8b 3d
       0.0034183944 -0.0030694774 -0.020829635 0.06808506
000090 7d bb 64 3b 9c ce 8b bc c4 18 3a 3d 7d a7 6d bd
       0.003490179 -0.017066292 0.045433775 -0.058021057
0000a0 fa 86 0d 3d 0e 75 25 3d 26 06 ad bc 4e 9d 4a bc
       0.03455255 0.040394835 -0.021121096 -0.012366606
0000b0 62 07 e8 3d 6b b5 d4 bc df ff 01 bd e7 e1 2a bc
       0.11329533 -0.025965413 -0.03173816 -0.010429836
0000c0 08 db 32 3d 6f d8 03 bc e0 73 3d 3d 0f 4d 18 3d
       0.043665916 -0.008047207 0.046253085 0.037182864
0000d0 a7 ff 9a 3c cf 5b 9e 3b 3b e1 5f 3d d2 25 2c 3c
       0.018920733 0.004832722 0.054658156 0.010507064
0000e0 59 36 1e 3d 69 8e be bb a1 a1 90 3c 34 57 0d 3d
       0.03862605 -0.0058153165 0.017655196 0.03450699
0000f0 c6 ef cc bd 3c 25 18 3d de 1b 82 3d fc 2b 58 bd
       -0.10006671 0.037144884 0.063529715 -0.05277632
000100 f6 37 4f 3d 61 a9 1a bd c2 16 58 bd 97 97 6e bd
       0.050590478 -0.03775919 -0.05275608 -0.058250036
000110 73 a3 3f 3d 71 7d 88 3c 00 06 43 3c fb 4a 7a 3c
       0.046786737 0.016661378 0.011903286 0.015276666
000120 e1 3c 24 3d 59 25 5b ba 3b 16 7a bd c3 60 35 bd
       0.04009712 -0.0008359752 -0.061056357 -0.044281732
000130 f8 fa aa 3c a4 05 54 3d d2 ae 53 3d 1d 93 72 3c
       0.020871624 0.05176319 0.051680394 0.014805582
000140 62 75 2a 3d 2a e9 08 bd a8 23 92 bc 80 8c 30 bd
       0.04161585 -0.033425488 -0.017839268 -0.04310274
000150 ec 8f 88 bc e2 7c 86 3c e7 dc 1b 3c e9 14 5f bd
       -0.01667019 0.01641697 0.009513116 -0.0544633
000160 70 58 67 3d 0a 6d 5c 3d a8 cf 33 3d fb 99 cf bc
       0.056480825 0.053814925 0.04389921 -0.025341978
000170 c7 04 b2 3c 8f db 0e bc 89 44 79 3c 6d a7 bf 3c
       0.021730794 -0.008719339 0.015214094 0.023395265
000180 20 58 7b bb 57 bb 40 bc e9 46 2c 3d 19 96 cc bc
       -0.0038352087 -0.011763415 0.042059813 -0.024973916
000190 48 92 59 bd d5 6e 00 3e c6 54 27 3c b8 9b 35 bd
       -0.05311802 0.12542279 0.010213083 -0.044337958
0001a0 99 82 33 bd 8d c0 0a bd 29 43 a3 bc a7 fe b8 bc
       -0.04382572 -0.033875037 -0.019929485 -0.022582365
0001b0 e2 51 d4 3c 1d 82 15 bb 8a f2 21 bd 85 5e 39 3d
       0.025917951 -0.002281315 -0.039537944 0.045256156
0001c0 7f 62 5f bc 02 1b 81 3d 39 b9 f6 bc 50 87 0c 3d
       -0.013634323 0.063039795 -0.030117618 0.03430873
0001d0 32 ec d5 bc 38 93 be 3b 73 b5 9e bb f8 f7 20 bc
       -0.026113603 0.0058158897 -0.004843408 -0.009824745
0001e0 8e ca 05 3e 34 5c bc bc 36 cf 07 3d 33 c8 3b 3d
       0.1306555 -0.022993185 0.033156596 0.04584522
0001f0 fa 6b 52 bd 90 38 32 bd 28 cc 3d 3d 27 af 4e 3d
       -0.051372506 -0.043510973 0.046337277 0.050460007
000200 1c 1e 1e 3d e2 5f 2d bc a2 74 14 3c 57 8d c2 bc
       0.038602933 -0.010581942 0.009061011 -0.023749037
000210 5e cf e0 3d 5a 2a f2 3b 75 af c3 bb 30 f3 13 bd
       0.10977052 0.0073903026 -0.005971844 -0.036120594
000220 68 d2 62 bc 32 fe 83 bc 65 8a 25 bc c1 35 50 bd
       -0.01384411 -0.01611242 -0.010103797 -0.050832514
000230 7e 3e ef 3c 79 7c a6 3b 7d ed ee 3c d0 75 4c bc
       0.029204603 0.0050807563 0.029165978 -0.012479261
000240 4b a5 a8 3b e6 39 77 3d b7 3c 34 3b b3 84 b2 bd
       0.0051466576 0.06035795 0.002750201 -0.087167166
000250 af 2f a5 bc 1f 51 99 3b 74 4a d9 3c ee e5 0c bc
       -0.020164339 0.00467886 0.02652476 -0.008599741
000260 2b b4 aa bc c2 10 7e bd 30 43 8d bd 05 da 11 3c
       -0.020837864 -0.0620277 -0.068975806 0.008902078
000270 1e 91 13 bd 1c 5f c9 3c a8 0c f7 bc 9a 3d 01 bb
       -0.036027066 0.024581484 -0.030157402 -0.0019720555
000280 9a ea 8a bc e5 8d 93 3c 36 d7 4c 3d 37 92 6c 3c
       -0.01695757 0.018011997 0.05000993 0.014439157
000290 54 d3 d4 3b 64 09 18 bd 6d 0b 94 3d 1c 7b ee bc
       0.006494919 -0.03711833 0.07228742 -0.029111437
0002a0 cb 39 59 3d ed 37 62 3d 24 b6 5a bd 9a 7e 9c bd
       0.05303363 0.055229116 -0.05339636 -0.07641335
0002b0 3f 29 d6 bd a8 5f 9e ba b9 a9 7f 3d 13 bf 86 3d
       -0.10457086 -0.0012082951 0.06241772 0.06579413
0002c0 23 b5 86 bd 09 cd 75 bd ca d0 50 3c 13 84 70 3d
       -0.06577518 -0.06000999 0.012745092 0.058719706
0002d0 9f bb 04 bd 03 4f 69 3d ff c5 1f 3d 47 02 3e bd
       -0.032405492 0.056960117 0.039007183 -0.04638889
0002e0 8a a6 25 bd 70 c5 ae bd e3 e5 19 3d 64 4a 10 3d
       -0.040442027 -0.08533752 0.037572753 0.035227194
0002f0 fd 0b c8 bc 75 13 89 3b d1 4e 8c 3d c5 b4 70 3c
       -0.024419779 0.0041832277 0.068509705 0.014691536
000300 32 26 86 3c 5f 34 24 3d 8f f5 15 3c 04 5c 4c 3d
       0.016375635 0.040089007 0.009152784 0.04989244
000310 86 df 29 bd 0a d2 60 3d 29 e6 74 bd 87 c6 93 3c
       -0.041472934 0.05488781 -0.05978981 0.018039001
000320 6f c8 92 3b 3e e9 99 bc d0 68 8c 3c b3 8e 7a bd
       0.00447946 -0.018787976 0.017139822 -0.061171245
000330 b2 a9 1a bd 73 89 d3 bd a8 59 b0 bc 9d 83 c8 ba
       -0.03775949 -0.10328951 -0.021527126 -0.0015298013
000340 ac 6a f1 bc db 68 7c 3d cb bd 2e 3c 71 b6 b9 bd
       -0.02946981 0.061623435 0.010665367 -0.09068001
000350 52 13 87 3d 30 9d 14 3d a7 d8 8e 3d 23 45 84 bd
       0.06595482 0.03628272 0.06974917 -0.06458499
000360 3c 54 ef bc a2 58 c0 bc 94 3c 70 3d 37 ca 8d 3d
       -0.02921497 -0.023479763 0.05865152 0.06923335
000370 5d 0d 57 3d e8 b1 2a bd 4d 53 7d 3d 09 14 43 3d
       0.05250298 -0.04167357 0.06184702 0.04762653
000380 a7 24 5e bd 77 67 1a be e5 86 04 3c 11 cf 28 bb
       -0.054234173 -0.15078531 0.008088802 -0.0025758187
000390 10 e9 49 3d c3 39 5e 3d 4f d4 17 ba c5 6e 1e 3d
       0.04929453 0.054254305 -0.00057918293 0.038679857
0003a0 34 a4 e3 3c 69 23 9a 3d 08 95 6d 3d be 26 79 3c
       0.02778826 0.07526285 0.058003455 0.015206991
0003b0 2a 24 26 3d de 68 42 bd b4 bb ee bc a5 32 29 3d
       0.040561832 -0.04746329 -0.029142238 0.041308064
0003c0 d5 b8 91 bc cf d3 6f bd fc cb c9 3b 80 6e 1f 3d
       -0.01778833 -0.058551606 0.00615835 0.03892374
0003d0 f2 f5 fe 3c a2 93 26 3d b9 f2 06 bd d7 f0 3b bc
       0.031123135 0.040668137 -0.032946322 -0.011470995
0003e0 a9 a1 11 bb d1 6a 12 3d eb 22 c7 3c a8 cb 1f bd
       -0.00222216 0.0357464 0.024308642 -0.03901258
0003f0 07 32 a8 3b 0b fc 23 3d d2 fc be 3d 23 95 57 3d
       0.005132917 0.04003529 0.093255654 0.052632462

network.2.bias f4 [128]
000000 b1 5c c5 3c dd b2 3c 3d 39 76 36 bd c7 82 66 bb
       0.02409205 0.046069015 -0.04454634 -0.0035173164
000010 24 37 f8 bc b3 43 13 3d 64 75 30 3d 65 e5 1c bc
       -0.03029973 0.035953235 0.043080702 -0.009576176
000020 26 c1 8c 3d 57 03 0c bd b0 96 9b 3d 67 c3 5b 3c
       0.06872778 -0.034182873 0.07597101 0.013413287
000030 28 42 48 3c 5d cd c9 bc ac ac 62 bd 48 89 94 bc
       0.012222804 -0.024634058 -0.055340454 -0.018131867
000040 0a 44 e3 bc 62 a1 12 3d 85 dd 2a 3d 60 0b 35 3c
       -0.027742404 0.035798438 0.041715164 0.011050075
000050 21 6b 37 3d e4 bc 21 3d 29 58 97 bb f0 66 f3 bc
       0.0447799 0.03948678 -0.004618664 -0.02971217
000060 06 78 0f bd 6a 9e 35 bd 5b 59 b5 3d 46 0d a2 3c
       -0.035026573 -0.04434053 0.08854934 0.01978172
000070 0e 8f 55 3d 46 5f 93 3d d9 73 33 bd 45 ad 7c 3d
       0.05213838 0.07195906 -0.043811653 0.06168868
000080 c9 d1 f4 3b 77 f7 65 bd db d5 6b 3d 37 c6 71 bd
       0.0074712974 -0.056144204 0.057576995 -0.059026923
000090 9d c9 3a 3b 5f 62 16 3c 57 e4 36 3d 49 c7 01 3d
       0.0028501519 0.009178727 0.044651356 0.031684194
0000a0 5b 96 f5 bc e6 2b 46 3d d2 6e 2f 3d fe 55 48 3c
       -0.029978922 0.04838171 0.042830296 0.012227533
0000b0 67 60 0e bd c2 fa 90 3a 23 9e 53 3d c0 b3 ad 3d
       -0.034759905 0.001106106 0.051664483 0.0848155
0000c0 ef 9c 14 bd 16 50 2b bd 7b b9 96 bb 57 0c 44 3c
       -0.036282476 -0.041824423 -0.0045997477 0.011965833
0000d0 b2 55 34 3d f5 c0 25 bc ff 66 44 bd 8d cd 09 bd
       0.044027038 -0.010116805 -0.047949787 -0.033643294
0000e0 d8 bb 83 3d d8 55 80 3b fb c6 39 3c 79 a7 c0 bc
       0.06432313 0.0039164834 0.011338945 -0.023517357
0000f0 cc 60 1c bd f2 6a ae 3c 9a cc 0c bd 54 bb 7c 3d
       -0.03817825 0.02129123 -0.03437481 0.061702088
000100 7e 45 c2 bb 2f db 01 3d 78 ca 15 bd 5d 2a 45 bd
       -0.0059286943 0.03170317 -0.036570042 -0.048136104
000110 68 da 08 3d a3 71 4c 3d 91 52 3e bd 96 8a ee 3c
       0.033411413 0.04991306 -0.04646546 0.029118817
000120 9f 91 ef bc 06 3a 5c 3d cc 00 2b bd 47 7b f7 3c
       -0.029244242 0.053766273 -0.041748807 0.03021015
000130 34 f3 8d 3d 68 bf fb 3b b4 1c 54 b9 b9 7b 30 3c
       0.06931153 0.0076827295 -0.00020228588 0.010771685
000140 72 74 c0 bc ad 73 11 3d 95 19 83 bd 95 2a 6c 3d
       -0.023493025 0.035510708 -0.06401364 0.057657797
000150 8d e4 14 3d 78 0d 25 3d fb 11 8c bc fd 0c 75 3d
       0.036350776 0.040296048 -0.017098418 0.05982684
000160 d0 89 40 3d ac 23 de 3c 8a dc 32 3d 3e fc d4 bc
       0.04700643 0.027116619 0.043667354 -0.025999185
000170 80 77 c7 3c 3e 65 c6 3c d6 45 eb bc f3 49 0c bd
       0.024348974 0.024218198 -0.028719824 -0.03425021
000180 e5 00 76 3d 3a ac 09 3d c0 38 59 3d 61 99 89 3d
       0.060059447 0.033611514 0.053032637 0.06718708
000190 68 31 f9 bb 24 5f 89 3d 57 1b 83 3d 7b d8 c4 3c
       -0.0076047666 0.067076 0.06401699 0.024029007
0001a0 41 d6 98 bc 90 a6 9a bc 0a 93 db 3b b3 c2 84 bb
       -0.018656852 -0.018878251 0.006700878 -0.0040515303
0001b0 55 aa 46 bd 72 17 64 bd 99 63 56 3d 30 e2 58 bd
       -0.048502285 -0.05568642 0.052341077 -0.052950084
0001c0 6c 48 b0 3d 33 41 67 bc 63 0f 08 3c 44 f5 15 bd
       0.086075634 -0.014114666 0.00830445 -0.036610857
0001d0 a6 a7 9b 3c 01 4c a4 bc 53 f6 93 3d d3 e3 04 3d
       0.01900084 -0.020055773 0.07224717 0.032443833
0001e0 3c cb 99 3d a9 03 cc bc 74 7b 69 3d c1 63 65 bd
       0.07509467 -0.024904089 0.0570025 -0.056003336
0001f0 6d 39 4d 3d ef 90 bd 3d 1a 65 77 3c d5 be 94 3d
       0.050103594 0.092561595 0.015099788 0.07262961

network.4.weight f4 [64, 128]
000000 3d da a6 bd 5c e2 e7 bd 48 d5 36 ba 2e 21 05 bd
       -0.081470944 -0.113224715 -0.00069745304 -0.032502346
000010 ed d2 81 bb 4c 28 e7 3c a1 20 59 be 3e bd cf bc
       -0.003961912 0.028217457 -0.21203853 -0.025358792
000020 f0 be 96 3d 04 02 3d 3d b5 9d c6 bd d6 fe f6 3d
       0.07360637 0.0461445 -0.09698049 0.12060325
000030 f6 ea 72 bd 31 99 92 3d 2f 56 0f be 4c aa 59 bd
       -0.059306107 0.07158125 -0.1399772 -0.053140923
000040 37 5e 3f be 04 20 e3 bc 1a 18 c6 3d 79 2d a7 3d
       -0.18688284 -0.027725227 0.09672566 0.0816297
000050 f9 53 22 3d 89 04 b7 bc a2 f9 ee 3e c5 f3 e8 3d
       0.039630864 -0.02234103 0.4667483 0.1137462
000060 a3 ad a5 3b f8 c1 91 be 37 ad 39 3d 03 31 19 3e
       0.0050560995 -0.284683 0.045331206 0.14960103
000070 22 9f 2c be 38 59 0d be 7f 7e 05 be 10 30 f8 bd
       -0.1685758 -0.13803566 -0.13036536 -0.12118542
000080 3a 62 a8 3d ab 80 5a 3d 1b 74 43 3d 0d 83 86 3e
       0.0822186 0.053345364 0.04771815 0.2627186
000090 d8 0f 14 3d a3 ec cd bd e9 22 f1 ba 61 8f d1 3d
       0.036147922 -0.100549005 -0.0018397245 0.102324255
0000a0 a0 9d 98 3d 78 96 eb 3c bf 49 e5 3c 2c ed 57 3b
       0.074519396 0.028758273 0.027989266 0.0032947762
0000b0 24 8a e9 bd 35 ee 3a be 69 dd 7d 3c 5e ef e5 bd
       -0.11403301 -0.18254931 0.015494683 -0.11227296
0000c0 c9 f4 9a 3c 92 6a c1 3d a1 7e 13 bd 6e 91 09 bd
       0.01891555 0.09444155 -0.036009435 -0.03358596
0000d0 de 78 8d 3d 15 c3 c9 bd f5 9d 1c 3e 0c 98 37 3d
       0.06907819 -0.09851662 0.15294631 0.044822738
0000e0 99 0a cb 3d ba 7c 02 bd 18 9f ee bd c3 ad ee bd
       0.09914131 -0.03185723 -0.116514385 -0.11654236
0000f0 06 41 22 bd 65 55 4e 3e 99 c1 7d bd 35 91 37 be
       -0.039612792 0.20149763 -0.061952207 -0.17926486
000100 b7 1a 93 bd b3 d7 7e 3d 24 47 91 3d a7 13 b1 3d
       -0.0718283 0.062217426 0.07093647 0.086463265
000110 58 f1 dd 3c 2b ee bd 3c 3a 10 67 bc 57 e5 a1 3d
       0.02709262 0.023184856 -0.01410299 0.07905071
000120 67 8f 44 bd 9c 11 c8 bd 3a 8a 59 39 40 97 a8 3d
       -0.04798832 -0.09768984 0.00020746226 0.08231974
000130 9f 81 62 be 20 04 8a 3d 5c da 5a 3c 77 82 12 bd
       -0.22119759 0.06739068 0.013357725 -0.035768952
000140 49 f3 5f bc f6 c1 11 3c 44 0b 87 3e b3 0b ea 3b
       -0.013668844 0.008896342 0.26375782 0.007142508
000150 8e 40 8c 3d 2e 25 18 3d b0 56 26 3c d9 7f 58 bd
       0.0684825 0.037144832 0.010152504 -0.0528563
000160 94 62 7c bd 0d 87 d5 3c a8 d9 62 3d 11 69 0b 3d
       -0.06161745 0.026065374 0.055383354 0.034035746
000170 2d f3 46 bd 06 ad ca bd da ed 05 3d a2 e1 cd bb
       -0.048571754 -0.09896283 0.032697536 -0.006283001
000180 cb e6 d7 bd 31 c5 1e be 83 8a 5b be 30 3c 87 bd
       -0.10542067 -0.1550491 -0.21439557 -0.06603277
000190 b2 22 d0 bb bd a0 bc 3d f3 83 51 3d 0f 65 4d bd
       -0.0063517923 0.09210346 0.051151227 -0.050145205
0001a0 d8 1e 9e 3d 35 1f fd 3c b7 bd e2 3d ec a9 64 3d
       0.07720727 0.03089867 0.110713415 0.055826113
0001b0 1f 7d e9 bd 8e 1e 36 bd 2d 49 58 bd aa d9 c6 3c
       -0.11400818 -0.044462733 -0.05280416 0.024273712
0001c0 10 ec 11 bd df af a3 3d d2 1d 47 3e f8 59 d3 bd
       -0.035625517 0.07992529 0.1944497 -0.103198946
0001d0 f3 42 3f be 5a 50 c0 3d d3 6c 91 3d 4a a0 8b 3c
       -0.18677883 0.09390326 0.07100835 0.017044205
0001e0 be 1a ba bd b8 8d 31 3e 1c 6e 04 3b 8b 00 38 3e
       -0.09087132 0.17339218 0.0020207232 0.17968957
0001f0 e2 d9 59 bd 44 51 87 bd 3f 20 b3 3d 9e 0e 72 bd
       -0.053186305 -0.06607297 0.08746385 -0.05909597
000200 2f 1b b0 3d 8f 17 cd bc 38 c4 c2 bc 03 c5 ae bd
       0.08598935 -0.025035648 -0.023775205 -0.08533671
000210 36 98 94 3d 1b 1b 8c 3d 20 26 d1 3d 79 df 7f bc
       0.072555944 0.068411075 0.1021235 -0.015617245
000220 c9 50 93 3d de 14 28 bd dd ec ae 3b 34 08 e3 bd
       0.07193143 -0.041035526 0.005338295 -0.11085549
000230 89 bd 91 bd 20 62 29 3d e2 15 93 3d 8e d2 1e 3d
       -0.07116229 0.041353345 0.07181908 0.03877502
000240 af f7 c7 bc 43 58 4b bd 6d cb cf bd a5 5f 86 3d
       -0.024410097 -0.04964472 -0.10146222 0.065612115
000250 bf e0 cc bd 7e b8 3d bd a3 20 e4 be 6d 68 46 bc
       -0.100038044 -0.046318524 -0.4455615 -0.012109858
000260 e2 ad 3e 3d ae 38 4b 3e b7 cd 00 3d 41 ec 0e bd
       0.046552546 0.1984584 0.031446185 -0.034893278
000270 50 c9 06 3d 0d 1f ac 3d 3f 40 52 3d d3 6e a5 3d
       0.03290683 0.0840436 0.0513308 0.08077779
000280 d1 58 64 3d 20 3e 36 bd c1 eb 73 bd 78 69 2b be
       0.055748764 -0.04449284 -0.059551004 -0.16739452
000290 3f fb a6 bd b3 20 53 3c c8 c3 05 bd 9a 1a 8c bd
       -0.0815339 0.012886214 -0.032657415 -0.06841011
0002a0 96 a3 c5 bd 86 fe 2a 3d 88 d9 dd 39 26 c4 53 3d
       -0.09650342 0.04174664 0.00042314478 0.051700734
0002b0 10 3f 41 3c 16 ab 0c 3d 35 b8 9b 3d e2 b5 b9 bc
       0.01179482 0.034342848 0.07603494 -0.022669736
0002c0 2a 6e 83 3c f6 4f 66 bd c0 08 f5 b8 1e 04 b7 3d
       0.016043741 -0.0562286 -0.0001168414 0.08936332
0002d0 23 8f 0d be 30 52 06 bd dc 92 00 be 17 10 0e 3d
       -0.13824134 -0.032793224 -0.12556022 0.034683313
0002e0 d3 12 8b 3a b8 3c b3 3d 12 4a dd 3d bc 9d ca 3a
       0.0010610468 0.087518156 0.108051434 0.0015458385
0002f0 5d 6c 97 3d 1f 88 39 be 92 67 e5 ba 3f 01 b5 b9
       0.073937155 -0.18118332 -0.001750218 -0.0003452394
000300 f6 f2 76 bd b4 a0 84 3d 01 47 4e 3d e4 08 dd bd
       -0.0602903 0.06475964 0.050360683 -0.107927114
000310 b5 55 24 be 29 09 96 3d 55 af b9 3d c8 4b e4 bd
       -0.1604832 0.07325966 0.09066645 -0.111472666
000320 e2 9d af 3d 83 5b 67 bd 2b ff 4c be fe 46 fa bd
       0.08575036 -0.056483757 -0.20019214 -0.12220572
000330 51 6b f0 3d 75 ed 6e bd f9 ba cb 3d d3 c6 5c 3d
       0.11739219 -0.058331925 0.099477716 0.05390055
000340 b2 9a b7 3d 40 ef 8d bc 49 4c 60 be a0 42 ad 3d
       0.08965053 -0.017325997 -0.219041 0.08459973
000350 7b b7 b1 3d 58 99 92 bd 41 70 a1 bb 56 06 bd 3d
       0.08677574 -0.07158154 -0.004926712 0.09229724
000360 db 33 e8 3c 94 58 0c 3d 91 9e 75 bd e6 d8 a9 bd
       0.02834504 0.034264162 -0.059965674 -0.08293323
000370 74 3f d7 3c 12 d7 1b bd cb 19 7d be 44 5c aa 3d
       0.026275374 -0.038046904 -0.2471687 0.083183795
000380 b4 35 65 3d d7 f1 86 bd 34 9b a8 3b 1d 22 8d 3c
       0.05595942 -0.06589096 0.005145455 0.01722818
000390 f7 13 67 3d c0 72 87 3d d2 66 3f 3c 3b 3d b7 3c
       0.056415524 0.06613684 0.011682229 0.022368064
0003a0 99 17 39 be 46 5d d0 3d 07 60 1b bc 57 b9 9a bd
       -0.18075408 0.101740405 -0.009483344 -0.07554882
0003b0 08 bc 64 3d a2 51 1c bd 7f 7d a8 3d 33 05 66 bc
       0.055843383 -0.03816379 0.082270615 -0.0140393255
0003c0 48 00 42 3d f9 57 36 bd c0 ec 9b bd 69 83 74 3d
       0.04736355 -0.04451749 -0.07613516 0.059695635
0003d0 ce ac cf 3d 9f 81 c3 3c dc 54 b6 3d 9c 87 f8 3c
       0.10140382 0.02386552 0.089029044 0.030338101
0003e0 57 39 4b bc b6 b3 2b be fe 4f 5a bc b4 a7 c6 bd
       -0.012403808 -0.16767773 -0.013324736 -0.096999556
0003f0 48 fe 3d bd a1 d8 80 3d 71 ef ff bc de 89 c5 3d
       -0.04638508 0.06291319 -0.031242104 0.09645437

network.4.bias f4 [64]
000000 5e c6 9d 3d 82 b3 96 bc 34 31 02 bc b2 5d cc 3c
       0.07703851 -0.018396143 -0.007946301 0.024947021
000010 17 ed 9d 3d 4c b2 86 bd 24 8e ab bb 85 6b b6 3c
       0.07711237 -0.06576976 -0.0052354503 0.022268066
000020 b5 2b 44 3d 25 72 dc 3c 8e b5 82 3d 87 f9 f7 bc
       0.047893245 0.026909897 0.06382285 -0.030270351
000030 25 b9 1b bd eb 37 a6 3d 5a 0b c8 bd e0 88 a7 3d
       -0.038018364 0.08116134 -0.0976779 0.08180404
000040 ec f8 79 bc 4a a7 8d bc 79 e4 8a bd 87 94 16 bc
       -0.0152571015 -0.017291684 -0.06781859 -0.009190685
000050 79 e9 3e bd b3 87 be 3d 50 db a4 bc f0 2e a8 3d
       -0.046609376 0.09303226 -0.020124108 0.082120776
000060 6f 2e 11 3d 06 e6 cd bd 44 ec 50 bd 53 fd 82 bd
       0.035444673 -0.10053639 -0.05100657 -0.06395974
000070 bb 94 96 3d 0d f6 e1 bb 71 a1 6e 3d b9 9d 30 bb
       0.07352587 -0.0068957866 0.05825943 -0.0026949479
000080 b6 10 47 bd 51 a7 a9 3d 88 0e 10 bd 47 2a d0 3c
       -0.04859992 0.08283866 -0.035170108 0.025410784
000090 1c 0d 95 3b e9 f3 34 3d 89 e6 a1 bd 7f d0 ba 3c
       0.004548682 0.044177923 -0.07905299 0.022804497
0000a0 4c 6d f3 bd 6d b5 a1 bc ee e2 7d 3d 36 68 5a bc
       -0.11886081 -0.01973983 0.061983995 -0.01333051
0000b0 85 fc 3d 3d 49 d5 6b 3d 54 39 92 3d e0 5b a5 bc
       0.0463834 0.05757645 0.07139841 -0.020185411
0000c0 90 12 9f 3d 0e 66 90 b9 b2 04 ea bc ce 94 49 bd
       0.077672124 -0.00027541857 -0.028566692 -0.049214177
0000d0 5e 66 90 bd 7f 32 90 bd 65 90 a9 3d a0 ae db 3b
       -0.07050775 -0.07040881 0.08279494 0.0067041665
0000e0 60 b3 e0 3b 8b 5e 4a bd a2 2a 81 bd 71 eb 8c 3d
       0.0068573207 -0.04940657 -0.0630696 0.068808444
0000f0 77 89 e7 3c fc 2a 2a 3c 65 46 85 3d cb 1c 4c bd
       0.02826379 0.010386225 0.06507567 -0.049832147

network.6.weight f4 [1, 64]
000000 b4 c4 c7 3e c6 c0 2f be 2c 9c e4 3d e7 2c 19 3e
       0.3901726 -0.17163381 0.111626 0.14958535
000010 75 fe b3 3e 57 ad 9a bd 11 d1 d3 3e cd 60 fd bd
       0.35155073 -0.07552593 0.41370443 -0.12371979
000020 aa be 12 be e0 83 01 3e bd 1d 9e 3e 41 90 27 be
       -0.14330545 0.12647963 0.30882064 -0.16363622
000030 b2 b8 a1 3d 1b 05 58 be 07 30 b4 3e 89 33 d3 3e
       0.07896556 -0.21095698 0.35192892 0.41250256
000040 d8 fb 5a be 7e 5c 04 3f de 8d b0 3d 03 4c e4 3d
       -0.21385133 0.5170363 0.08620809 0.111473106
000050 91 ae f3 bd 60 76 2a be 37 a6 63 bd c8 60 4c 3e
       -0.1189853 -0.16646719 -0.055578437 0.19958794
000060 5e 2f 22 be 74 43 83 be ad 1f 62 be ce ba e7 3e
       -0.15838382 -0.256374 -0.22082396 0.45259708
000070 ce 2b af 3e 0e f4 a4 3e 1e 71 d4 3d ad f6 fb 3d
       0.34213108 0.3221745 0.10373138 0.12302909
000080 fa d3 41 bc e7 c3 13 3e f9 55 e9 bd d2 d8 79 3e
       -0.011830324 0.144302 -0.11393351 0.24399117
000090 8b e1 b7 3e b7 f8 42 3e b8 72 93 be 0e 1a e0 bd
       0.35914263 0.1904019 -0.2879846 -0.109424695
0000a0 d1 db 9a be 71 19 e9 3d e4 8d c4 bd 58 46 02 be
       -0.30245832 0.11381806 -0.09597376 -0.12722147
0000b0 e0 99 a4 bd 2e bf 02 bd 91 d3 9b 3e f4 db 0c be
       -0.08037162 -0.031920604 0.3043485 -0.1375578
0000c0 a3 ed df 3e 54 5c 78 3e ec d5 41 3e a3 8c 55 3e
       0.4373599 0.2425397 0.18929261 0.2085443
0000d0 60 5a f7 3d 52 16 ee 3d 95 f9 11 be 6b bb 9e 3e
       0.120777845 0.11625351 -0.14255364 0.31002364
0000e0 65 78 e5 bd 07 3d e4 3e 79 04 85 3e 21 a2 bb 3e
       -0.11204604 0.4457781 0.25979975 0.36647132
0000f0 ba 13 32 be 61 d1 6a be ef 60 91 3e eb 10 ff 3e
       -0.17390338 -0.22931434 0.28394267 0.49817595
