models/all_features_NN_Nd_max_k_fold_0.pth (torch, 187261 bytes, 7 tensors)

network.0.weight f4 [256, 18]
000000 be 83 3b 3e 6a 6b d1 bd 53 24 e5 3d 49 67 5a 3e
       0.18311974 -0.10225566 0.11188569 0.21328463
000010 11 4d f0 bd 5d 62 14 be 08 b1 00 be 1f 6d f3 bc
       -0.11733449 -0.14490648 -0.12567532 -0.029715119
000020 8d 5f 4d 3c 8b b0 49 3c bc 84 0b 3e 25 db 75 be
       0.012534988 0.0123101575 0.13624853 -0.24009378
000030 30 68 cb bd ce 7f 85 3d 59 31 3f 3e 59 bb 55 3e
       -0.099319816 0.065185174 0.18671168 0.20872249
000040 58 d1 29 bd 20 ef c1 3d 9c 66 61 bd 5e 34 34 3d
       -0.04145941 0.094694376 -0.055029497 0.043995254
000050 a4 f0 32 3e cd 7b ce bd 48 ae 58 3c 5e d8 a8 bc
       0.1747461 -0.10082207 0.013225146 -0.020610984
000060 60 22 e6 bd 14 7b 17 3e f4 8d ec 3d 50 fd 8b bb
       -0.11237025 0.14793044 0.11550513 -0.0042721406
000070 38 cc 7a be 34 0c fa bd 90 19 d2 3d 44 73 7e 3e
       -0.24491966 -0.12209359 0.10258782 0.24848658
000080 f8 5d 02 3e 1c 9b de 3d 7c 06 73 bd b0 81 28 bd
       0.12731159 0.108694285 -0.059332356 -0.041139305
000090 29 db 2b 3e 64 56 cf 3d a9 9a 1d 3e e5 ae 23 be
       0.16782822 0.101238996 0.1539103 -0.15984686
0000a0 f1 55 04 3e 3a 89 18 bd 6e 3b 78 bd 3b ac a3 3c
       0.12923409 -0.037240244 -0.06060355 0.019979587
0000b0 a7 82 80 3d 68 4e 85 bd 93 3e 79 3e 54 1f c0 bd
       0.0627492 -0.065090954 0.24340276 -0.09380975
0000c0 04 69 25 3e 8a 9c 5d 3e 24 3e cc bd 64 37 79 3e
       0.16153342 0.21641746 -0.0997279 0.24337536
0000d0 7a 3d 39 be a1 f4 7d 3e 4e d7 48 3e 3a e1 35 3e
       -0.18089858 0.2480035 0.19613382 0.17761698
0000e0 70 1b c1 bc 53 7f 07 bd 77 d8 62 bd fd be 81 3e
       -0.023572654 -0.03308041 -0.05538222 0.25341025
0000f0 c2 7d 53 be 31 f1 6e 3e b2 a3 e0 bd d3 b5 0e 3d
       -0.20653442 0.23334195 -0.109687224 0.03484137
000100 08 61 5d 3e fa a8 82 3b 0c 92 b9 3d 74 ae b7 bc
       0.21619046 0.0039874287 0.09061059 -0.022422053
000110 ed ac 3b 3c c1 77 00 3e 4b a5 4f be 80 1e 36 3e
       0.011454803 0.12545682 -0.20277898 0.17785072
000120 90 60 23 be d0 be 3c be 46 1c 65 be 1d 3c 15 3c
       -0.15954804 -0.18432164 -0.22374067 0.00910857
000130 5b 83 4a 3d 5e 6e 26 3e be 47 db 3d a9 a7 4b be
       0.049441677 0.16253039 0.10707043 -0.19888176
000140 fa 95 d7 bd f4 e9 16 3e 9c 33 f2 bd 14 7f 4e 3e
       -0.10526653 0.14737684 -0.1182625 0.20165664
000150 82 70 15 be 83 7d 54 be 47 87 88 bd 6f 32 66 3e
       -0.145937 -0.20751004 -0.06666427 0.22480176
000160 36 3d 64 be 73 a4 52 be 52 5b 08 be 1b d5 7f 3e
       -0.22288975 -0.20570545 -0.13316086 0.24983637
000170 e9 3b be bd 18 e3 52 be 6b c8 20 bd 99 db e3 bc
       -0.09288771 -0.20594442 -0.039253633 -0.027814673
000180 63 4a 0f be bc 56 ab 3c 59 0c a8 bd a2 36 6f bd
       -0.1399322 0.020915382 -0.0820548 -0.05840171
000190 29 76 0f be 31 c9 72 3e 4d 8b 78 3e ce 65 30 bd
       -0.14009918 0.23709561 0.24271889 -0.04306584
0001a0 7f 6f 07 be 35 b8 4b 3e 66 2c 17 3d 29 2e 05 be
       -0.13226126 0.19894488 0.036907576 -0.1300589
0001b0 a9 c2 c7 bc 78 e8 0a 3e cb 5f 9b bd 3a e1 91 bc
       -0.024384813 0.13565242 -0.075866304 -0.017807592
0001c0 2e 51 98 bd cd 36 90 bb de d2 4e 3e e3 85 f6 bc
       -0.07437359 -0.004401064 0.20197627 -0.030093139
0001d0 d3 63 b2 3d c0 69 a1 3d 8e 85 b4 bd 42 56 27 3e
       0.08710446 0.07881498 -0.08814536 0.16341498
0001e0 7e ce 13 3e 33 7d 79 bd 2e 5a 8a 3d 03 09 d0 bd
       0.1443424 -0.060910415 0.06755482 -0.10157969
0001f0 73 a6 3e 3e d9 ee 59 3e 0b 05 26 3e ec b6 c4 3d
       0.18618183 0.2128252 0.16212861 0.09605202
000200 6e 8f 64 3e 08 f4 a8 bd e3 36 55 3e 74 14 e4 3c
       0.22320339 -0.0824967 0.20821719 0.027841784
000210 bd 78 1d bb 33 59 65 bd 10 2d 3a be 39 a1 e9 3d
       -0.0024028264 -0.05599327 -0.18181252 0.11407704
000220 79 00 dc bd 14 1b ec 3d 5f 28 80 be 04 54 0d be
       -0.10742278 0.11528602 -0.250308 -0.1380158
000230 93 0a 3a 3d b6 58 72 bc 3b c7 56 3e d0 2f 92 be
       0.04542024 -0.014791658 0.20974438 -0.28552103
000240 78 cb 1c bd 5e 74 7b 3d 29 a5 57 3e a0 59 06 be
       -0.03827998 0.061390273 0.21059097 -0.13120127
000250 bf 7e ca bd 04 50 ba 3c db 23 4d bd e8 6c e8 bc
       -0.09887456 0.022743233 -0.050083023 -0.028372243
000260 65 ad 61 3e 40 dd 05 be 5e 88 88 3d 67 11 0d be
       0.22038801 -0.13072681 0.06666635 -0.1377617
000270 5b 8b 2d bb 20 37 f7 bd 58 c2 4e be b9 9f 06 3e
       -0.0026480767 -0.12071061 -0.20191324 0.13146867
000280 de e7 6a 3e fb e3 e3 bc 61 03 1d 3e 30 f5 d3 bc
       0.22940013 -0.02781867 0.1533332 -0.02587375
000290 d4 9b 9b bd f9 44 c7 3d f2 be 5e be 46 67 30 3e
       -0.07598081 0.09729952 -0.21752527 0.17226896
0002a0 34 bd 86 3d 98 0e 0f be 4e 88 76 3e ba 58 39 3d
       0.065790564 -0.13970411 0.24075434 0.045250632
0002b0 4d f4 3a be f8 50 b2 3c 07 4a c6 3d bf 02 49 be
       -0.18257256 0.021767125 0.09682088 -0.19629954
0002c0 08 66 1b ba 1e 01 bd bd e6 3d 66 3d 8c bd 55 be
       -0.00059279846 -0.09228729 0.056211375 -0.20873088
0002d0 70 b1 a1 3d ac 0f 25 3d 5b 60 8a 3d 89 2e 0c 3e
       0.07895172 0.04029815 0.067566596 0.13689627
0002e0 ed c7 2a 3e b3 a9 68 3e 05 f5 30 3d 26 37 4e be
       0.16677828 0.22720985 0.04320242 -0.20138225
0002f0 b9 a3 9d 3d ca 01 15 bd 3c b2 4f be 94 43 56 3e
       0.07697243 -0.03637866 -0.20282835 0.20924217
000300 a2 28 92 3e 53 fd 8c 3d 0d 00 fa 3d 91 56 4d 3e
       0.28546625 0.06884255 0.12207041 0.20052554
000310 bb 4e 2a 3e 4b c7 68 be 0c 58 3b 3e 85 29 61 be
       0.16631596 -0.22732274 0.18295306 -0.21988495
000320 bf 40 0b 3e a2 67 fb 3c bb e1 23 be 08 e9 6d be
       0.13598917 0.030689064 -0.16004078 -0.23233426
000330 d5 34 5c be 4e f1 13 3d 2e 8e bf 3d 99 22 59 3e
       -0.21504529 0.036118798 0.093532905 0.21204604
000340 29 dd 66 3e 0a 3e ed 3d fc 89 ff 3d f0 32 b8 3d
       0.22545303 0.11584099 0.1247749 0.089940906
000350 bc 9d 0a be 5b 62 06 3e e5 8a db 3d a2 2f a8 3d
       -0.13536733 0.13123457 0.107198514 0.0821221
000360 1c 7c 6d 3e f4 17 f2 bc 40 59 8b be 3d b3 10 3d
       0.23191875 -0.029552437 -0.2721653 0.035327185
000370 39 c5 53 3e c8 54 07 3b da 9d d7 bd ac 5b 31 be
       0.20680703 0.0020649899 -0.10528155 -0.17320126
000380 58 12 94 bd 2e 7b a2 3d dd 1c 0a be c1 ca 0e be
       -0.07230061 0.07933651 -0.13487573 -0.13944532
000390 5d e1 9e 3d 2c 08 4b be 34 4e 06 3e 09 ee 2a be
       0.077578284 -0.19827336 0.1311577 -0.16692366
0003a0 3a 61 f8 bd 48 a3 f6 bd 6e b6 14 be 0f 0c 9a 3c
       -0.121279195 -0.12042862 -0.14522716 0.018804578
0003b0 ba f8 59 be 15 1d ca bc 89 44 a7 3d 0b ba bb bd
       -0.21286288 -0.02467207 0.08167369 -0.09166344
0003c0 ad ed 5b 3e 00 a1 15 be f1 98 89 bd 7f d5 2f bd
       0.21477385 -0.14612198 -0.067186244 -0.042928215
0003d0 87 f7 d7 bd 62 b6 d0 3c 88 a0 7b 3e 3e 10 61 3e
       -0.10545259 0.025477592 0.24572957 0.21978852
0003e0 cb 1c 85 bc 7b f0 07 bd 92 d9 4a 3e f8 50 cf 3b
       -0.016249081 -0.033188324 0.19809559 0.006326791
0003f0 93 28 62 3e 77 82 a9 bc 09 85 8a bd 6f 26 99 bd
       0.2208579 -0.020692093 -0.06763656 -0.07478034

network.0.bias f4 [256]
000000 c2 94 21 3e 74 99 a6 3d 4d 7a 74 3d 9d da 09 be
       0.15779403 0.081347376 0.059686948 -0.134623
000010 e6 f5 55 3d 20 08 01 bd 97 e9 5f 3d 3a 3c 39 3e
       0.05223646 -0.03150189 0.054666128 0.18089381
000020 a1 5a 2c 3e fa c7 87 be 9e 22 12 3d 87 9e 39 3e
       0.16831447 -0.26519758 0.035677545 0.1812688
000030 62 2d 1a bd 9c 1a 3f 3e 01 75 1b 3e 3b e2 c2 3c
       -0.037640937 0.18662494 0.15181352 0.023789516
000040 fb 16 3a 3e 76 a2 7e 3e 04 9b 5e 3e 90 ad 51 be
       0.18172829 0.24866661 0.21738821 -0.20476365
000050 06 61 2e be 19 06 d8 3d fe d2 d7 bd 78 8c 8d 3d
       -0.17029199 0.10548038 -0.105382904 0.06911558
000060 9b ef 27 be 33 72 4c be 0d c0 3b be 5c c8 cc bc
       -0.16399996 -0.19965439 -0.1833498 -0.024997883
000070 fa 5b 23 3b 74 a7 8e 3c c4 e9 c4 3c bf 57 25 3b
       0.0024926648 0.017413832 0.02403725 0.0025229303
000080 fb 1c 42 3e 6c f7 ff bd 15 f9 8e 3d 67 b5 7c 3d
       0.18956368 -0.12498364 0.069811024 0.061696436
000090 17 7d 16 be 5a e2 4a 3e bf 6b c4 3d 40 ba 83 3e
       -0.14696155 0.19812909 0.095908634 0.25728035
0000a0 c8 e0 26 3e 3e 40 61 3e b0 b4 37 be cc 18 13 3d
       0.16296685 0.21997163 -0.1794002 0.03591232
0000b0 7f cb 06 bd 0c d9 5a 3e 21 90 dd 3d fa fe 1f 3e
       -0.032908913 0.2137186 0.10818506 0.1562461
0000c0 0b c2 46 3e 9c 43 54 3d fd 1d 41 3e e8 9c 1a 3e
       0.19409959 0.05182229 0.18859096 0.15098917
0000d0 bb e4 88 3e a9 7f e6 bd 10 3a 0d be c1 f1 3c be
       0.26737007 -0.11254818 -0.1379168 -0.18451597
0000e0 0c b2 0e b9 8c 3f 0c 3e 2c 81 76 be 05 dd 24 3e
       -0.00013608503 0.13696116 -0.24072713 0.16099937
0000f0 d1 fd 5f be f9 34 fd 3d 1d 72 40 3c e4 4d 40 3e
       -0.21874167 0.12363619 0.011745957 0.18779713
000100 25 65 2b be 51 c5 18 be f3 8f 96 bd f7 22 ff 3d
       -0.16737802 -0.1491902 -0.07351675 0.12457841
000110 fe 99 bf 3d bb d1 06 be ca ff e3 3d 9e 4d c3 3d
       0.093555436 -0.13165943 0.11132772 0.09536289
000120 07 3e 3d 3d 42 d0 da bd 3b 47 5d be 3a 73 fa bd
       0.046201732 -0.10684253 -0.21609204 -0.12229009
000130 b2 3c 1a 3e b7 8a 51 bd 04 47 02 3e ef ea c3 bd
       0.15062216 -0.05115768 0.12722403 -0.095662944
000140 5b 66 2a 3e af df e2 3c 6b 3f 3b be 55 8a 59 be
       0.16640608 0.027694551 -0.18285911 -0.21244176
000150 16 de 8e 3e 21 22 47 bd de 5f 09 3e c4 53 81 be
       0.27903813 -0.048616532 0.13415477 -0.2525922
000160 c1 96 9f be e4 40 31 3e c9 45 e8 bd 42 91 2d 3d
       -0.31169704 0.1730991 -0.113414355 0.042374857
000170 aa ad 8b bd 21 04 b0 bd cd 83 22 3e e1 5e 17 3c
       -0.06820233 -0.085945375 0.1587059 0.0092389295
000180 07 39 88 be 61 8a ce bc c1 f1 17 be 71 7a 88 3d
       -0.26606008 -0.025212469 -0.14838316 0.06663979
000190 66 e5 92 bd cb 3b 9e bd 66 ab 99 bd c4 ef f0 3d
       -0.071726605 -0.07726248 -0.07503395 0.11764482
0001a0 6e 79 1b 3e 33 a3 29 3e 1b 72 71 bc 33 08 2b be
       0.1518304 0.16566162 -0.0147366775 -0.16702347
0001b0 7b de 7c 3d 86 a4 2a bd f0 d7 24 be 37 ac 6e 3e
       0.06173561 -0.041660808 -0.16097999 0.23307882
0001c0 eb 05 e5 3d 20 b7 81 3e 52 31 3f bc fe 10 3f be
       0.111827694 0.25335026 -0.011669474 -0.18658826
0001d0 5e 23 ff bd 8f cb 88 be b5 37 2a be 6d a7 e8 bb
       -0.12457918 -0.26717803 -0.16622813 -0.007100037
0001e0 b8 8c 2e bd f3 5d 92 bb a7 3b 6a bc 82 0d 29 3e
       -0.04261467 -0.004466766 -0.014296449 0.16509059
0001f0 60 f8 68 be d0 b1 43 3e aa 61 75 bd 99 35 8e 3e
       -0.22750998 0.19110799 -0.059907593 0.27775267
000200 80 68 d4 3d ff 7b 0c 3e 4d f2 1c be 2f 15 8c be
       0.10371494 0.13719176 -0.15326805 -0.27359912
000210 16 a6 01 be 81 85 82 3e ca 13 fd 3d 91 82 52 be
       -0.12661013 0.2549248 0.1235729 -0.2055762
000220 75 c1 a4 bd 26 99 9f 3d ab c9 74 3e 7d da 31 3e
       -0.080447115 0.077928826 0.23905055 0.17368503
000230 a8 09 1b bc a9 d8 6d 3e de 0f 17 3e de 86 6d 3e
       -0.009462751 0.2322718 0.14752147 0.23195979
000240 9b 1f 86 bd 9f 21 40 be 4c c7 e1 bb ff 87 8a 3e
       -0.06548997 -0.18762825 -0.006890213 0.27056882
000250 60 a9 80 be 68 90 50 bc b4 0c 22 3e d9 37 30 be
       -0.25129223 -0.012729742 0.15825158 -0.17208804
000260 0a 40 0a 3e ff 3e 32 be a7 4b 09 be d9 73 7e be
       0.13500991 -0.17406844 -0.13407765 -0.2484888
000270 30 29 9b bd f1 e5 96 3e a9 6b f7 bd e7 a5 0e 3e
       -0.07576215 0.29472306 -0.120810814 0.13930474
000280 17 5a 4e be 29 52 a8 3d d1 ad 84 3b 23 93 60 bd
       -0.20151554 0.08218796 0.004049041 -0.05482782
000290 a1 32 e6 3d d9 4c 68 be 63 1c 18 3e 12 c1 80 3e
       0.112401254 -0.22685565 0.14854579 0.251473
0002a0 77 ac 47 be 6d 2e 2b 3e 7f cb 4d 3e 41 37 eb bd
       -0.19499384 0.16716929 0.20097159 -0.11485148
0002b0 58 7a 71 be ff 82 87 3e 1b 45 08 be 9f f4 4b be
       -0.23581827 0.2646713 -0.13307612 -0.19917534
0002c0 7c 49 c1 3d b2 42 12 be 91 c3 a7 bc 4b a9 cb 3b
       0.09437844 -0.14283255 -0.020478996 0.0062152497
0002d0 14 c6 c6 3d 81 21 7b 3e 4d 3f c0 bd 66 26 35 3d
       0.09705749 0.245245 -0.09387074 0.044226073
0002e0 2b ae 40 3e 50 34 09 be 3d 62 8f 3d 89 da 85 3e
       0.1881644 -0.13398862 0.07001159 0.26143292
0002f0 ec 52 d4 bd a2 63 0b 3e 4a b1 cc bd 1f 8a 14 3e
       -0.103673786 0.13612226 -0.09994753 0.14505814
000300 58 d7 44 3e d0 01 48 be 24 ff 4e 3d 51 d0 66 be
       0.19222772 -0.19531941 0.05053629 -0.22540404
000310 99 d5 49 bd c4 3c 7a 3e 4b e9 2c be 50 3f d2 bd
       -0.04927597 0.24437243 -0.16885869 -0.10265982
000320 68 84 47 3e a5 e3 45 be f2 08 74 3e 1e 24 50 3e
       0.19484103 -0.19325121 0.23831537 0.20326278
000330 5f e4 d5 3d 13 57 c7 bd 6d 80 cf bd 2e eb eb 3d
       0.10443949 -0.09733405 -0.10131917 0.11519466
000340 1f 3f 8d 3e 8f fe dd bd e0 79 f6 3c 89 34 4b 3d
       0.2758722 -0.10839569 0.030087411 0.04961065
000350 a2 f8 75 3e b9 c2 10 3d cd e6 7e 3e ec dc 97 bc
       0.24020627 0.035341952 0.24892731 -0.018537961
000360 b4 03 b5 3d 07 0b 4e 3d 69 1e 04 3e ca f8 eb 3d
       0.08838597 0.050303485 0.12902226 0.11522062
000370 3f 0e 4f be 2e bb 5b 3e dd f5 03 3e 0a 61 29 3c
       -0.20220278 0.21458122 0.12886758 0.010338077
000380 75 ae 21 be 95 fe b6 bd 93 c3 3f bd 6f a7 3b 3e
       -0.15789206 -0.089352764 -0.046817373 0.1832559
000390 7e 63 c7 3d 0e 9c 5e be 2a 57 e4 bd 08 c5 2f 3d
       0.097357735 -0.21739218 -0.11149438 0.042912513
0003a0 e6 fd 06 be ac 78 11 3e 03 21 d4 3d 5b 1b 18 be
       -0.13182792 0.14206189 0.10357859 -0.14854185
0003b0 f1 7d 9c bd 05 a1 dc bd 02 b8 8a bd ad f0 8c bd
       -0.07641209 -0.107728995 -0.06773378 -0.06881843
0003c0 5d 4d c8 bd ea d3 03 be f0 27 4f 3e 74 78 ad 3d
       -0.09780381 -0.12873808 0.20230079 0.0847024
0003d0 9b 7c 87 bc ab 98 f6 bd 89 b4 d5 bc 64 d7 81 3c
       -0.016538909 -0.12040838 -0.026087062 0.015849777
0003e0 3c 15 6a 3e e8 60 13 be 08 c8 29 3e c7 1b 53 bd
       0.22859663 -0.14392436 0.16580212 -0.051540162
0003f0 99 ad 5c 3e e7 40 4a 3e 7c 26 59 3e 5b 3d 82 be
       0.21550597 0.19751321 0.21206087 -0.25437436

network.2.weight f4 [128, 256]
000000 73 dd ea 3d d2 c9 c1 bc 65 79 36 3a 6e 8f 42 bc
       0.11468019 -0.023655806 0.0006960838 -0.011875017
000010 eb 9d c1 bd bd b1 00 3d e9 55 53 bd 87 98 35 3a
       -0.094539486 0.031419504 -0.051595602 0.00069273304
000020 75 77 8c bc a3 38 85 3c 21 8d dc 3c 6e be 91 3d
       -0.017146805 0.016262358 0.026922764 0.071164
000030 f5 3d 0a 3d b8 a3 e8 bc 3f 8a 25 3d b7 3a 22 bd
       0.033750493 -0.02839838 0.040415045 -0.039606776
000040 b8 4d e8 3b be d5 c3 3b e4 ed eb bc 0d d2 54 3c
       0.007089343 0.005976408 -0.028799959 0.012989533
000050 e0 67 3b be d9 77 64 3c e2 3f be bc 33 8b 0f bd
       -0.18301344 0.0139445895 -0.023223821 -0.03504486
000060 2d d4 69 bd e2 93 8d bd 5c 0c f0 bd 10 21 af 3d
       -0.057087112 -0.06912972 -0.11721107 0.08551228
000070 42 5e 80 3d 14 36 b8 bd de 15 8b bd ae 72 fd bc
       0.06267978 -0.089946896 -0.0679128 -0.030938473
000080 bd 47 71 bd 92 3f 2c 3c 56 a8 6c 3d 4e bc 6f bd
       -0.058906306 0.010513203 0.057777725 -0.05852919
000090 84 da 51 bd f4 a9 15 bd ea 5e 39 bd c1 39 28 3d
       -0.051233783 -0.036539033 -0.045256533 0.041070703
0000a0 c1 65 a4 3d 5d 9f 10 3d f7 c0 ad bc 4a a2 b8 3c
       0.080272205 0.03530823 -0.021210177 0.022538323
0000b0 8b 05 11 3d fb e6 b6 b6 c7 32 5f 3d fe 9e b7 bb
       0.035405677 -5.4509123e-06 0.054491784 -0.00560367
0000c0 d8 12 1c 3d 3e 45 d2 3d 0a 79 c0 3d 7c 1d 9a bc
       0.03810391 0.10267113 0.09398086 -0.018812887
0000d0 c3 00 dd bc ff aa bd bb cf 1d b4 bd 9f cb 87 bd
       -0.026977902 -0.0057882066 -0.08794748 -0.066306345
0000e0 f7 33 20 bd 0e 1f 31 3d 76 fa 15 be 84 7c e2 ba
       -0.039112058 0.043242507 -0.14646325 -0.001727954
0000f0 6f 26 74 bd a4 5e f6 bc 2b e8 43 bd 1f 53 d6 3a
       -0.059606966 -0.030074425 -0.047828835 0.0016351676
000100 cd 87 33 bd 7f a7 2b bc 03 54 fa 3c 91 ec 3e 3d
       -0.04383068 -0.010476946 0.030557638 0.046612326
000110 ca 60 b0 3d 6d 2f 51 3d 2a 29 94 bd e2 ff 9e bd
       0.08612211 0.05107062 -0.07234414 -0.077636495
000120 25 ed 88 bc 21 b6 21 b8 be f6 a8 3b f9 b0 bb 3c
       -0.016714642 -3.8555012e-05 0.005156367 0.022911536
000130 a0 a3 f1 bd 88 50 12 3d eb f6 75 3c c6 4b 34 bc
       -0.11798787 0.03572133 0.015012483 -0.011004394
000140 cd 65 65 3d 1a c0 c6 bd 59 bd 46 3d 07 01 92 3c
       0.056005288 -0.09704609 0.04852042 0.017822756
000150 2e 16 0e 3d 1b be c3 bd 5b 67 3c 3d dd c6 16 bd
       0.03468912 -0.09557744 0.045997005 -0.036810745
000160 67 6b 9d bd ca 21 5a bd d5 03 fb bc c5 de 26 bd
       -0.07686501 -0.05325488 -0.030641476 -0.040739793
000170 7e 5c 18 bd 61 e2 b1 bc 85 95 70 3d 7c 51 e1 3b
       -0.037197582 -0.021714391 0.058736343 0.006876169
000180 5a 5b 84 bd b6 b0 1b bd ff 79 86 bb 45 81 33 3d
       -0.064627364 -0.03801032 -0.0041038985 0.043824453
000190 ad 07 e4 bc 76 30 c8 3c d6 be ca 3d 99 9b b8 bd
       -0.027835691 0.02443717 0.0989968 -0.09014053
0001a0 0b 0f 02 3d a9 93 86 3c 94 b4 97 bd ea ac 2a 3d
       0.031752627 0.016427832 -0.074074894 0.04166881
0001b0 e6 03 b5 3c 78 61 0c bd c3 4d 2d bd a9 df 42 3d
       0.022096585 -0.03427264 -0.042310487 0.04757658
0001c0 27 94 52 bc 4e 96 e9 bc 5d c0 a3 3d f0 61 3f bd
       -0.012852705 -0.028514054 0.07995675 -0.04672426
0001d0 71 af 27 3d 99 5a 93 3b 86 19 8a bd ab 47 a7 3c
       0.0409388 0.004496884 -0.067431495 0.020419916
0001e0 4a b7 5f bd 57 ad 55 bc 73 fd 92 3b 9d 25 e6 3c
       -0.054618157 -0.013041816 0.00448578 0.028094107
0001f0 40 a5 15 bc 00 c8 2f 3d e2 eb 94 3c 1a bc 22 bd
       -0.009133637 0.042915344 0.018178884 -0.03973017
000200 ea 1a f1 3c d5 ae 9d 3c 93 5a 82 bd 90 98 f5 bd
       0.029431779 0.019248405 -0.06364932 -0.119919896
000210 0e 31 a0 3c 93 01 93 3c 7d 20 60 bd 58 b2 7d 3d
       0.019554641 0.017945087 -0.054718483 0.06193766
000220 d0 68 6d 3c 29 79 09 3d 84 60 1c 3d 98 8a 3f ba
       0.014490321 0.033562813 0.038177982 -0.0007306724
000230 52 e3 d7 3c 43 b7 81 3d 3c 64 c2 3c 69 2f 60 3c
       0.026353512 0.063337825 0.023729436 0.013683178
000240 54 41 64 bd 53 b3 0c be a0 54 8e bd 4d 82 ed bc
       -0.055726364 -0.13740282 -0.06949735 -0.028992796
000250 26 73 a4 3c c8 06 02 bd ec dc 09 3a 07 80 c6 bd
       0.020074438 -0.03174475 0.0005259055 -0.09692388
000260 bf 51 51 3d ab 47 8b bc 27 f5 a9 bc 92 3b 6a bd
       0.05110335 -0.017001947 -0.02074678 -0.057185717
000270 1e 4d 5e 3d 9e 8f 67 3c 59 77 78 3c 60 e4 49 3d
       0.054272763 0.014133362 0.015165173 0.04929006
000280 9d 39 93 3c 01 2a f1 3c 40 b2 8f bc d6 f4 0a 3c
       0.017971808 0.029438974 -0.01754105 0.008481225
000290 8e d9 80 bc d1 50 57 3d 41 c0 38 bd 3e fa 47 bc
       -0.015728738 0.052567307 -0.045105223 -0.0122056585
0002a0 0d b1 7a bd d2 62 74 3d 7c a7 a9 3d ae 4d d6 bd
       -0.061204005 0.059664555 0.08283898 -0.10464035
0002b0 0c a3 29 bd cd da 33 3d 73 ae 28 bd ad bd 1a bd
       -0.04141526 0.043909837 -0.041181993 -0.037778545
0002c0 5d a4 0c 3d 5a f8 9d bd be 27 4b bd 07 75 56 bc
       0.034336437 -0.07713385 -0.049598448 -0.013089425
0002d0 16 66 f8 bc 8e ca 15 3d 4e 33 9e bd a0 0c e7 3c
       -0.030322116 0.036570124 -0.07724629 0.028204262
0002e0 9f d2 cd bc 49 f6 85 3c b5 27 77 3d bd 58 be 3d
       -0.025124846 0.01635279 0.060340602 0.09294269
0002f0 44 33 a5 bd 4a ce 97 bd 25 a1 79 3d 7d c4 57 3c
       -0.08066419 -0.074123934 0.060944695 0.013169405
000300 f4 3e a0 bb 0d a5 33 bd c7 c0 d7 bc 7f 89 27 be
       -0.004890317 -0.043858577 -0.02633704 -0.16361044
000310 0a 9d a7 bd 67 71 13 3d a0 19 70 bd e2 91 1b 3e
       -0.0818425 0.03599682 -0.058618188 0.15192369
000320 59 87 08 3d 48 5b d3 3b 51 96 8c 3d 12 a4 74 bd
       0.033332203 0.0064500906 0.06864608 -0.059726782
000330 63 69 02 bd be a6 5c bd ef 6e e4 bb 70 c2 90 3d
       -0.031838786 -0.053869955 -0.006971232 0.07068336
000340 c8 99 2a bd 10 23 86 bc 6d 3c 51 bd 17 c0 c1 bd
       -0.041650563 -0.016374141 -0.051083017 -0.09460466
000350 4c 60 3a 3d 13 a0 0b 3d 15 f9 b0 bb 3e 9b 31 bd
       0.045501992 0.034088206 -0.0054007866 -0.04336094
000360 84 46 34 3d 3d bd cc 3b 2b 1f 9d 3b 6d 47 d8 bc
       0.04401256 0.006248145 0.0047949753 -0.026401246
000370 0e 94 ab bc c0 73 62 bd 1e ca 53 3c 91 f3 2a 3d
       -0.020944621 -0.05528617 0.012926606 0.04173619
000380 39 ba 65 3a 03 24 56 bd 45 3c 5c 3d 47 d7 8a 3c
       0.0008763406 -0.052280437 0.053768415 0.016948355
000390 14 ce 67 bb 0d 88 2a bc 5c 40 03 3d 7d 57 ad bd
       -0.0035370635 -0.010408414 0.0320438 -0.08463953
0003a0 2c 7f 82 3c 12 86 27 bd e5 99 c8 bb 60 9c fe 3c
       0.01592978 -0.040899344 -0.0061218613 0.031080425
0003b0 04 95 9a bb 7b 7c a4 3a a4 c5 6a bd 7a ab a0 3c
       -0.004717471 0.0012549305 -0.05731739 0.019613016
0003c0 14 2d 72 3c 5b 6e 9a bc ec e9 5d bc f5 ac 31 bd
       0.014781255 -0.01885145 -0.013544541 -0.043377835
0003d0 6e 23 39 3d a6 64 df 39 21 8a 38 3d dd 7f 7e 3c
       0.045199804 0.00042608863 0.045053605 0.015533415
0003e0 4a 97 3b bb c2 4e 27 bc 35 29 7b bd c1 cf e4 bb
       -0.002862411 -0.010211648 -0.061318595 -0.006982774
0003f0 a8 d0 e6 bc 04 3c ad 3b 8e c1 e5 bc df 88 83 bd
       -0.028175667 0.0052866954 -0.028046396 -0.064225905

network.2.bias f4 [128]
000000 d4 d4 a0 3d c0 00 0b 3c 3b bf 00 bd 99 2e 1a 3d
       0.07853094 0.0084840655 -0.03143237 0.037642095
000010 e1 73 f6 bc 93 b6 2b 3d 21 65 dd bc 07 73 71 3d
       -0.030084552 0.041922163 -0.027025761 0.05894759
000020 6c 61 03 3c da 49 5f 3d 62 ff 16 3d 30 67 dd bc
       0.008018833 0.05451379 0.036864646 -0.027026743
000030 de 80 89 3c 5b 66 72 bd 89 5f 6f bd 05 11 e6 bc
       0.016785081 -0.059179645 -0.05844072 -0.028084287
000040 e9 27 cf 3b d2 ba 46 3d d4 57 1a 3c 7c c8 a8 bc
       0.0063218963 0.04851801 0.009420354 -0.02060341
000050 60 ff 4e bd 23 31 2c 3d 24 72 45 bc f8 3a 39 bd
       -0.050536513 0.042039048 -0.012051139 -0.045222253
000060 2b 49 ce 3c dc c7 b5 3c 7a 23 4d 3d fa d2 31 bd
       0.025181374 0.022190027 0.05008266 -0.043414094
000070 f6 2e d7 bc d2 fd 13 bd aa b8 08 3d 25 4f c1 3c
       -0.02626751 -0.036130734 0.033379234 0.02359731
000080 cc 41 d4 bc 92 d0 5f bc 4c 1e 64 bd de 95 f7 bc
       -0.02591028 -0.013660567 -0.055692956 -0.03022283
000090 86 6e f5 3c 73 35 2f 3d 57 21 63 bd dc 87 e4 3d
       0.029959928 0.042775583 -0.055451717 0.111587256
0000a0 96 24 ea bc 81 fb ca bc 31 c1 f7 bc cf 08 4f 3d
       -0.028581899 -0.02477813 -0.030243488 0.05054551
0000b0 4d 76 31 bd 69 d9 16 3c bd a8 40 bd 02 45 8c ba
       -0.04332571 0.009207108 -0.04703592 -0.0010701718
0000c0 a5 b4 4b 3c 1c c7 f1 bc 5a 55 98 3d e4 91 19 3d
       0.012433206 -0.029513888 0.074381545 0.037492648
0000d0 97 91 6c 3d ec 15 b7 3c 41 31 dd 3c b2 ee e0 bb
       0.057756033 0.02234932 0.027001025 -0.006864392
0000e0 9e 7d 59 3d 7c a2 bb 3b 62 b0 3d 3d 35 8b ae 3c
       0.053098314 0.0057261568 0.04631079 0.021306613
0000f0 62 2b 2d 3d 14 30 ab bb 50 8a 46 3d 07 25 18 3c
       0.0422777 -0.005224237 0.04847175 0.009286172
000100 c6 f6 22 3d 00 14 24 3d c5 43 7b 3c 07 3a ae 3c
       0.039786123 0.040058136 0.015335982 0.021267904
000110 25 e6 77 bc 4c 17 ed 3c a6 bd 11 3d 0d d9 86 3d
       -0.015130554 0.028941773 0.035581253 0.06584368
000120 56 67 c4 3c 9e 9d 9f 3c 75 83 3f 3d 96 60 5f 3d
       0.023975056 0.019484337 0.046756227 0.05453547
000130 73 91 9a bd 0d 56 fb bc 98 2f 9e 3b b2 d0 9a bc
       -0.075472735 -0.03068068 0.004827451 -0.018898342
000140 d5 81 b2 bc ba b9 9a b9 ca ca 62 3c b8 88 31 bd
       -0.021790424 -0.00029511546 0.013842294 -0.043343276
000150 d6 12 f5 3c 37 87 06 3d 0e 14 62 3d 4a 05 28 bd
       0.029916208 0.032843795 0.055194907 -0.04102067
000160 b1 f6 a1 3c c6 4e b0 3b a0 b1 ee 3c a1 5d 5c bd
       0.019770952 0.0053804843 0.029137433 -0.05380023
000170 0c 50 47 ba ce f8 2e bd 6c 29 99 3c fb c3 65 3d
       -0.00076031755 -0.042717747 0.01869651 0.056095105
000180 79 3e 99 3d ac 4d a0 bc 20 09 56 bc 21 fc 90 bc
       0.07482619 -0.019568287 -0.013063699 -0.01769835
000190 5b 29 9a 3b 7d 71 8c 3c fa 5b 81 3d ac ca 45 3b
       0.004704637 0.01714396 0.06316371 0.0030180616
0001a0 e5 6a 55 3d 91 b6 74 3d ad 47 7f bc 8d be 24 bb
       0.052103896 0.05974442 -0.015581054 -0.0025137991
0001b0 92 d7 9b bd d2 da 85 3c 0d d3 ab bb 47 d3 9e 3d
       -0.07609476 0.016339693 -0.005243665 0.07755142
0001c0 ca 46 14 bd 14 49 43 bc a7 d6 6d bd 95 bd 74 3d
       -0.036200322 -0.011919279 -0.058066037 0.059751112
0001d0 00 cd 0b bd be 62 5a 3d 00 05 2c bd 18 25 85 3d
       -0.03413105 0.053316824 -0.041996956 0.06501216
0001e0 00 9b cb bc ed e0 3e bd cd 01 98 3c ea 0c f0 3c
       -0.024854183 -0.046601225 0.018555546 0.029303033
0001f0 09 ab b9 3d 06 8e fc 3c c7 f8 5b 3d 82 be f3 bb
       0.090658255 0.03082944 0.05370405 -0.007438482

network.4.weight f4 [64, 128]
000000 98 11 10 be 92 1b 7e 3d 8f 35 0b 3e 7d a8 3a bd
       -0.14069211 0.06203801 0.1359465 -0.04557084
000010 97 40 f8 bd ee 6c b6 bd 08 3a 8c 3c f8 e1 db 3d
       -0.121216945 -0.089074954 0.017117515 0.107364595
000020 11 17 10 bd 80 e5 89 bd 90 d1 30 3b 0f df a2 bd
       -0.035178248 -0.06733227 0.0026980378 -0.07952701
000030 cd 4f 38 be 98 1f 23 be 7a 71 7b bd 73 3b 21 bb
       -0.17999192 -0.15930021 -0.061387517 -0.0024602085
000040 28 fc f1 3c 2c 97 80 bd 7d 9a f0 bc c8 55 80 bd
       0.029539183 -0.06278834 -0.02937054 -0.062663615
000050 19 5f ae 3d 12 4a f6 3c 37 b0 ba bd 06 e9 89 3d
       0.08514232 0.030064616 -0.091156416 0.06733899
000060 e8 b7 03 be 69 47 23 3d ea f1 72 bd e2 08 1b bd
       -0.12863123 0.039863024 -0.05931274 -0.03785027
000070 bc bf db bd 50 cc 71 bc 2a 0f e1 bd 3a 56 dd 3b
       -0.1072993 -0.014758185 -0.109892204 0.006754664
000080 8c ad 89 bd 80 50 27 3d 23 26 14 be 1e 15 12 3c
       -0.067225546 0.040848255 -0.14467673 0.008916168
000090 d0 1a 90 3d 3b be 8d 3b 61 3f 16 bd 07 06 c8 3d
       0.07036364 0.0043256558 -0.036681537 0.097667746
0000a0 f8 98 61 3d 5a d7 bf 3d a8 7f 02 bd 94 8a 0a bc
       0.055077523 0.09367247 -0.031860024 -0.008455891
0000b0 35 c7 2b 3e 89 9c e4 3d 8b 06 9a 3d a2 f8 da 3c
       0.1677521 0.11162669 0.07520779 0.026729885
0000c0 3f 5d 71 3c 0f b5 b4 bd f1 24 4f bd f5 4b f4 3d
       0.014731704 -0.08823597 -0.05057234 0.1192855
0000d0 73 7d 1d 3e 53 6a 7c bd dc 0a 1d 3c 53 91 f7 3c
       0.15379886 -0.061624836 0.009585109 0.030220663
0000e0 a0 20 b3 3c 8b 83 c4 3d 7c fb b5 bd 9e 00 b3 3c
       0.021866143 0.09595402 -0.088858575 0.02185088
0000f0 e3 12 5b 3d 4b 9b d9 bd 50 6e e3 3c 9b 25 8b 3d
       0.05348481 -0.10625323 0.027762562 0.06794282
000100 be 06 1a 3e b5 58 44 3e 15 64 33 be f6 ac d6 3d
       0.15041634 0.19174464 -0.17518647 0.104822084
000110 22 6d 6c 3d d2 e5 97 bd 2a 88 c1 bd ab ea 73 3c
       0.057721265 -0.074168816 -0.09449799 0.014887492
000120 16 48 20 be 49 7e 1b be 0b 27 1e be 37 c3 74 bc
       -0.15652499 -0.15184893 -0.15444581 -0.014939121
000130 74 79 8c be 9d 0c 58 be 0a 3c 48 3c 7e 5b ae 3c
       -0.2743641 -0.21098562 0.012221346 0.021283861
000140 e1 20 8b bd 17 b1 33 be 1b a3 ee 3d 2a b2 93 3d
       -0.067933805 -0.17548023 0.11652204 0.072117165
000150 fc 0d c2 3d c5 11 8d bd ce d0 63 be 8c 36 21 be
       0.094753236 -0.06888155 -0.22247621 -0.15743464
000160 6b ad 8c 3d a6 10 05 be e9 69 ed bc e7 3d 43 3e
       0.06869014 -0.12994632 -0.028981166 0.19066583
000170 8a 51 bf bd 42 9f d0 bb 77 7a e9 3c ff 41 0e 3d
       -0.09341724 -0.0063666413 0.028500779 0.034730908
000180 40 e2 c9 3d f7 64 a6 bb 0c b2 22 3e 5b a1 5b bc
       0.09857607 -0.005077954 0.15888232 -0.013405169
000190 06 b7 d1 bb 86 af 1f be 2b 18 6b 3d 31 d9 1b be
       -0.006399992 -0.155943 0.057396095 -0.1521957
0001a0 b0 94 18 3d 4f 5b 55 bd df 3b 80 bd 75 cc 89 bd
       0.037251174 -0.05208903 -0.062614195 -0.0672845
0001b0 c6 45 19 3e 1d 06 26 bc c3 5e 85 3d 34 12 05 be
       0.14968023 -0.010133293 0.06512215 -0.12995225
0001c0 c3 7a 84 3c b7 03 07 3e 54 5f 64 bd ce 10 3f bd
       0.016171819 0.13185011 -0.055754974 -0.046646886
0001d0 8b 2b c0 3d ec 26 76 bd f8 80 50 bd 43 df e2 39
       0.09383305 -0.060095713 -0.050904244 0.00043272422
0001e0 a3 04 f9 bc b1 2c 5c 3e bd 36 97 3d ee b1 94 3d
       -0.030397719 0.21501423 0.073834874 0.072605
0001f0 94 4b b9 3c db 5b 45 3e 9f 0d 33 bc 0a dc f6 bc
       0.022619046 0.19273321 -0.0109285405 -0.03013422
000200 dc 51 e9 3d be a3 e4 3c 34 26 5d 3b 60 99 ea bc
       0.113925666 0.02791011 0.0033744695 -0.028637588
000210 e3 2d 6b 3d 5f 27 89 3d f8 29 9c bb 9f e7 ed 3c
       0.057416808 0.066969626 -0.0047657453 0.02904111
000220 14 b4 e6 bc 5b 55 95 bc 20 53 88 bc fc 44 ad 3d
       -0.02816204 -0.018229177 -0.0166412 0.08460423
000230 29 6e bf 3d fe 65 b1 3d 86 b0 79 3d 07 79 ec 3c
       0.09347183 0.086620316 0.06095936 0.028866304
000240 9b d9 b2 3d 4a be 2a 3d 5b 5c ab bd 7c 7a 0a 3e
       0.08732911 0.04168538 -0.08367225 0.13523287
000250 e8 be 6a 3d 05 7b 45 bd e7 5e d7 bc 09 de 3f bd
       0.05731097 -0.048213024 -0.02629037 -0.04684261
000260 d9 ef f8 bc 6b df a5 bd 11 7c c5 bc 4d fb d7 3c
       -0.030387806 -0.08099254 -0.024107011 0.026364947
000270 51 7b 92 3d 23 fc ab bc 4a 91 34 bd ac df 45 3c
       0.07152427 -0.020994252 -0.04408387 0.012077253
000280 ca 4f 2c bd df c9 56 3d 20 84 8a bc ee 89 31 bd
       -0.04206828 0.052438613 -0.016908705 -0.04334443
000290 cd 7f 3a bc 40 6a 60 3d cb 42 60 bd 9b 58 c1 bc
       -0.011383009 0.054788828 -0.0547512 -0.02360182
0002a0 2e 25 a8 bd 43 ec 13 bd 9d 3d 30 3c 34 4c 4b 3d
       -0.082102165 -0.03611399 0.010756877 0.04963322
0002b0 53 ea 1e be 13 cb 29 bd 33 35 20 3d 97 bc 25 bd
       -0.15519075 -0.041453432 0.039113235 -0.040463056
0002c0 a1 5a 7a bd ee 72 38 bd d1 4f b0 bc 1f 40 77 3d
       -0.061121587 -0.04503148 -0.021522434 0.060363885
0002d0 b0 f7 2c be 49 17 ed 3c 6e fa fb bc 15 71 67 bd
       -0.1689136 0.028941767 -0.030759063 -0.056504328
0002e0 29 af 84 3d 2c a3 58 3d 9b a1 13 bc c3 77 86 3b
       0.06478722 0.052889988 -0.009010698 0.004103632
0002f0 8c d6 f4 3c 0f a0 48 3d be 7b 91 3d ca 87 2f 3d
       0.02988746 0.04898077 0.0710368 0.042854108
000300 b3 a1 41 bd fb 85 b2 bd b8 45 00 3e 91 9c 80 3c
       -0.04727335 -0.08716961 0.12526596 0.015699657
000310 f9 b4 70 bd 8a ab 53 bd 64 b6 76 bd a1 73 84 3d
       -0.05876634 -0.051677264 -0.060232535 0.06467367
000320 92 17 18 3d 65 05 33 3d ef 6d 00 bd 32 04 f6 bc
       0.037131853 0.043706317 -0.03135484 -0.030031297
000330 64 e6 85 3d 24 e0 68 bd e6 49 cb 3d a4 ba 7e 3b
       0.06538084 -0.056854382 0.099262044 0.003886857
000340 dd 38 dd 3c a8 9f 8d bd f3 16 cb bd 12 0f df 3c
       0.027004654 -0.06915218 -0.099164866 0.027228866
000350 6d d9 8f 3d 8d 0d 8a 3d c5 40 21 bb 31 a1 72 bd
       0.070238926 0.06740866 -0.0024605256 -0.059235755
000360 20 d9 f9 3c 37 02 73 3d 69 ec a3 bd db 1e 11 be
       0.030499041 0.059328284 -0.08004076 -0.14171927
000370 2c 31 5c bc 78 80 a8 3c 90 60 20 3d 9a 1b 5b 3d
       -0.013439458 0.020569071 0.03915459 0.05349312
000380 34 52 2c be 0b d9 d7 bd 5a 39 fa bd 79 65 35 bd
       -0.16828233 -0.105394445 -0.1221797 -0.044286225
000390 22 e5 8d bd d2 90 a9 3d 69 4f 5c 3d 41 17 0d 3e
       -0.06928469 0.082795754 0.05378667 0.13778402
0003a0 40 0d 68 3d 4d 81 bb 3d a3 f6 14 3d b9 fa 77 bd
       0.05665326 0.091555215 0.036368024 -0.060541842
0003b0 fe 2d 1c bd 37 0d f7 b9 1d 4e c7 bc fc 41 4a 3d
       -0.0381298 -0.00047121357 -0.02432924 0.049379334
0003c0 6f 7f 47 3d 08 a6 b9 3c bb a3 a8 3d 90 b7 69 3d
       0.048705515 0.022662178 0.08234354 0.057059824
0003d0 b1 63 46 bd fa eb ca bc 71 d5 c1 3c ce 5a 19 bc
       -0.048434917 -0.024770726 0.023661347 -0.009360028
0003e0 78 d8 1d 3d 59 bc 7b be f0 46 06 3c 93 77 9f bd
       0.03853652 -0.24583568 0.008195624 -0.07786479
0003f0 71 69 9e bb 07 5b 14 be 58 f8 1b bd de ae a5 bd
       -0.004834347 -0.14487849 -0.038078636 -0.08089994

network.4.bias f4 [64]
000000 c1 b7 7d bc 3b 91 ff bc fd a6 12 3d 22 db 09 bc
       -0.015485705 -0.031197181 0.035803784 -0.008414062
000010 e6 b4 b3 bb 38 d9 00 3d 37 74 a2 bc e2 62 38 bd
       -0.0054842113 0.031457156 -0.019830806 -0.045016177
000020 74 5b 6e 3d 00 65 6a 3d e4 72 73 3d ca 79 84 3d
       0.058192685 0.057225227 0.05943574 0.06468542
000030 85 df b6 3b 29 80 e8 3c 3e 9d 88 bb 02 7c 8e bd
       0.005580845 0.028381424 -0.0041691354 -0.06957246
000040 07 81 9d 3d be eb 9f bd d7 fa 0f bd 3c 6d 04 bd
       0.07690626 -0.07808636 -0.03515133 -0.032330737
000050 22 f2 ab bd 14 87 07 3c b7 5b a5 3d 8f 98 2f bc
       -0.083957925 0.008271951 0.08074134 -0.010717525
000060 21 d7 84 bd 68 41 03 bd b1 dc 8e 3d 43 04 40 3d
       -0.06486345 -0.032044798 0.06975687 0.046879064
000070 6a 88 05 3c 9e de b9 bc 18 cf 65 bd da 99 32 3d
       0.008150199 -0.02268916 -0.056105703 0.043603756
000080 8a 22 19 3d b4 4c 83 bd ff c1 82 bd 86 35 10 bd
       0.037386455 -0.06411114 -0.06384658 -0.035207294
000090 12 12 8e 3d fe f6 17 3c 7e 4f 6a bd 5c 02 2e bb
       0.069370404 0.009275196 -0.057204716 -0.00265517
0000a0 e5 44 84 ba 74 e3 47 bd e1 b7 5d 3d a9 41 56 3c
       -0.0010091333 -0.0488009 0.05413044 0.013077178
0000b0 d4 bb c1 3c f9 c2 10 bd 09 29 a4 bd a2 66 bc 3d
       0.023649134 -0.03534219 -0.08015639 0.09199263
0000c0 03 7f e3 3d 88 47 23 bc ee 74 11 ba 7f 89 7a 3d
       0.1110821 -0.009965785 -0.0005548735 0.061166283
0000d0 f9 8e af bd 25 ff 4e bd 6d 2c 41 3d 50 09 78 3d
       -0.08572192 -0.050536294 0.04716151 0.060555756
0000e0 68 89 73 3d 5a b9 bb bc da f1 47 bc 55 8e 1b 3d
       0.059457213 -0.022915531 -0.012203658 0.037977535
0000f0 18 4e 49 3c ca 08 bc 3d 6e 16 b0 3d 22 df 14 3d
       0.012286685 0.09181364 0.08598028 0.03634561

network.6.weight f4 [1, 64]
000000 72 ba 0f 3f e0 15 1b be c7 5b a4 bd b1 0c dd 3d
       0.5614387 -0.15145063 -0.08025318 0.10793436
000010 d0 a6 64 3c 95 16 0d 3e 4d 87 ff bd 10 0d 46 be
       0.013955787 0.13778146 -0.124769785 -0.1934092
000020 8b fb 10 3f b2 b0 23 be 9d b6 c9 bd 5c 91 c4 3e
       0.56633824 -0.15985373 -0.09849284 0.3839215
000030 53 11 4e 3e 2c 89 b3 3e f8 8e 42 be b8 73 b2 bc
       0.20123796 0.3506559 -0.18999851 -0.021783695
000040 ff 09 18 be 1f 81 f5 bd 60 bd f9 3d 01 20 b4 3e
       -0.14847563 -0.119875185 0.121943235 0.35180667
000050 f3 91 73 bc 3b 41 04 be c2 bf fd bd a4 6f 61 3e
       -0.01486634 -0.12915508 -0.123900905 0.22015244
000060 62 8a 3d 3e 8f a2 e2 3d ec 06 0f be 7a 91 a1 3e
       0.1850982 0.11066162 -0.13967484 0.31556302
000070 c6 06 3f be f3 40 01 3f 86 d5 63 bc d1 a7 1f 3e
       -0.18654928 0.5048973 -0.013905888 0.1559136
000080 46 78 07 3f e7 18 70 be e7 d9 f4 3e fd c5 92 bd
       0.529179 -0.23447 0.47822496 -0.071666695
000090 7e 03 b3 3e 48 6e fe bd 25 e2 7a 3e d8 82 28 be
       0.34963602 -0.12423378 0.2450033 -0.16456163
0000a0 0b 45 f3 bd 04 a6 05 be 03 2a dc bd 3a 12 d5 3d
       -0.11878403 -0.13051611 -0.107502006 0.10403867
0000b0 18 d1 35 be f4 16 0b be 6e bc 04 be 65 4c 12 be
       -0.17755544 -0.13582975 -0.12962505 -0.14286955
0000c0 c8 d9 75 3e 19 fe e8 3d 13 be 71 3e ca 78 18 be
       0.24008858 0.1137659 0.23607664 -0.14889827
0000d0 1d e5 51 3c 78 a5 8c bd bb 50 cf 3e 6c 71 4b be
       0.0128109725 -0.06867498 0.4049128 -0.19867486
0000e0 58 cb 05 be 59 c9 d4 bd a4 3f 12 3f 8c 6d 11 3f
       -0.1306585 -0.103899665 0.5712836 0.5680778
0000f0 94 e7 e0 bd bc 7f 66 bd d5 53 d8 3e 09 b7 ca bd
       -0.1098167 -0.05627416 0.4225146 -0.098981924
