models/all_features_NN_lwp_k_fold_0.pth (torch, 187553 bytes, 7 tensors)

network.0.weight f4 [256, 18]
00000000: e8ff d9bd 8271 c3bd e63e 043d 45f6 4bbe
00000010: 01b4 38be 1bbc 82bc 4cf9 88bd 4381 28be
00000020: 48bf 1dbe 8c37 3a3e 5de6 c5bd 578b 6fbe
00000030: 946e 6dbe c22f 2ebc 20d8 7f3d 98b7 123e
00000040: 451e b3bc 6538 633e 6760 6c3d 063f 79be
00000050: cb62 66bd 00bd aabd 6831 babd da8d dc3d
00000060: a38f 443d 5efe 8f3d 3736 65be 9874 26bd
00000070: da8a 423d f800 87bd f070 5ebe 217e 663e
00000080: e572 fc3d 373d 05bc 5a80 20be bc84 243e
00000090: a4df 373d 2489 04be 1e6d 73be c011 e43d
000000a0: 318d 723e 9e8c 2ebe 9c4a 17be b7de f63d
000000b0: 4123 df3d f9dd 67be 9dc2 5e3e c001 0c3e
000000c0: 950b 2ebe f2c3 353e 5822 babc ef0f 683e
000000d0: 145d 1cbe a881 edbb a5d4 75be 1c24 873e
000000e0: 80dd 8e3d 35ae 27be 1b91 9fbc bd28 e0bc
000000f0: f098 1a3e 5497 d3bd 53fb 08ba 74c6 ebbd
00000100: ebb5 423e 4060 37bc aae4 13be e039 153d
00000110: 975c 0d3e 20ec a13d 1a6c 09be 1dd2 adbd
00000120: 1cac 523d eaee 583d 3f1a 3e3e 25e9 afbd
00000130: 6fc1 1b3d cb8e 863a 8dfb 2a3e 5121 68be
00000140: ab96 e43c a386 b9bd b9e4 283e feac 503e
00000150: 9ded 0cbe 0050 03be a557 1bbc 151b f7bd
00000160: 9db9 b13d c7a6 0cbe 36a7 e13d 299d 063e
00000170: 5318 69be c192 713e 830d 4abe 68df 69be
00000180: ee5f 393e fcb6 e33d f21a dc3d 06f3 bf3d
00000190: e847 57be 166a 78be a9ac 23be b91c 18bd
000001a0: 8bd4 1dbe 8472 46be 9a71 48bd 262d 0cbe
000001b0: d711 323e 42d0 21be d5ba 09be abe2 58be
000001c0: 5ed2 75be 4f80 7dbe f2f0 d4bd 2afa 0bbe
000001d0: 51bb 8ebd db9b 43be 416e 74be 7a4c 223e
000001e0: cd09 283d a0bb 1b3d 924f 27be 51e5 88bc
000001f0: 7015 373d 2906 c33d 7c6d a53d fb51 7e3d
00000200: f638 fdbd 3884 d5bb 3fe5 613e 25ff 29be
00000210: e598 46bd 9973 6bbe d264 233e d001 03be
00000220: d50f cb3d 0f37 2cbd 57b2 34bd 86e0 3bbe
00000230: 7fca 983d b444 f13d 7e76 46be e00e 6c3e
00000240: 4266 c03d 2cc7 bbbd 782d 6b3e ca35 b239
00000250: b8e9 86bc f8a2 333e afb8 6ebd d63f cdbd
00000260: c87d 44be d377 e0bd 9ac6 01be 40ca 3cbe
00000270: 52d9 8c3d 59e7 133e e629 1dbe c200 333e
00000280: aa8e 13bd aa63 cebc 1eff babd 9058 44be
00000290: 3890 c73c 3560 313e 373e e53d a52f f63d
000002a0: cdcc f6bb bf17 da3d b951 67be 52c8 1dbd
000002b0: 5a0a 3dbd d4f1 79be 2998 2bbc 975e 3fbe
000002c0: 6750 553e 718e 94bd 7bea 91bd d9a5 28be
000002d0: f44e 2c3e 385b 7c3e d781 543e 4382 8d3c
000002e0: d3db f6bb c525 f13d e524 453e 37d4 cdbd
000002f0: 6abd 5cbe 2954 73be f7b3 dcbd 0bc3 183e
00000300: 1e5e a9bd 8e07 4ebe 897d 33be 06ef 09be
00000310: 0682 a23c 94ed f5bd ac59 6fbd 39c0 7bbe
00000320: ba96 67be f1ad 8ebc c86f c03d a61c 63be
00000330: cf35 a13d e616 4b3d 37df 263d 5806 63be
00000340: e6c9 fd3d 74c0 c9bd bb0f 16be 8612 b03d
00000350: 8a78 4abe 3efd 67bb 4d2c 1c3d cf30 c0bd
00000360: cc1c fd3d fb8d 123e 44cb 473e 5e87 2d3e
00000370: b77d e23a 8053 753e 60ac 56be b714 043e
00000380: 8700 74be 66ee 0a3e a802 0c3e fc1f 2dbe
00000390: f63d 77be 903a 653e 368d 64be f793 b8bd
000003a0: 7fd0 69bd 53fc 9dbd 35a5 16be 1466 fabd
000003b0: e87a 5cbe 681e 543e 14ca 493b 13c1 4dbe
000003c0: 832c 003d 8ae7 583e cf1c db3d 94f1 8a3d
000003d0: bba9 4bbe 9cd1 9b3d 00a3 f93c 4ce0 03be
000003e0: 0e8f 2abe 0491 133c ec28 2a3e f14f 583e
000003f0: c190 0fbe a13b d13d 2a66 00be 0a01 823e
-0.10644513 -0.09543134 0.032286547 -0.19918163 -0.18037416 -0.015958836 -0.066881746 -0.1645556
-0.15405 0.18185252 -0.09663079 -0.23392998 -0.23186713 -0.010631504 0.062461972 0.14327848
-0.02186502 0.22189482 0.057709124 -0.24340448 -0.05624656 -0.0833683 -0.09091455 0.107692435
0.047988545 0.070309386 -0.22383963 -0.040638536 0.0474957 -0.06591982 -0.2172277 0.22509052
0.12326602 -0.008132271 -0.15673962 0.16066259 0.044891015 -0.1294294 -0.23772094 0.11136198
0.23686673 -0.17045829 -0.14774555 0.12054198 0.10895396 -0.2264327 0.21753927 0.13672543
-0.16996606 0.17750528 -0.022721455 0.22662328 -0.15269881 -0.0072481222 -0.24006899 0.26394737
0.069758415 -0.16375048 -0.019478371 -0.027363176 0.15097404 -0.10331598 -0.00052254385 -0.11512461
0.19014709 -0.011192381 -0.14442697 0.036432147 0.13804851 0.079063654 -0.13420144 -0.084873416
0.051433668 0.05296222 0.185647 -0.08589391 0.03802627 0.0010265944 0.16697522 -0.22668959
0.027903875 -0.09058883 0.16493501 0.20378491 -0.13762517 -0.12823486 -0.009481345 -0.12065712
0.08677981 -0.13735496 0.11018221 0.1314589 -0.22763185 0.23591138 -0.19731717 -0.22839129
0.18103 0.11118886 0.10747327 0.09372525 -0.21023524 -0.24259219 -0.15983833 -0.037136767
-0.1541311 -0.19379622 -0.048936464 -0.13689098 0.17389618 -0.158021 -0.13450177 -0.21180217
-0.2400603 -0.24755977 -0.10397519 -0.13669649 -0.069693215 -0.19102423 -0.23870184 0.15849486
0.04102497 0.03802073 -0.16338947 -0.01671091 0.04469818 0.09522659 0.08077523 0.0620899
-0.1236438 -0.006516006 0.22060107 -0.16601236 -0.048485655 -0.22993316 0.15956429 -0.1279366
0.09915129 -0.042044695 -0.04411539 -0.18347368 0.07460498 0.11780682 -0.19381139 0.2305255
0.09394504 -0.091688484 0.22966564 0.00033990882 -0.016468868 0.17542636 -0.058281597 -0.10021941
-0.19188607 -0.10960355 -0.12673417 -0.18436527 0.06877388 0.14443721 -0.15348014 0.17480758
-0.036024727 -0.025194008 -0.09130691 -0.19174409 0.024360761 0.17321856 0.11193507 0.12020806
-0.0075317384 0.106490605 -0.22589768 -0.03852112 -0.04615245 -0.24408656 -0.0104732895 -0.18688427
0.20831452 -0.07253731 -0.07124802 -0.16469516 0.16826993 0.24644172 0.20752655 0.017274028
-0.0075335293 0.11774782 0.19252355 -0.100502424 -0.2155663 -0.23762573 -0.10776513 0.14918153
-0.082699046 -0.2012007 -0.17528357 -0.13470086 0.01983739 -0.12008205 -0.058435127 -0.24585046
-0.22616091 -0.017416926 0.093963206 -0.22178897 0.07871591 0.049582385 0.040740218 -0.22170389
0.12392025 -0.09851161 -0.14654438 0.08597283 -0.19772545 -0.0035398747 0.038128186 -0.093843095
0.12359008 0.14311974 0.19511133 0.1694617 0.0017279898 0.23957634 -0.20964193 0.12898527
-0.23828326 0.13567504 0.13672888 -0.16906732 -0.2414473 0.22385621 -0.22319493 -0.09012597
-0.057083603 -0.07714143 -0.14711459 -0.12226501 -0.2153126 0.20714724 0.0030790614 -0.20093183
0.03129245 0.21182075 0.10698854 0.067843586 -0.19888966 0.07608339 0.030473232 -0.12878531
-0.16656134 0.009006742 0.16617173 0.21124245 -0.14020063 0.102164514 -0.12538972 0.25391418

network.0.bias f4 [256]
00000000: 2b7a 0dbe 14c0 f43d 911d 323d 33df 6dbd
00000010: 2685 38be 414d 723e 8f8d 97bd 58a4 15bd
00000020: 1fba ea3d dcb8 1ebe 438c 38be 7a35 14be
00000030: ef0e 543e 4a1e e3bd bcf4 83bc 8c4e d13b
00000040: c798 6c3e ecc1 46be 4da0 303e e3ad e43d
00000050: b286 393e 9cf6 d6bd 1563 3fbe 8bae 11be
00000060: 6726 e63c 9cd9 143e a320 0cbe 67e7 223b
00000070: dbf0 11be f065 eabd 754a fa3d d443 c33d
00000080: b7f9 85bd 003b 03be 8b64 c9bd 90a3 c53d
00000090: d5eb b1bb 3134 56be 20a4 8dbd 2af2 0d3e
000000a0: 430a 773e c5c4 aebd 36ab 15be b904 5fbe
000000b0: e21b febd d064 2dbe 7192 3cbe 69c8 3cbe
000000c0: 66b6 bfbd 7eb9 22be f925 ec3c 222f 40be
000000d0: 1936 593e 555a 57bc 9d9e 1bbe 974d 813e
000000e0: 4468 583d e0df febd 7efc 38be 94ab 963d
000000f0: 46da 2bbe 6918 0bbd 4301 9c3e f364 d83d
00000100: b742 b4bb 3419 623e 4d60 00be 70df 41bd
00000110: 2bc2 913d c9e0 c3bd 4c6c 6abc 8935 fcbc
00000120: 1e43 5abe fcd3 d7bd e47a cabd fd1b 23be
00000130: d3bf 783e ed4c 463e 0b97 913d 8458 2abd
00000140: 19dc f5bd 34a0 4f3d 875a 7d3d 7054 17be
00000150: 5205 edbc f75f cabd 5559 c83d 8f1d 443e
00000160: 3005 603e fa92 71bb 1e49 13be 7951 5dbe
00000170: ded2 45be 1648 24be 34f0 e83c 4f3f 493e
00000180: b1fe 4fbe f7ae 5ebd 60b7 193e 36b6 04be
00000190: 5773 483e 51dd 17be 45f8 5ebe 2fe9 053d
000001a0: c63d 29be 92b5 523e fe24 6cbd 5c7b 463e
000001b0: 29a6 2ebe 2863 3dbe b7b9 66be 4326 ea3d
000001c0: d119 1c3e 74e1 613c bad1 61bd f1ea 243e
000001d0: 0531 2f3d 65b4 473e 215e 49be 5bbf d7bc
000001e0: 69f9 91bd 7cc9 303c 5ebd 4dbe 97cc 59be
000001f0: 4934 2bbe 270f 8fbb 444a f43d 7515 52bc
00000200: 0cdc 4d3e ec34 29be a1d9 893e 660e 52bd
00000210: 64a9 123e 08e1 4cbe df18 483e 4513 283e
00000220: e6ac 97bd 79af 593e cf3c 0fbc 5c5d eb3b
00000230: a376 853b da2a 75be 16ab 19bd 5e7e d2bc
00000240: 7c29 243e 30a9 1cbe 84a8 d9bd 5a52 38be
00000250: 1701 55be 510a 853e d9fa 46be 9444 18be
00000260: 0cf9 2dbe 4836 54be 63d1 6a3e 4893 2bbe
00000270: cfbd 103c 027b 713e 7823 20bd e98a 483e
00000280: 75d1 57bd 4a08 9e3c 7294 913d 506e 7c3d
00000290: 4d40 013e 2a75 0a3b f690 b63c b054 79bd
000002a0: 00f3 a3bc ef5a 033d 4e02 213e 217d d03d
000002b0: 6f2b 0b3e 83f7 c43d 1fc6 d13d bff6 2f3e
000002c0: 80a1 05bd d7a5 4b3d 0462 2ebe cea9 783d
000002d0: c534 0abe 336f c43d 5137 5bbe 0090 723e
000002e0: 1abf 7b3d ad94 6e3c d9a3 603e 5752 36be
000002f0: 5a42 f5bd 53cd 6d3e 5af2 35bd 438a 6f3d
00000300: d59b 8e3c 4c08 bfbd 87e2 833d 33f8 1c3e
00000310: 7b2d 1d3e 41d9 6bbe 0f62 47be b5bc 4e3d
00000320: 0343 573c a560 d1bd a044 2abd c13c c73d
00000330: 9663 53bd d8a1 1f3e d83a f53d f128 0a3e
00000340: dc36 4bbd d670 343c 4aec dabc e29b 3f3e
00000350: 7038 6bbe 2061 7f3d 4720 66bd 2e71 c3bb
00000360: e907 7c3e 3df0 7d3c 5428 abbd 7ad9 0b3e
00000370: a14f 0c3d e679 12bd 600c d93d bf28 27be
00000380: e496 863e 9b13 903d 8ef2 463e 45df 6f3e
00000390: c5eb 743e a282 f53d 9943 80bd 8fc5 63bd
000003a0: 7349 0ebc c561 13be 25e5 b43c 8f06 413e
000003b0: 6d46 273e fc28 33be 5e4e 63bb 12fe 473d
000003c0: 4cfd 083e 9ad3 22bd ff68 91bd fd3f e1bc
000003d0: 8d5e 7e3d 8055 0ebe a969 c0bd 7f84 4bbd
000003e0: 4241 c43d cbed 763e 3b4c 38be 363c 563e
000003f0: 1715 2cbe d325 67bd bf37 0e3e 8b4b 0b3b
-0.13816135 0.119506985 0.043485228 -0.058074187 -0.18019542 0.23662283 -0.07400047 -0.036533684
0.11461281 -0.15500206 -0.18022256 -0.14473525 0.20708822 -0.110897616 -0.01610791 0.0063875373
0.23105155 -0.19409913 0.1724865 0.11165979 0.18117788 -0.10496256 -0.1869014 -0.14226739
0.028094484 0.14536136 -0.13684325 0.0024857165 -0.14252035 -0.11445224 0.12221233 0.095344216
-0.0654177 -0.12815475 -0.0983363 0.09650338 -0.0054297247 -0.20918347 -0.0691607 0.1386191
0.24125008 -0.085336246 -0.14616093 -0.21779145 -0.12407662 -0.16932988 -0.18415238 -0.18435825
-0.093609616 -0.15891072 0.0288267 -0.1876798 0.21212043 -0.013144095 -0.15197225 0.2525451
0.05283381 -0.124450445 -0.18065068 0.07356945 -0.16782483 -0.033958826 0.30469713 0.105661295
-0.005501117 0.22079927 -0.12536736 -0.047332227 0.07117113 -0.09564359 -0.014308047 -0.030787246
-0.21314666 -0.1053848 -0.09886721 -0.15928645 0.24291925 0.19365282 0.07108887 -0.04158832
-0.12004871 0.05068989 0.06185391 -0.14778304 -0.028933201 -0.09881585 0.09782664 0.191519
0.21876979 -0.0036861286 -0.1438336 -0.2161311 -0.1931872 -0.16043124 0.02843485 0.19653057
-0.20312001 -0.05436608 0.15011358 -0.12960133 0.19575249 -0.1483052 -0.21774395 0.032693084
-0.16527471 0.20577076 -0.057652466 0.19382995 -0.17055573 -0.18494856 -0.22531782 0.11433079
0.15244223 0.013786662 -0.05513165 0.16105248 0.042771358 0.19502409 -0.19664814 -0.026336363
-0.07127649 0.010790225 -0.20091769 -0.21269451 -0.16719164 -0.00436582 0.119282275 -0.012822499
0.20103472 -0.16524094 0.2692385 -0.051283263 0.1432243 -0.20007718 0.19540738 0.164136
-0.07406025 0.21258344 -0.008742525 0.00718276 0.0040729805 -0.23942128 -0.037516676 -0.025695022
0.1603145 -0.15298915 -0.10627845 -0.18000165 -0.20801197 0.25984433 -0.19431628 -0.1486991
-0.16989535 -0.20723832 0.22931437 -0.16755402 0.008834316 0.2358208 -0.039096326 0.1958424
-0.05268999 0.019291062 0.07108392 0.06162864 0.12622185 0.0021126964 0.02228592 -0.06087178
-0.020013332 0.032069143 0.15723535 0.101801164 0.13590787 0.096175216 0.10242867 0.1718397
-0.03262472 0.049718704 -0.17029577 0.060708813 -0.13496692 0.09591522 -0.2140782 0.23687744
0.061461546 0.014561814 0.21937503 -0.17804848 -0.11975546 0.23222856 -0.044420578 0.058481466
0.01740829 -0.093277544 0.06439691 0.15329055 0.1534938 -0.23032095 -0.19471 0.050472934
0.013138535 -0.102235116 -0.041569352 0.09728385 -0.051608644 0.15589082 0.11974114 0.1349218
-0.049612865 0.01101323 -0.026724 0.18711808 -0.22970748 0.062348485 -0.056183126 -0.00596442
0.24612392 0.015499172 -0.08357301 0.1365718 0.034255628 -0.035760783 0.105980635 -0.16324137
0.26286995 0.070349894 0.19428465 0.23425014 0.23918064 0.11987807 -0.06262893 -0.05560833
-0.008684504 -0.14392765 0.02208192 0.18850158 0.16335459 -0.17496103 -0.0034684162 0.048826285
0.13377875 -0.03975258 -0.071001045 -0.027496332 0.06210189 -0.13899803 -0.09395153 -0.049686905
0.095827594 0.24114148 -0.1799783 0.20921406 -0.1680492 -0.056432556 0.13888453 0.0021254744

network.2.weight f4 [128, 256]
00000000: 9ec1 56bb cf22 f73c 0bb3 27bd e659 c93d
00000010: 8648 7bbc 8763 023d df51 7d3c 7b33 44bd
00000020: eba1 a2bc 6fe9 123d 3b5c 34bc 05d7 463d
00000030: 83cc 0dbd 2f3c b23d 0947 4d3d 0cc1 203d
00000040: c4b9 533c 33e4 9c3d 70ba 8dbc 5157 1bbd
00000050: 6c03 a93d 3671 313d 75a3 57bd 5f72 263d
00000060: 049e 44bd 3ebd 28bd 2607 b6bc 1b91 1bbd
00000070: 2905 9abd 3b31 48bc c478 63bd 583f ccbb
00000080: 7c88 1a3d c01d 8d3c 8f81 333d f422 b1bc
00000090: 493c 28bc e4fb e23a 2b12 09bd dd55 8d3d
000000a0: 2f71 48bd 80ec 77bc a3c6 87bd 9dbc 58bc
000000b0: a280 77bd 4294 6b3d 92a9 0cbd a00c 3cbc
000000c0: 228d 3b3d 0b60 1bb9 5ec4 58bb 2287 70bc
000000d0: a1d6 193d 8cef b2bc baae 8abd 0687 10bd
000000e0: 7354 b7bc bffa 51bd 2f27 af39 07f1 163d
000000f0: 06da b0bc 1843 8bbd 01f2 c0bc 6239 7abb
00000100: e1c2 0a3d de84 c5bc a6da 563d 27ff 66bd
00000110: 4be7 5cbd 3380 79bd 43d2 573d 3a82 c8bc
00000120: fbfa 133d d67e c8bd 784a 353c 7784 a5bd
00000130: 4400 0d3c 1ec9 4dbd d0af 02bd bec9 1ebd
00000140: ca48 523d a9dc d33c 790a c9bc 4282 01bd
00000150: f7ce b73c 6760 4c3d 0c0d 6d3c d6c1 063d
00000160: d2ad 613d 3d0e ea3c 5fb1 35bb 556d 5cbd
00000170: ac0f 283d 8fd5 503d 153b 6a3d befa d63c
00000180: 72eb 3dbd b174 343d 9c87 d2bc cbac 75bd
00000190: 55a9 24bd f5d3 44ba 5235 6fbd 1755 fc3c
000001a0: 7f18 0cbc 2038 ef3c 3084 fbbc 58ef 7e3c
000001b0: 1a52 19bc 2260 cebc 761a d83c 7552 373d
000001c0: ff3b cdbb 2e5e 98bc 2d16 4e3d 4f8b d93d
000001d0: 0903 b93b 5efc 113d aff5 e03c 813a a5bc
000001e0: 7d46 ef3c 7a72 18bd ee54 963c 2635 fbbc
000001f0: e843 74bd e692 db3c 137b eaba 575e e33c
00000200: 7545 fabc 4c6d 733d 3df4 433d b0f9 47bd
00000210: 01d6 5a3d 8664 88bd b04c 52bd 5c46 b93c
00000220: 0c02 0d3c a8aa 463c 7f96 283d fb4e 873c
00000230: 785d 1d3d a33b b53c 9a7f 0dbd 74ea 233d
00000240: 2ae6 053d e8b2 2d3d c8ec 01bd 7c31 943b
00000250: 05bb 99bc b46c 843d af21 0d3d 6edc bb3c
00000260: 89e1 d13b 743e efbb 0027 c13c 0c61 a93b
00000270: 9c1a 9f3a 0b6d 823c d812 7d3d ef3e 6f3d
00000280: 6f52 5cbc 4c9d 1fbd 3626 1cbd b384 42bb
00000290: fc92 ec3c 6a4e 493d 07de 263c dcc2 13bd
000002a0: 286f dfbb 2b12 263d b271 72bd f038 83bd
000002b0: 3878 4f3d c403 62bd 61b5 ecbb f5ed 82bd
000002c0: 7d91 9cbc 9034 ab3c 6a64 c63b 302b 733d
000002d0: cb25 c6bd b238 c63c 0c0f 593d 729d 983d
000002e0: 865a 61bd 36df 473d 364d 043d 5b6d 3dbd
000002f0: 5f85 4cbd c034 bd3c 7bfa c83c 748f 503d
00000300: 940c 2b3d d813 933d 0800 a33b 0d57 8d3c
00000310: 6a68 1c3d ef23 0cbd e0c4 c13c 43c8 173d
00000320: c115 453d 2749 c33c 6d9e 54bd c5ec 383d
00000330: 97d7 c0bb 8bc1 d1bc 2ba7 d23d 84e5 1e3d
00000340: 047a 9dbc 1d6c 353d 3ae2 2fbb fff7 f5bc
00000350: 5d11 493d 7b7a 94bc bd38 4d3d 4ae4 db3c
00000360: 09ca 1fbd 4771 963d cd45 1abb 8e07 923d
00000370: 7898 8a3b 0520 a9bd 77c3 cc3b 8950 39bd
00000380: 7acf b13c 87cc 14bd 9e83 8dbd 4cdb e43c
00000390: f8c6 963c a4a4 283d 3956 043d 81b8 7bbc
000003a0: 18e6 1c3c 639c 1c3d 597f 803c 2350 ebbb
000003b0: 065f 313d 6f9f ffba 5a4a 9eba 70ee 9f3c
000003c0: 2641 9e3c b0b6 2cbc 32a8 3f3d 9a1a ad3b
000003d0: 28e0 c2bc 9db0 883b 014d eb3c 943e 8abd
000003e0: 3f40 0a3d 78b4 21bd 91b9 afbc ab7c 983d
000003f0: 9425 613d 815c 033c 8872 413c 9bb7 1f3c
-0.0032769213 0.030167965 -0.040942233 0.098316 -0.015337115 0.031833198 0.015461414 -0.047900658
-0.0198526 0.03586715 -0.011008318 0.048544902 -0.034618866 0.08702885 0.050116573 0.039246604
0.012922708 0.07660713 -0.017300814 -0.03792507 0.08252606 0.043320857 -0.05264612 0.040636417
-0.048002258 -0.0411961 -0.022220206 -0.03798018 -0.075205155 -0.012218769 -0.055535093 -0.006233137
0.037727818 0.0172261 0.04382473 -0.021623112 -0.010268279 0.0017317501 -0.033464592 0.06901143
-0.048936065 -0.01513207 -0.06629684 -0.013228563 -0.06042541 0.057514437 -0.034341402 -0.011477619
0.04578889 -0.0001481773 -0.0033076028 -0.014680656 0.0375582 -0.02184274 -0.06771608 -0.03528502
-0.022379136 -0.05126452 0.00033407795 0.036850955 -0.021588337 -0.067999065 -0.023552896 -0.0038181175
0.033877257 -0.024111208 0.052454613 -0.056395676 -0.053931516 -0.060913276 0.052690756 -0.02447616
0.036128026 -0.09789817 0.011065118 -0.08081906 0.00860602 -0.05024063 -0.03190595 -0.038766615
0.05133895 0.025862055 -0.024541127 -0.031618364 0.022437556 0.049896624 0.014468443 0.0328997
0.05509741 0.028571242 -0.002772413 -0.053815205 0.04103057 0.050984915 0.05718525 0.02624261
-0.046367116 0.044056598 -0.02569943 -0.05997924 -0.04020055 -0.00075083907 -0.05840046 0.030802293
-0.008550762 0.029201567 -0.03070268 0.015559994 -0.009357953 -0.025192324 0.026379805 0.04475637
-0.0062632556 -0.018599596 0.050314117 0.10622274 0.005646114 0.035641067 0.027460901 -0.020169498
0.029208416 -0.03721855 0.018351045 -0.030664992 -0.059635073 0.026803445 -0.0017889462 0.027754946
-0.030550698 0.059430405 0.047840346 -0.048822105 0.053426746 -0.06659798 -0.051342666 0.022616558
0.008606445 0.012125649 0.04115915 0.016517153 0.038419217 0.022123164 -0.03454552 0.040018514
0.032690205 0.042406946 -0.031719953 0.0045225006 -0.018765936 0.06466046 0.03445595 0.022932258
0.0064050597 -0.007301146 0.023578167 0.0051690396 0.0012138668 0.015921136 0.06178555 0.058409628
-0.013447388 -0.03896837 -0.03812238 -0.0029681146 0.028878681 0.049147047 0.010184771 -0.036074504
-0.006818671 0.04054467 -0.05919046 -0.06407344 0.05065176 -0.055179372 -0.0072237705 -0.06393043
-0.019112343 0.020899087 0.0060544508 0.05936736 -0.09675177 0.024196956 0.052992865 0.07451905
-0.05501797 0.048796855 0.032300197 -0.046246868 -0.04993188 0.023096442 0.0245335 0.050918058
0.041760042 0.07181519 0.004974369 0.017253423 0.038185515 -0.034213956 0.023653448 0.03705622
0.04811645 0.023838593 -0.0519089 0.045147676 -0.0058850753 -0.025604984 0.10285791 0.038793102
-0.01922322 0.044292558 -0.0026837722 -0.03002548 0.049088825 -0.01812481 0.050102938 0.026842255
-0.039011035 0.07345825 -0.002354014 0.07130347 0.0042296015 -0.0825806 0.006248887 -0.04524282
0.021705378 -0.036327865 -0.069098696 0.0279366 0.018405423 0.04117264 0.03230879 -0.015363813
0.009576343 0.03823508 0.015685724 -0.007181184 0.043303512 -0.0019502471 -0.0012076602 0.019522876
0.019318175 -0.010541603 0.046791263 0.005282712 -0.023788527 0.0041714446 0.028723242 -0.06750217
0.033752676 -0.03947875 -0.02145079 0.074456535 0.054967478 0.00801766 0.0118070915 0.009748365

network.2.bias f4 [128]
00000000: 9820 93bb 2f43 16bd 8e3b 263c 24f2 dcbc
00000010: 6bd7 343d fbeb a93d cc06 a13c e701 6cbd
00000020: 8f6f 41bd abe6 b6bc 0c9d 4e3d bcd9 aa3b
00000030: 5910 7fbd 397b 82bd 6ef1 883d a837 933d
00000040: 6660 1fbc cc7e 6a3b 1278 373d 1ad9 9c3c
00000050: 732f 3c39 aa66 30bd 47a1 d73c 2cd5 93bc
00000060: 73e4 1d3c dccd d8bc 73aa 23bc c10b f93c
00000070: 21e6 73bd d81d 9d3d 931f 48bc 8e9b 60bd
00000080: 7549 54bc baa5 6a3d c027 53bb f522 7c3d
00000090: 0795 5dbd 1bfd debc 3cc2 953c 5d35 9b3d
000000a0: 85c0 5ebd a410 bcbc 47b5 273d b4c7 e1bb
000000b0: f5ff 3bbd a75b b73b c78c 233d 36ed c33c
000000c0: dcce 103d 6356 a3bc 1103 873d 4027 5c3d
000000d0: 4f2f 8a3d f10b 6e3d a41d 153d 8e0b 2dbd
000000e0: dc42 ef3b 33de bd3b 54ff 8bbd a892 923d
000000f0: 4f54 f2bc 259f 1d3d 166d 5b3d 5dd0 9fbb
00000100: e224 8f3b 2786 d93b 3dc3 83bc d423 4d3d
00000110: 4bff 463c c2b6 893d 6f21 083d 1ed1 39bd
00000120: d9ad 033d 6db2 713d fbc8 34bb f251 263c
00000130: 8d20 423c b7b7 ddba a3da 38bd 817b 833d
00000140: 7bd8 ccbc 6cc6 41bc c79a 413d 4a71 e13b
00000150: 4145 51bd 518c 413d 0c07 a13d dea3 043a
00000160: 032b 41bd 0d6e 3c3d 9ec1 953d 4e1a 1abd
00000170: 2880 53bd 91e1 1dbd 6854 b5bd 4001 a6bc
00000180: a464 923d 8398 5e3d fe3b 123d 0ac3 a53c
00000190: 72e2 033b 3066 9f3c 0516 23bd 17ab 20bd
000001a0: 97cd 28bd 36c6 223d 7bb5 10bd a0a7 37bd
000001b0: aade 65bb d68b 593c c8b0 37bd fd41 f33b
000001c0: eeb8 5a3d 689d 09bd 002d 44bb 56a8 823c
000001d0: 18b1 2ebd c7a3 253d f312 b7bc d37d acbc
000001e0: 3bc2 333d 3abe cd3c 20c5 d2bc 5c15 02bd
000001f0: bfd3 0d3c c2aa 6c3c 52b3 0fbd 3dc1 cb3c
-0.0044899695 -0.036685165 0.010146035 -0.02697093 0.04415075 0.08296963 0.019656561 -0.057619
-0.04722553 -0.022326788 0.05044274 0.0052139442 -0.06227145 -0.06371159 0.06686674 0.0718835
-0.009727573 0.0035781143 0.044792242 0.01914649 0.00017946753 -0.043066658 0.02632202 -0.018045984
0.009636986 -0.026465349 -0.009989369 0.030401113 -0.05954564 0.07671708 -0.012214559 -0.05483585
-0.012956967 0.057286955 -0.0032219738 0.061556775 -0.0540972 -0.0272203 0.018281095 0.075785376
-0.05438282 -0.022957154 0.040944364 -0.0068902615 -0.045898397 0.0055956426 0.039929178 0.023916822
0.035353526 -0.019938653 0.06592382 0.05374837 0.06747305 0.058116857 0.03640522 -0.042247348
0.0073016714 0.0057943105 -0.06835809 0.07156879 -0.029581217 0.03848185 0.05357083 -0.0048771338
0.0043684104 0.0066383067 -0.016084308 0.050082996 0.0121458275 0.067243114 0.03323501 -0.045365445
0.032148216 0.05900805 -0.0027585614 0.010151373 0.011848581 -0.0016915713 -0.045130383 0.06420041
-0.02500557 -0.011827093 0.047266748 0.00687996 -0.051091436 0.047252957 0.07862672 0.00050598185
-0.04716016 0.04600339 0.0731232 -0.037622742 -0.05163589 -0.038545195 -0.0885399 -0.020264268
0.07148102 0.054344665 0.035701744 0.020234603 0.0020123986 0.019457906 -0.03981592 -0.039225664
-0.04121169 0.03973981 -0.035329323 -0.044837594 -0.0035075345 0.013277968 -0.044846326 0.007423638
0.05339902 -0.03359738 -0.0029934049 0.01594941 -0.04264936 0.040439393 -0.022347903 -0.021056091
0.043886404 0.025115121 -0.025728762 -0.03175865 0.008656441 0.014445009 -0.035083123 0.024872417

network.4.weight f4 [64, 128]
00000000: 7da2 5c3d 4d1c ca3c 06b9 923d c3b0 9f3d
00000010: 9d94 5d3d 6be3 873b 2c3c 8b3d bc72 bb3c
00000020: 8c61 9e3d 30dd 843c 74f7 e13b 13c9 903d
00000030: 1d3f d93c efe4 6f3d 67a7 4ebd 17aa da3c
00000040: 0dd3 91bd 67a9 ca3d 8461 003d e6d1 0d3d
00000050: e08b 01bc 5ade 953c 3a8b db3d d1b6 033b
00000060: be9b c93d 7a45 093d 087c 1a3d f616 1bbd
00000070: 4f7c 20bd f919 28bc 6e91 a7bb 9aaa 9bbc
00000080: 99e5 9bbd 5e6d 0cbd 5268 6e3c a203 fc3d
00000090: 8c7d d33d 4363 b63b b66b bdbd 3f5a 03be
000000a0: 8653 9b3d 235a 603c 2788 653d 4b38 313d
000000b0: 6309 2b3c 5fdd 913d 5f0f 173c 188b 1dbd
000000c0: 13f7 1fbd 409b 97bc d072 993c 3f08 883c
000000d0: 683b a73c 022e 3abd 5ca1 a0bc 9cd5 e9bc
000000e0: 1d81 9ebd 34a3 a2bc b533 d4bc 675e a13d
000000f0: e480 b7bd de9a 28bd c1a7 923c c135 dcbc
00000100: b29b 013e ea72 15bc 7650 be3c d375 cbbc
00000110: f411 773d 8579 e23d 0ae0 afbd 0f96 6d3c
00000120: b20d 0cbb 87e5 d43c 9c2d 92bd c1ba d43b
00000130: 0cd9 b53d 5ee6 53bd 640b 28bd c3e6 93bd
00000140: 4676 0cbd 4620 8ebc e550 553d 96a7 f03d
00000150: d378 fabc 37d2 d23d 67eb 793d 55a7 43bd
00000160: 8b48 0f3d 3fbe bf3d 5598 1abd 3953 c53c
00000170: 3dc8 2bbd e410 0cbd 7fb5 68bd 85b1 fc3d
00000180: db52 5c3d 6bde a43d 2099 6dbd f194 6a3d
00000190: ae2e 73bb d41e f2bd 0e79 333c bffd aebd
000001a0: 2990 7bbd ab9f d73c 8845 6e3b 2a4e 39bd
000001b0: 469c 6b3c 0821 b1bd d936 aabd 75ed 48bd
000001c0: 0c7a 9ebd 1985 883d 72e5 7dbd 1472 d6bc
000001d0: 7916 8c3d 03cc 0d3d 4d03 cfbc fba7 7abd
000001e0: 2c4d 323d 9443 81bc 50ac e8bc 46fb 92bd
000001f0: c85d 01bd 39cf 663d 9e4d 48bd 53de 8a3c
00000200: 27a4 903d b40f f7bd 03aa c83d 7447 1cbc
00000210: 9119 d1bd f594 fabd 9835 e63d 0b1f 52ba
00000220: 476a 7cbd aed2 c93d be09 bc3b c72f 113d
00000230: 629d 3bbd 9885 f63d 80c5 853c 892a a53d
00000240: 463d 183c 3db8 2e3d 4608 be3d 182f fa3d
00000250: 640d 4cbe c60b bf3a 4169 32bd 0f8d 9cbd
00000260: 3f6e 05bc e5b5 8c3d 72d3 283d 9cbb 69bd
00000270: b48f 88bd d86a 8e3d 74e3 a13d cdf7 a13c
00000280: 6022 a1bc 9313 ebbb 4adc abbd 4b94 85bd
00000290: 2a81 abbc 63e9 9f3c 2075 aebd 318f 5ebd
000002a0: 2cc9 623d 5f23 b03d d6d2 303d b9b9 173d
000002b0: 848b 15bd 8c84 d2bc e048 40bd c19a 323d
000002c0: b9d6 aebd 68bb 42bc d6ba e2bc 4c14 983d
000002d0: 17ee a33b 2895 d53d 5ade f73b b333 bc3d
000002e0: 2c56 5cbd 7808 293c 0665 65bd c131 b53d
000002f0: 8afd 4dbd a3f6 243d e186 ba3d 34d8 b53d
00000300: b0b3 a93b 0600 3e3d bb9a 8d3d 22f6 77bd
00000310: 7613 95bd 8412 aa3d 361c 033b 710a acbd
00000320: 76e0 063d 07f6 67bd 583b b23c 4228 2e3d
00000330: 6052 d1bc 7edb 3cbe f830 13be afb6 c83d
00000340: 2b4b 6c3c 3977 3abe b965 aa3d f7f8 c2bd
00000350: a10f f9bc 7e45 833d 4bf6 1e3b 07dd 81bd
00000360: ffac 8abd 0179 a03a f814 a73c 0181 a03b
00000370: aecb a5bd a1aa 94bd 675f 14be 5a64 be3d
00000380: 06ba 8e3d 4767 203c 9d0c 603d 2f99 8cbc
00000390: 43ac a9bd d62c 13bd 6477 683d 4e1e 13bd
000003a0: 3f47 9d3b c162 543d c39d 0f3d 0671 eebd
000003b0: 981d e03d 2952 7b3d 1717 66bd e16b aebb
000003c0: ca5e b3bc 7a47 ae3b 240b d0bc 9ccf 823d
000003d0: 37a8 6f3d ab5c 973d 2c2c 35bd 7c28 84bd
000003e0: 41b3 ccba 2005 3a3c 39d5 9abd 41d6 cebc
000003f0: 08a7 b8bd 7671 c23d f79b 4f3c d106 b93d
0.0538659 0.024671698 0.07164197 0.077973865 0.054096807 0.0041469834 0.06798586 0.022881858
0.07733449 0.016218752 0.006895954 0.07069602 0.026519353 0.058567937 -0.050452616 0.026692433
-0.07120333 0.09895592 0.031343 0.034624003 -0.007906884 0.018294502 0.10719915 0.002009798
0.098441586 0.033513524 0.03771594 -0.037863694 -0.03918105 -0.010260099 -0.005113772 -0.019002248
-0.07612152 -0.03428399 0.014551239 0.123053804 0.103266805 0.005566032 -0.0924906 -0.12827395
0.0758429 0.013693365 0.056038048 0.043266576 0.01043925 0.07122301 0.009219973 -0.03846273
-0.039053988 -0.018506646 0.018731505 0.016605495 0.02041407 -0.045454033 -0.019608192 -0.02854424
-0.0773947 -0.019853212 -0.025903562 0.07879334 -0.08960131 -0.041163318 0.017902257 -0.0268811
0.1265705 -0.009121636 0.023231726 -0.024836456 0.060319856 0.11058334 -0.08587654 0.014501109
-0.0021370468 0.025988353 -0.071376055 0.0064919894 0.08879289 -0.051733367 -0.041026488 -0.07221749
-0.03429248 -0.017349374 0.0520791 0.117507145 -0.030575192 0.102940015 0.061015513 -0.047767002
0.03498129 0.093624584 -0.03774293 0.024087535 -0.04193901 -0.034195796 -0.056813713 0.12338547
0.053789955 0.08050235 -0.05800736 0.057270948 -0.003710668 -0.11822286 0.010954155 -0.08544492
-0.06141678 0.026321253 0.0036357362 -0.04524056 0.01438052 -0.08648878 -0.083112426 -0.04905458
-0.07738122 0.06666011 -0.061986394 -0.026177444 0.06840224 0.03461839 -0.025270129 -0.061195355
0.043530628 -0.015779294 -0.028402478 -0.07176833 -0.031583577 0.056349967 -0.048902147 0.016951716
0.070625596 -0.12063542 0.09798052 -0.00953852 -0.102099545 -0.122354425 0.11240691 -0.000801549
-0.06162479 0.09854637 0.005738466 0.035445955 -0.04580439 0.120372 0.016329527 0.080647536
0.0092919525 0.042656172 0.09278922 0.12216014 -0.19926983 0.0014575652 -0.04355741 -0.07644092
-0.0081439605 0.06870631 0.041217275 -0.057063684 -0.06668034 0.069539726 0.07904711 0.019771481
-0.019669712 -0.0071739643 -0.08391626 -0.06522425 -0.020935614 0.019520467 -0.085184336 -0.054335777
0.055367634 0.086004965 0.04316982 0.037042353 -0.036510006 -0.025697969 -0.0469445 0.043604616
-0.08537049 -0.011885501 -0.027676981 0.07425746 0.0050027478 0.1042884 0.007564348 0.09189548
-0.053793117 0.0103169605 -0.056004547 0.088473804 -0.05029062 0.040274274 0.09107757 0.08879128
0.005178891 0.04638674 0.06914278 -0.060537465 -0.072791025 0.08304313 0.0020005829 -0.08400429
0.032928906 -0.056631114 0.021756813 0.04251886 -0.025551975 -0.18443105 -0.14374149 0.09800469
0.014422218 -0.18209542 0.08320183 -0.095201425 -0.03040296 0.06409739 0.0024255689 -0.06340986
-0.06771278 0.0012243093 0.02039574 0.004898191 -0.080954894 -0.072591074 -0.14489518 0.09296484
0.06969075 0.009790248 0.05469953 -0.017162887 -0.082848094 -0.03593143 0.056754485 -0.035917573
0.004799753 0.05185199 0.035062563 -0.11642651 0.109431446 0.06135765 -0.056174364 -0.0053229188
-0.021895785 0.0053185793 -0.025395937 0.063872546 0.05851003 0.07390722 -0.04423158 -0.06453034
-0.0015617387 0.011353761 -0.075602 -0.025248649 -0.09016234 0.09494297 0.012671462 0.09034503

network.4.bias f4 [64]
00000000: 7ddc 873c afe4 473d b9cd b13b 8270 ac3d
00000010: 8e7c 7bbd c9d8 d5bc 0a27 88bc 27b7 fb3c
00000020: 3487 963d a2f5 733d bb02 ac3d 30cf aabc
00000030: 9d00 28bd 0330 bf3b d8ff b33c 09d0 d83c
00000040: aa68 34bc 10c4 a83d d48c 4c3c e901 9a3c
00000050: 7324 fe3c da76 8d3d 16a0 223d c00a 7b3d
00000060: c66f e0bd ece1 f5bb e072 a43c 99c6 aa3b
00000070: 4f60 8d3c 91c7 153d 75eb 853c 15d6 a43d
00000080: a441 dcbc ba5d 57bd ad97 b63d 05e3 473d
00000090: 184c 9f3d 418d b9bc 97df d43c e5de 823d
000000a0: e1cf 613b 7b53 913c 03c2 723c db07 313d
000000b0: 93be b23d 7f85 c3bd b010 693d 1683 9f3d
000000c0: 3a2c 84bd 8c93 8d3d ecb0 87bd 7ba1 9b3d
000000d0: 2950 243d f67f bf3d 1647 febc 916b ea3c
000000e0: 130f 923b 4ebd b53c b830 633d d75b a63c
000000f0: 4b6f e03c 656c cd3d 8eb5 433d b962 983d
0.01658463 0.048802074 0.0054261354 0.08419897 -0.06139808 -0.026104348 -0.016620178 0.030726982
0.07350007 0.059560426 0.08398958 -0.020850748 -0.04101621 0.005834581 0.021972582 0.026466386
-0.011011282 0.08240521 0.012484748 0.018799739 0.03102324 0.06907435 0.03970345 0.06128955
-0.10958819 -0.0075037386 0.020074308 0.005211663 0.017257838 0.036567274 0.016347626 0.080486454
-0.026886769 -0.05257962 0.089156486 0.048800487 0.077781856 -0.022650363 0.025985522 0.0639017
0.003445618 0.017740002 0.014816764 0.043220382 0.087277554 -0.09546947 0.05690068 0.077886745
-0.06453748 0.06912908 -0.06625542 0.07599159 0.04011551 0.093505785 -0.031039756 0.028615745
0.0044573634 0.022184994 0.055466384 0.020307465 0.027396819 0.1003044 0.047780566 0.07440705

network.6.weight f4 [1, 64]
00000000: 09a2 683e 1470 f9bd 7389 cabd 3127 b2bd
00000010: 44ac 4fbe 20ff db3d 7b9f 0a3e 3bdc 12be
00000020: cf21 f43d 07e5 1f3e c717 20be 22d6 08be
00000030: c0b9 67bc 879b 2e3e 75b0 243e ae1e 4f3e
00000040: 0214 7a3e ca9b 1ebe 260c d8bd dcda ebbd
00000050: f951 e03d e72e d03d 8f86 1ebe bcc4 093e
00000060: 6e2d 5b3e d331 6a3e 8e66 313e 606f cabd
00000070: 9e4e 0bbe d344 253e 6ff8 eabd e5dc 23bd
00000080: e29a 3f3e 089b 993d 3f16 133e 3c2e 843e
00000090: dd12 71bd f033 acbd 9acb 0fbe d73c 1fbe
000000a0: 339b 123e 7bc8 bd3d 2368 103e 87ba 9bbd
000000b0: b74d a33d cc4d 1d3e 0870 f53d 91e5 fdbc
000000c0: d173 1cbe c378 023e d6ca 6abd 9309 623e
000000d0: 868e 00be e71c ccbd 8406 debd e4ab 0abe
000000e0: 0928 2fbd 9548 25be 4bea 70bd 6514 08be
000000f0: 644b 7b3c bfa7 4cbd 359e 763d c37f 0ebe
0.22718062 -0.1217958 -0.098894976 -0.086988814 -0.20280558 0.107420206 0.135374 -0.14341824
0.11920511 0.15614711 -0.1563407 -0.13362935 -0.014143407 0.17051516 0.16082938 0.20226547
0.24421695 -0.15489116 -0.10549192 -0.115163535 0.10953135 0.10165196 -0.15481018 0.13453954
0.21404049 0.22870569 0.17324278 -0.09884524 -0.13604209 0.16139536 -0.11473166 -0.040005583
0.18711427 0.07500273 0.14363955 0.25816524 -0.05885588 -0.08408344 -0.14042512 -0.15550552
0.14317016 0.09266754 0.14102225 -0.07603937 0.07973807 0.15361708 0.11984259 -0.030993255
-0.15278555 0.1274138 -0.057322346 0.22073965 -0.12554368 -0.0996645 -0.108410865 -0.13542134
-0.04276279 -0.16140969 -0.05881719 -0.1328903 0.015337799 -0.049964663 0.06020947 -0.13915925
