models/all_features_NN_Nd_max_k_fold_0.pth (torch, 187583 bytes, 7 tensors)

network.0.weight f4 [256, 18]
-0.060530826 0.13752674 -0.16958001 0.09533349 0.15177836 -0.021090468 -0.06995281 0.07400743
-0.03090155 0.14468801 -0.11778518 -0.06507217 0.15231244 -0.049110685 -0.20277222 0.19698726
-0.036224816 -0.15655679 -0.19625172 -0.020187357 0.071132325 -0.10286967 0.14512664 0.06098034
-0.28386432 0.03192244 -0.13636062 -0.17870075 -0.08547242 0.05031245 0.043473788 0.026038826
0.0074332883 -0.13586344 -0.14742178 -0.2602424 -0.27008215 -0.19249171 -0.11049791 0.12769
-0.16168608 -0.14611654 0.11821124 0.08560747 0.12674412 -0.04436848 0.23312779 -0.0625291
0.21497042 -0.20827064 -0.20155835 0.0788119 -0.16593045 0.23851405 -0.05804639 0.09794072
0.015221628 0.09050243 0.2021699 -0.20995216 -0.18307754 -0.081829675 0.14506452 -0.12297711
0.1878438 -0.017840471 -0.049789097 0.2244009 0.0025955425 0.23917776 0.05311757 -0.010944458
-0.24223323 0.029120777 -0.053373124 -0.1984897 -0.16714479 0.018506076 -0.14881814 -0.16436474
-0.026566446 0.18827204 0.13124654 -0.24655119 -0.11848769 0.13725889 0.2029472 -0.084266014
0.15010424 -0.10113156 -0.25801972 -0.09134462 -0.090403184 -0.21823668 0.08858073 0.24076135
0.10381473 0.022526724 -0.19909507 0.04816008 0.19194119 -0.16525346 0.032769702 0.009557286
-0.046075735 -0.09115905 0.05007077 -0.19586046 -0.1340498 -0.0036279878 -0.03460054 0.15198465
-0.17677954 -0.036002003 0.20824924 -0.017447695 -0.102968946 -0.08062731 0.055732995 0.16091692
-0.042076357 -0.08934867 0.13498853 -0.075730294 0.19019803 0.08975752 -0.088236 0.002963438
-0.1422225 -0.018271353 -0.08747761 0.10950276 0.14384636 -0.14971034 0.068802975 0.16084164
0.25040784 -0.19656107 -0.19804731 -0.07040259 0.08156643 -0.1646033 0.16272753 -0.192277
0.17312738 -0.28088441 -0.08887669 -0.2162604 -0.15382265 -0.2244361 -0.11087863 0.19895788
0.10313487 0.20997041 0.004921667 -0.13252668 0.20268139 -0.018489633 0.1716247 -0.023169212
-0.08041692 -0.18642764 -0.0042274343 -0.17924747 -0.19415422 -0.0016256076 -0.0601245 0.015074194
-0.031445846 -0.064439036 0.17866744 -0.093698114 -0.18898304 0.16835143 0.037876606 -0.03942726
-0.0731286 0.19901907 -0.1859637 -0.040319096 -0.0969375 -0.10619984 -0.04181649 0.022275886
0.15701944 0.001509961 -0.11003105 0.23302485 -0.042628303 -0.1081667 -0.18354867 0.1322386
-0.11270694 0.22834611 0.2539575 0.09723882 0.06366817 -0.075354524 -0.058733523 -0.1051025
-0.22470297 -0.2946426 -0.14982212 -0.1232573 0.11321629 -0.06564461 0.19977318 0.10632374
0.168445 0.055749346 0.17634234 0.0904784 -0.28092998 0.01969988 -0.22930641 -0.008156278
0.19475237 0.1967698 -0.18429936 -0.08114441 0.020048337 -0.10188326 0.14462772 0.09564557
0.17561282 0.13034137 0.087997735 -0.05673541 0.1495855 0.22476763 0.03723743 -0.15104705
-0.108185165 -0.24778642 -0.07140201 0.018934222 -0.16113602 -0.07466936 -0.04212275 0.04831587
-0.16474886 -0.011056586 -0.05970465 -0.085136786 0.24839339 -0.15074164 0.15511435 0.14098778
-0.040315915 0.11574693 -0.11245832 0.029030694 0.17985702 -0.05425801 -0.115855746 0.07238764
00000000: 2cef 77bd cfd3 0c3e 62a6 2dbe 343e c33d
00000010: c96b 1b3e ebc5 acbc 6b43 8fbd 3591 973d
00000020: 3f25 fdbc 1829 143e 5b39 f1bd 8f44 85bd
00000030: cbf7 1b3e 4928 49bd 85a3 4fbe 07b7 493e
00000040: 7960 14bd 6c50 20be 36f6 48be f55f a5bc
00000050: d3ad 913d 55ad d2bd 149c 143e 85c6 793d
00000060: aa56 91be 1bc1 023d 1ea2 0bbe 54fd 36be
00000070: 2a0c afbd 6d14 4e3d 9211 323d 604f d53c
00000080: f192 f33b c91f 0bbe bcf5 16be 7e3e 85be
00000090: 3548 8abe 8c1c 45be ba4c e2bd 2bc1 023e
000000a0: 0991 25be 939f 15be bc18 f23d f852 af3d
000000b0: 36c9 013e b9bb 35bd 0db9 6e3e 420f 80bd
000000c0: 3521 5c3e e644 55be 5065 4ebe 2268 a13d
000000d0: ace9 29be 073d 743e 0dc2 6dbd 2595 c83d
000000e0: 2364 793c 5759 b93d a005 4f3e b3fd 56be
000000f0: ae78 3bbe 5196 a7bd cb8b 143e 6cdb fbbd
00000100: 205a 403e 2e26 92bc a7ef 4bbd 59c9 653e
00000110: fa19 2a3b 04eb 743e cf91 593d 6250 33bc
00000120: fd0b 78be b28e ee3c c79d 5abd e240 4bbe
00000130: 0128 2bbe 0e9a 973c c863 18be 3b4f 28be
00000140: e0a1 d9bc 63ca 403e 7e65 063e ea77 7cbe
00000150: ada9 f2bd 988d 0c3e 64d1 4f3e a993 acbd
00000160: edb4 193e 101e cfbd 291b 84be e312 bbbd
00000170: 4e25 b9bd 7079 5fbe d069 b53d 258a 763e
00000180: d19c d43d f789 b83c 94df 4bbe 8143 453d
00000190: 3b8c 443e 3438 29be 8639 063d 2a96 1c3c
000001a0: e9b9 3cbd 99b1 babd 0217 4d3d a58f 48be
000001b0: 5a44 09be 89c3 6dbb 4cb9 0dbd dda1 1b3e
000001c0: b205 35be d676 13bd 4a3f 553e 78ee 8ebc
000001d0: 62e1 d2bd ee1f a5bd 4848 643d 68c7 243e
000001e0: 4258 2cbd 6ffc b6bd 6f3a 0a3e 7c18 9bbd
000001f0: 46c3 423e cad2 b73d 13b5 b4bd 3d36 423b
00000200: c6a2 11be cead 95bc 7627 b3bd fc42 e03d
00000210: 764c 133e ab4d 19be 93e8 8c3d acb3 243e
00000220: 7535 803e 4e47 49be eacc 4abe 3c2f 90bd
00000230: 4d0c a73d c48d 28be 0ca2 263e 43e4 44be
00000240: 4e48 313e 15d0 8fbe fb04 b6bd 5e73 5dbe
00000250: af83 1dbe 94d2 65be 5614 e3bd 9dbb 4b3e
00000260: 6038 d33d 7c02 573e ef45 a13b 13b5 07be
00000270: b68b 4f3e 9277 97bc 63be 2f3e 5ccd bdbc
00000280: a0b1 a4bd e3e6 3ebe 4a86 8abb a68c 37be
00000290: 5dd0 46be 5712 d5ba 1c45 76bd c1f9 763c
000002a0: 5ccd 00bd 9df8 83bd 99f4 363e cce4 bfbd
000002b0: c584 41be 5164 2c3e 8024 1b3d 7b7e 21bd
000002c0: 73c4 95bd a8cb 4b3e 456d 3ebe a325 25bd
000002d0: 2b87 c6bd 4d7f d9bd c547 2bbd eb7b b63c
000002e0: b4c9 203e e2e9 c53a f657 e1bd 119e 6e3e
000002f0: 049b 2ebd 8186 ddbd 2ff4 3bbe 8e69 073e
00000300: e5d2 e6bd 90d3 693e b806 823e 2525 c73d
00000310: 7564 823d 7953 9abd 9092 70bd fb3f d7bd
00000320: 8918 66be 65db 96be f86a 19be 536e fcbd
00000330: f1dd e73d ae70 86bd 5791 4c3e 43c0 d93d
00000340: d97c 2c3e 6d59 643d 1693 343e bd4c b93d
00000350: 0ed6 8fbe a561 a13c 4dcf 6abe e9a1 05bc
00000360: 2a6d 473e 067e 493e f9b8 3cbe 0a2f a6bd
00000370: 693c a43c 2ca8 d0bd 4a19 143e d3e1 c33d
00000380: d9d3 333e 3578 053e 2838 b43d 6463 68bd
00000390: f12c 193e 7c29 663e 4786 183d 14ac 1abe
000003a0: 2f90 ddbd b9bb 7dbe 383b 92bd f11b 9b3c
000003b0: d700 25be 40ec 98bd e888 2cbd dde6 453d
000003c0: edb3 28be af26 35bc dd8c 74bd 325c aebd
000003d0: d65a 7e3e 045c 1abe 4cd6 1e3e 1a5f 103e
000003e0: 4d22 25bd ba0c ed3d 8c50 e6bd c7d1 ed3c
000003f0: 702c 383e a63d 5ebd c745 edbd f93f 943d

network.0.bias f4 [256]
-0.2617977 0.111662604 0.1835592 0.03738982 -0.0139098745 0.08386813 0.030816544 0.1298936
0.25677696 0.09243533 0.09225997 0.16148521 -0.20789932 -0.15572643 0.12293117 0.26902437
0.1901692 0.08109134 -0.11178525 0.23473755 -0.22375832 -0.24686112 0.105484866 0.18734865
-0.104421556 0.056835778 0.24703477 -0.057219747 0.13800837 -0.042437494 -0.1659067 0.096024126
-0.058860566 0.06189631 0.19005713 0.14213544 0.20558172 -0.14073177 -0.018478142 0.23912938
0.20263422 0.22944182 -0.058918282 0.08300999 0.24265382 -0.012369202 0.09651304 0.045549497
0.08390887 -0.08350003 -0.038461383 0.2524048 -0.06384377 0.27283132 0.26385772 0.21583746
-0.17803496 -0.2333872 0.15505114 -0.009782915 -0.059471212 -0.25238457 -0.14869514 -0.047576442
0.08719375 0.21214718 -0.024371035 -0.0041722213 -0.00035264797 -0.04912433 -0.20542689 0.28569475
-0.05872204 -0.057760336 0.03668165 -0.15038255 0.09168203 -0.19517833 0.23269407 -0.050656192
-0.122623466 0.06968996 -0.1699768 -0.12115544 -0.035579383 -0.019183459 0.07600365 0.2275934
-0.15721577 0.2412471 0.04651185 0.014941175 -0.19913384 0.19486196 0.21879767 0.06388987
0.03192675 0.0885523 0.22409278 0.20218818 -0.15701647 0.05543605 0.24658734 0.026653249
0.042399537 -0.06200279 -0.09960829 -0.17676866 -0.047333814 0.2371386 -0.1674537 -0.13203636
0.16849689 0.085514694 -0.021980515 -0.22156748 -0.032711886 0.138114 -0.2363652 -0.07675464
-0.19890964 -0.16696303 -0.017430756 0.048832286 0.1667666 0.06578448 0.123603046 -0.22148542
-0.071086116 0.07409961 -0.1857245 0.07086102 -0.18752716 0.13477464 -0.13292934 -0.10043129
-0.045805167 -0.08340292 -0.0052627423 0.058882937 -0.18271632 0.048130002 -0.0592699 -0.22204523
0.13297091 -0.02364078 0.14009507 0.26620835 0.1131639 0.15701248 -0.085395694 -0.038005874
-0.1657507 -0.080953985 -0.104938656 -0.08179826 0.11811874 0.11493909 -0.1508545 -0.030443773
0.04980887 0.028408425 0.121553704 0.033171624 -0.14832158 0.06823906 0.22996059 0.043165326
-0.14591327 -0.11203835 0.21339785 0.074423924 -0.022393486 0.2555162 -0.20677191 -0.06579625
-0.13060509 -0.07675287 -0.1868156 -0.24046047 0.25035474 -0.06954866 -0.0017245208 0.018310105
0.12883715 0.138346 -0.20473473 -0.16397122 -0.15172426 0.10098191 0.21372156 0.15975186
0.11809289 -0.13926545 -0.20432724 -0.10258075 -0.10004554 0.13925157 0.088094175 -0.10135663
-0.18151966 -0.0019192735 -0.20032197 -0.21749406 0.0762124 -0.017770363 0.012178133 0.045098472
0.0870132 -0.022166373 -0.04066559 0.08961597 0.2511897 0.10213466 0.099874444 -0.036812883
0.0745563 0.21922834 -0.18704611 -0.066993624 -0.05696649 0.047675665 -0.0957187 -0.20305511
-0.17834896 0.017817145 0.2013565 -0.11284821 -0.0924684 0.10997387 -0.029422868 -0.10655604
0.09561632 -0.0144932205 0.20976527 -0.2904988 0.23464519 0.28255525 0.282274 0.12318996
-0.03390258 -0.20985958 -0.2389795 0.10131756 -0.13658707 -0.042111713 0.21960582 -0.0012357463
-0.056635566 0.12638164 -0.010175829 0.17411539 0.08116485 -0.17228062 -0.21150813 0.019868882
00000000: 590a 86be 5daf e43d f1f6 3b3e 1126 193d
00000010: 3ee6 63bc 0ec3 ab3d fa72 fc3c d402 053e
00000020: 4578 833e bc4e bd3d ccf2 bc3d 615c 253e
00000030: 8fe3 54be c076 1fbe 56c3 fb3d 90bd 893e
00000040: b7bb 423e 3713 a63d aaef e4bd 0a5f 703e
00000050: e720 65be 29c9 7cbe 7308 d83d 53d8 3f3e
00000060: f8da d5bd a2cc 683d aff6 7c3e 415f 6abd
00000070: 1152 0d3e f0d2 2dbd 72e3 29be 4ca8 c43d
00000080: c717 71bd fc86 7d3d 569e 423e f48b 113e
00000090: 0484 523e fd1b 10be 795f 97bc 55de 743e
000000a0: 587f 4f3e ccf2 6a3e 4c54 71bd 2401 aa3d
000000b0: 3e7a 783e 32a8 4abc a1a8 c53d 1c92 3a3d
000000c0: 6ad8 ab3d 1002 abbd af89 1dbd 343b 813e
000000d0: 86c0 82bd 8cb0 8b3e 5c18 873e 7f04 5d3e
000000e0: cc4e 36be 0efd 6ebe bac5 1e3e 8548 20bc
000000f0: 1698 73bd 8d38 81be 8a43 18be 84df 42bd
00000100: a392 b23d 1c3d 593e c4a5 c7bc 21b7 88bb
00000110: 9ce3 b8b9 9836 49bd 6d5b 52be 9546 923e
00000120: 8686 70bd 1a96 6cbd 7f3f 163d e2fd 19be
00000130: cac3 bb3d d4dc 47be 5b47 6e3e de7c 4fbd
00000140: 0322 fbbd 9cb9 8e3d 660e 2ebe 5820 f8bd
00000150: b0bb 11bd a126 9dbc cda7 9b3d 3f0e 693e
00000160: 2cfd 20be 7b09 773e 3683 3e3d d4cb 743c
00000170: bee9 4bbe e589 473e 7f0c 603e b1d8 823d
00000180: a0c5 023d e95a b53d 9478 653e 6b0a 4f3e
00000190: edc8 20be e910 633d 6481 7c3e ea57 da3c
000001a0: 23ab 2d3d a3f6 7dbd 6eff cbbd d802 35be
000001b0: 1ae1 41bd 76d4 723e fc78 2bbe 8a34 07be
000001c0: 738a 2c3e 5422 af3d 7b10 b4bc 96e2 62be
000001d0: e6fc 05bd c26d 0d3e b809 72be 8931 9dbd
000001e0: f8ae 4bbe 5bf8 2abe f2ca 8ebc 5d04 483d
000001f0: ddc4 2a3e 03ba 863d 9823 fd3d 13cd 62be
00000200: 9995 91bd 89c1 973d 902e 3ebe 951f 913d
00000210: 1f07 40be 5d02 0a3e a11e 08be ecae cdbd
00000220: 339e 3bbd 26cf aabd 1573 acbb 3c2f 713d
00000230: fd19 3bbe f723 453d ffc4 72bd d35f 63be
00000240: 8729 083e 4faa c1bc 1575 0f3e 764c 883e
00000250: 7ac2 e73d e1c7 203e f0e3 aebd 0cac 1bbd
00000260: 8dba 29be 34cb a5bd 14ea d6bd d985 a7bd
00000270: 3de8 f13d 3065 eb3d 9a79 1abe 3865 f9bc
00000280: 6304 4c3d c9b8 e83c 26f1 f83d f8de 073d
00000290: 9de1 17be ecc0 8b3d ca7a 6b3e 20ce 303d
000002a0: 4a6a 15be 5d74 e5bd f784 5a3e 926b 983d
000002b0: 8b72 b7bc 05d3 823e 04bc 53be 2fc0 86bd
000002c0: 57bd 05be 9c30 9dbd 974c 3fbe 453b 76be
000002d0: 7f2e 803e 876f 8ebd 5109 e2ba 13ff 953c
000002e0: e3ed 033e 93aa 0d3e fba5 51be 12e8 27be
000002f0: 9b5d 1bbe 9bcf ce3d d3d9 5a3e fe95 233e
00000300: afda f13d 9a9b 0ebe 293b 51be db15 d2bd
00000310: ade4 ccbd f797 0e3e b86a b43d 1194 cfbd
00000320: 4ae0 39be 2290 fbba 3421 4dbe c3b6 5ebe
00000330: 3f15 9c3d 2793 91bc cb86 473c 2db9 383d
00000340: fa33 b23d 4196 b5bc f690 26bd 9488 b73d
00000350: f09b 803e fa2b d13d f98a cc3d 1bc9 16bd
00000360: f9b0 983d 657d 603e 0489 3fbe f433 89bd
00000370: b255 69bd 8f47 433d 2a08 c4bd aeed 4fbe
00000380: 1ca1 36be 43f5 913c 6630 4e3e f61c e7bd
00000390: 1360 bdbd fb39 e13d 3a08 f1bc 0e3a dabd
000003a0: 7dd2 c33d f974 6dbc b5cc 563e 42bc 94be
000003b0: d446 703e 15ab 903e 3886 903e 054b fc3d
000003c0: 6fdd 0abd 6ee5 56be 0bb7 74be 957f cf3d
000003d0: 7bdd 0bbe 557d 2cbd 59e0 603e c4f8 a1ba
000003e0: b2fa 67bd 306a 013e 85b8 26bc 4e4b 323e
000003f0: c239 a63d 556a 30be 9695 58be 11c4 a23c

network.2.weight f4 [128, 256]
-0.024039138 -0.040892433 0.01350785 -0.057217322 0.010626966 0.007670651 -0.021997448 -0.019146513
-0.0073972708 0.04579949 -0.00054152927 0.015563093 0.07840807 -0.0055940654 0.06570487 0.05584214
0.011004346 -0.008418674 -0.037220526 -0.0004503622 0.039258085 0.030964073 0.028355462 0.05512495
0.04848328 -0.014780756 0.051836424 0.046952046 0.040036548 -0.0155947665 0.06211915 -0.024534088
0.03162263 -0.058573883 0.018680066 -0.03562863 -0.022778796 0.041870613 0.0052475543 0.04549953
0.036921468 0.0352255 0.057341788 0.01351254 -0.017555917 -0.06730191 -0.021449428 0.06537925
0.0645483 -0.055906534 0.01961096 -0.033766262 0.0012128776 -0.006587504 -0.04131932 -0.009682743
-0.05011866 -0.03649393 -0.026069773 0.05760467 -0.045078583 0.03703719 0.06059676 0.050841313
0.059926853 -0.0112458225 -0.008877298 0.03502541 0.04857627 -0.04270573 0.036971267 -0.017432963
0.037080273 0.05270621 0.05325183 0.018023103 -0.030169217 -0.032486025 0.063291006 -0.052477732
0.017911253 0.02752921 0.03933045 -0.037805427 0.058432028 0.029963352 0.020802649 0.018994095
0.040411163 -0.016100004 -0.045911893 -0.003087711 0.034716498 0.023119846 -0.03296189 -0.015448867
-0.025712589 0.03149779 0.0018650173 -0.06199302 0.053353447 -0.027234534 -0.0360676 -0.015575651
0.063585415 -0.041160926 0.008921557 0.07252181 0.011612621 -0.054228883 0.021596026 -0.01616651
0.009048029 0.031885587 -0.04021432 0.03724089 0.032827254 -0.011780444 -0.009404589 -0.0018420278
-0.0050651347 -0.028027233 -0.019388342 0.02497231 -0.030024176 0.003547369 0.010664834 0.012233759
-0.008282403 -0.034943666 -0.002435929 0.11437604 -0.03125598 0.02098218 0.0058325077 0.051099814
-0.06318258 -0.027147725 0.033262424 0.0073927315 0.08374739 0.017102325 -0.10534191 -0.068150304
-0.05744026 -0.008398638 -0.010467919 -0.029543413 0.012951722 0.010603729 0.0068251723 -0.038136415
-0.03732483 -0.058271915 0.036241915 0.06400647 -0.021487182 0.027374625 0.0037623923 0.028170511
-0.035456844 0.060601693 -0.02803533 -8.8923684e-07 0.020191593 -0.030556476 0.045713596 -0.04546094
-0.034286823 -0.012243659 0.09156835 0.040150546 0.06676969 -0.029677073 0.0895161 -0.043566912
0.00013966954 -0.048393037 0.085762225 -0.01118374 0.047775198 0.029312966 0.060493495 -0.04535457
0.027443582 -0.0037840034 0.05089045 0.008390358 -0.0071765273 -0.0012264483 -0.021740925 0.016726455
-0.02393475 0.022084432 -0.036246307 0.065839864 -0.06780575 0.0057509155 0.0090691475 0.038161583
0.04552301 0.0072214645 0.01571476 -0.07625798 -0.057167247 -0.003475317 0.031997263 0.04640299
0.01689236 -0.048604272 -0.06799651 -0.034282167 0.028566558 0.040642496 0.048129346 0.06488599
-0.04317174 0.022703324 -0.036822826 0.04512181 0.0013307325 -0.011078707 0.0019865432 0.015853293
0.08597504 0.0015064995 0.005490589 0.028264422 0.04854211 -0.0403394 0.0028191784 0.02970763
0.053315524 0.05607392 -0.0693536 0.002420957 -0.0012006378 -0.05016414 -0.0010672698 0.017203532
0.055842694 -0.00993514 -0.03052759 -0.021598494 -0.033734545 -0.026304755 0.010204611 0.013767135
0.010721801 -0.054464914 0.026641522 -0.029766975 -0.038181584 -0.051328763 -0.022050845 0.0054415027
00000000: baed c4bc d37e 27bd 0750 5d3c b65c 6abd
00000010: ba1c 2e3c 165a fb3b fe33 b4bc 26d9 9cbc
00000020: ce64 f2bb 3f98 3b3d 6af5 0dba 58fc 7e3c
00000030: 6994 a03d 6c4e b7bb 4690 863d baba 643d
00000040: 934b 343c 7aee 09bc 8d74 18bd 971e ecb9
00000050: 16cd 203d 5ea8 fd3c b749 e83c b3ca 613d
00000060: 6796 463d fc2a 72bc 6e52 543d ca50 403d
00000070: 5dfd 233d 3181 7fbc a670 7e3d b6fb c8bc
00000080: bb86 013d 2beb 6fbd f006 993c 54ef 11bd
00000090: 999a babc 8580 2b3d adf3 ab3b b75d 3a3d
000000a0: f73a 173d 9d48 103d 39df 6a3d b363 5d3c
000000b0: 6dd1 8fbc 95d5 89bd b6b6 afbc 8ee5 853d
000000c0: e631 843d 40fe 64bd 2aa7 a03c 7e4e 0abd
000000d0: 6bf9 9e3a fddb d7bb 733e 29bd 5ea4 1ebc
000000e0: 3949 4dbd a97a 15bd 4790 d5bc e0f2 6b3d
000000f0: 52a4 38bd 4fb4 173d 4f34 783d fb3e 503d
00000100: dc75 753d 6640 38bc 1672 11bc ce76 0f3d
00000110: e9f7 463d 34ec 2ebd 2f6f 173d 93cf 8ebc
00000120: 7ce1 173d 78e2 573d 971e 5a3d 30a5 933c
00000130: 6f25 f7bc 1110 05bd b79e 813d e4f2 56bd
00000140: 9fba 923c f084 e13c f718 213d ddd9 1abd
00000150: 6c56 6f3d b475 f53c 516a aa3c 8199 9b3c
00000160: 2d86 253d 28e4 83bc 1c0e 3cbd 325b 4abb
00000170: e332 0e3d d565 bd3c 0c03 07bd 3f1d 7dbc
00000180: 35a3 d2bc d403 013d 9973 f43a 65ec 7dbd
00000190: 2589 5a3d f51a dfbc 9fbb 13bd 0431 7fbc
000001a0: 1239 823d 5c98 28bd b92b 123c 5186 943d
000001b0: dd42 3e3c 1b1f 5ebd 26ea b03c a16f 84bc
000001c0: 2f3e 143c 769a 023d c5b7 24bd e789 183d
000001d0: df75 063d c302 41bc b515 1abc 3270 f1ba
000001e0: 6ef9 a5bb 5e99 e5bc 4dd4 9ebc bb92 cc3c
000001f0: 43f5 f5bc fa7a 683b 8ebb 2e3c 1b70 483c
00000200: ebb2 07bc 1721 0fbd 1ba4 1fbb fc3d ea3d
00000210: 4506 00bd d2e2 ab3c 9f1e bf3b 0a4e 513d
00000220: de65 81bd e864 debc 2e3e 083d ba3e f23b
00000230: c083 ab3d 2d1a 8c3c 80bd d7bd 6392 8bbd
00000240: 7a46 6bbd 719a 09bc a281 2bbc 0705 f2bc
00000250: 7633 543c 43bb 2d3c b2a5 df3b ee34 1cbd
00000260: ece1 18bd 88ae 6ebd 6772 143d d315 833d
00000270: e305 b0bc c040 e03c 7892 763b d8c5 e63c
00000280: 323b 11bd 7b39 783d 59aa e5bc e4b3 6eb5
00000290: d768 a53c 9351 fabc 2e3e 3b3d 4035 3abd
000002a0: 5770 0cbd a199 48bc 3088 bb3d e674 243d
000002b0: 8cbe 883d 551d f3bc 3854 b73d 3873 32bd
000002c0: 4274 1239 c737 46bd 1ba4 af3d 013c 37bc
000002d0: edaf 433d bf21 f03c 07c8 773d b7c5 39bd
000002e0: 5dd1 e03c 0bfd 77bb 8172 503d b677 093c
000002f0: 1329 ebbb c7c0 a0ba 061a b2bc eb05 893c
00000300: cf12 c4bc 69ea b43c 0277 14bd 0dd7 863d
00000310: bedd 8abd 2d72 bc3b c396 143c 524f 1c3d
00000320: 5676 3a3d 09a2 ec3b 3ebc 803c 252d 9cbd
00000330: 3428 6abd 25c2 63bb 900f 033d 1011 3e3d
00000340: d961 8a3c 4615 47bd c141 8bbd 756b 0cbd
00000350: 6a04 ea3c bf78 263d 4723 453d f2e2 843d
00000360: dad4 30bd 52fc b93c 88d3 16bd a6d1 383d
00000370: f96b ae3a 7783 35bc aa30 023b c4de 813c
00000380: af13 b03d bc75 c53a 66ea b33b ca8a e73c
00000390: 17d4 463d ed3a 25bd f7c1 383b 6a5d f33c
000003a0: 6161 5a3d c4ad 653d 4309 8ebd eba8 1e3b
000003b0: b85e 9dba ea78 4dbd a2e3 8bba 6cee 8c3c
000003c0: 4fbb 643d ffc6 22bc ff14 fabc 53ef b0bc
000003d0: 3c2d 0abd 127d d7bc 3e31 273c 8d8f 613c
000003e0: 7eaa 2f3c 9a16 5fbd 523f da3c dfd9 f3bc
000003f0: 4b64 1cbd 1c3e 52bd f9a3 b4bc a24e b23b

network.2.bias f4 [128]
0.05217297 0.03491165 0.05724244 0.081763946 0.05620903 0.055280823 -0.027385712 0.005448137
0.033603504 -0.044403486 0.051961355 0.067526065 -0.010952118 -0.018405506 -0.059966397 0.04135168
-0.010032782 0.028781475 -0.03766019 0.0122062005 -0.027433641 -0.016018927 -0.05358099 -0.08160077
-0.030528165 0.032345735 0.005918017 -0.02607428 0.007488523 -0.023750963 0.042911526 0.0035405576
-0.017546888 -0.046320263 0.017014401 -0.02474045 0.04628703 -0.025250902 -0.044072893 0.020399515
0.018059095 0.021178018 -0.045165613 0.037700705 -0.0055381604 0.033991273 -0.02750499 0.0027862513
0.01581796 -0.039086044 -0.067995265 0.031181663 -0.018054228 0.024377065 -0.045951 0.013373672
0.063963644 -0.05376885 0.0034894303 -0.026165025 0.032743387 0.03418725 -0.050547764 0.049296346
-0.033997953 0.06136413 0.05265262 -0.040393587 0.0021015625 -0.035027247 -0.048454333 -0.06475271
0.01202946 0.059701964 -0.06439345 -0.05076335 0.001645127 0.07886446 -0.03490485 -0.00013454189
-0.0034813539 -0.022837112 -0.020104488 0.008983695 -0.037703834 -0.03129653 -0.034204982 -0.011606856
0.00677021 0.012602367 0.02550129 0.028720073 0.06102914 0.030094126 0.022053087 -0.007999602
0.0356643 -0.058980092 0.054534554 0.05639993 0.007469015 0.06941451 -0.056088313 -0.0409719
0.012772779 0.017887201 -0.00801744 0.024866946 0.037094314 0.033629358 -0.03347836 0.07170825
0.037283793 -0.029366748 0.03492405 -0.04766836 0.010388687 0.057888553 -0.030517468 0.046451338
-0.00019911505 -0.028132707 0.015463501 0.086313576 -0.046413742 -0.051533107 0.07018507 0.050277356
00000000: 53b3 553d 85ff 0e3d 0c77 6a3d db73 a73d
00000010: 713b 663d 256e 623d 0058 e0bc 4986 b23b
00000020: d4a3 093d 6ee0 35bd 6ed5 543d 1b4b 8a3d
00000030: 8370 33bc 25c7 96bc 539f 75bd 6160 293d
00000040: 8a60 24bc 21c7 eb3c 9241 1abd 84fc 473c
00000050: 84bc e0bc 203a 83bc bd77 5bbd 4e1e a7bd
00000060: 3416 fabc f67c 043d edeb c13b ba99 d5bc
00000070: 4962 f53b 6191 c2bc ffc3 2f3d b308 683b
00000080: 7ebe 8fbc 51ba 3dbd c961 8b3c 7cac cabc
00000090: 7897 3d3d fbda cebc c785 34bd e21c a73c
000000a0: abf0 933c 867d ad3c 94ff 38bd 0e6c 1a3d
000000b0: 7579 b5bb 6f3a 0b3d 2552 e1bc 8a99 363b
000000c0: ab94 813c b018 20bd 1a41 8bbd b070 ff3c
000000d0: 76e6 93bc 69b2 c73c 1e37 3cbd 3f1d 5b3c
000000e0: 5fff 823d ba3c 5cbd edae 643b 0958 d6bc
000000f0: ee1d 063d ee07 0c3d 2c0b 4fbd f7ea 493d
00000100: 7041 0bbd f458 7b3d 46aa 573d bf73 25bd
00000110: 5eba 093b bb78 0fbd 0d78 46bd 129d 84bd
00000120: 3617 453c 0c8a 743d b7e0 83bd 3bed 4fbd
00000130: 4da1 d73a b183 a13d 63f8 0ebd d013 0db9
00000140: 6d27 64bb e514 bbbc 2bb2 a4bc 5930 133c
00000150: 566f 1abd ca30 00bd 861a 0cbd af2a 3ebc
00000160: a3d8 dd3b 297a 4e3c 15e8 d03c 5c46 eb3c
00000170: b1f9 793d f587 f63c ada8 b43c c310 03bc
00000180: bb14 123d 1c95 71bd a05f 5f3d 9d03 673d
00000190: a4be f43b 3229 8e3d dcbc 65bd 27d2 27bd
000001a0: eb44 513c 2e88 923c 955b 03bc c4b5 cb3c
000001b0: 35f0 173d f0be 093d 9b20 09bd c6db 923d
000001c0: e4b6 183d 8992 f0bc 850c 0f3d e63f 43bd
000001d0: 5035 2a3c 8c1c 6d3d c5ff f9bc c243 3e3d
000001e0: 8ac9 50b9 9076 e6bc a05a 7d3c 2cc5 b03d
000001f0: 561c 3ebd 6114 53bd 31bd 8f3d a1ef 4d3d

network.4.weight f4 [64, 128]
0.056213617 -0.08082889 0.05252212 -0.031057592 0.04081843 -0.021629382 0.056567483 -0.115282014
0.05611278 -0.17788234 0.09813717 -0.024477303 0.013539444 0.08310574 0.20015833 -0.04089963
-0.033899944 0.12927708 0.045099348 0.0867237 0.046319406 0.056727633 -0.07309176 -0.17247252
-0.16957983 0.029714052 -0.012580756 -0.074329145 0.070834026 0.067703865 -0.02627646 -0.111747004
0.048848376 -0.0037193235 0.076518394 -0.018141277 0.04517964 0.028410753 0.020626606 -0.04176961
-0.061968714 -0.08598678 0.09196065 -0.035549015 0.040772166 -0.14875875 -0.041759122 -0.027541155
-0.04629671 -0.031959184 -0.024781724 -0.017242491 -0.06559511 0.04628456 0.02412315 -0.07268873
0.07084773 -0.02553153 0.10932051 -0.10991848 -0.040484577 0.004187595 -0.045204993 -0.07263808
-0.06894537 0.029331332 -0.012569034 -0.05388153 -0.017453978 -0.08808639 -0.029902231 0.012382297
0.07900675 -0.101409435 -0.050198253 0.008029612 0.040142972 0.06477485 -0.046070945 -0.018904913
-0.06365519 0.025397401 0.035247523 -0.06737958 0.03761067 0.08516651 -0.26726687 -0.013985848
-0.025194934 -0.008086232 -0.011050437 0.02241913 -0.026720114 -0.05612622 -0.010314901 0.040642787
-0.0043634484 0.025915127 0.085822694 0.053055774 -0.021765694 0.08728232 -0.023149315 0.019583846
0.025258755 0.04970772 0.041174904 0.079719774 -0.075012736 0.044720817 0.1467246 0.022509512
-0.016693328 -0.26296207 0.07807299 -0.022021893 -0.13958816 -0.13089982 -0.00013575109 -0.16276702
-0.12941463 -0.035989285 -0.07093879 0.080743775 -0.10243122 -0.07741392 0.080140986 0.09864199
-0.09699962 0.056136258 0.05122586 -0.07546955 -0.1289472 0.029149648 -0.04366423 0.18338937
-0.0245513 0.09223182 -0.04896171 0.01713102 0.036774848 -0.102355056 -0.35848176 -0.13490191
-0.05512346 -0.17956668 -0.092759974 -0.0847541 0.021225434 0.06736344 0.03902114 0.15099438
0.0698989 0.18141238 0.11082498 -0.15912685 -0.072517656 -0.028371653 0.040660784 0.05075494
-0.13924806 0.043128144 0.03637081 -0.04718383 -0.1040165 -0.045985974 0.08576644 0.15291348
0.0393307 0.10473036 -0.08467071 0.070867136 0.010623112 0.13029744 0.08609914 -0.033255205
-0.033856153 0.034916803 0.0700088 0.045730766 0.03352766 -0.026387163 -0.041018154 -0.053055614
-0.100587584 0.017519573 0.048820876 0.018771565 -0.03230441 0.11969574 0.10317672 0.051196616
0.06122491 -0.100966476 0.009852394 0.035754107 0.045932677 0.22144508 0.081610255 0.047942385
-0.14887759 0.17517534 -0.0030819052 -0.018582491 -0.060238715 0.081284955 -0.12400617 -0.002045168
0.019846413 0.0587702 -0.10413495 0.031527583 -0.06844703 -0.13735004 0.40941015 -0.016397078
0.07385951 0.0896515 0.026404236 0.102169454 -0.2977762 0.06274977 -0.04782587 -0.056171082
0.0020911493 -0.023543816 -0.12542786 -0.044850707 -0.043365482 -0.06603926 -0.010042066 -0.0110014975
0.081729956 -0.15760264 -0.119044125 0.028251931 -0.03292044 -0.0071748197 -0.058602467 0.1044168
-0.090606846 0.143716 0.06314773 0.119617544 0.05025713 -0.035727385 -0.1410298 0.07237328
0.08999097 -0.044670794 -0.047399938 0.08426245 0.03746615 -0.022397658 -0.113105886 -0.12621501
00000000: 4040 663d 9e89 a5bd 6f21 573d 7e6c febc
00000010: 3a31 273d 1a30 b1bc 4eb3 673d fa18 ecbd
00000020: 84d6 653d ca26 36be 24fc c83d a084 c8bc
00000030: 8bd4 5d3c 5833 aa3d 4ef6 4c3e 5f86 27bd
00000040: abda 0abd 3661 043e 18ba 383d 329c b13d
00000050: 6bb9 3d3d 3c5b 683d 22b1 95bd a39c 30be
00000060: 56a6 2dbe e26a f33c 841f 4ebc e139 98bd
00000070: 6e11 913d 53a8 8a3d bb41 d7bc 9ddb e4bd
00000080: 3c15 483d e5bf 73bb adb5 9c3d 049d 94bc
00000090: 490e 393d abbd e83c 21f9 a83c 9c16 2bbd
000000a0: e8d2 7dbd d619 b0bd de55 bc3d d89b 11bd
000000b0: b700 273d 3754 18be 9d0b 2bbd fd9d e1bc
000000c0: 9ea1 3dbd a2e7 02bd 0b03 cbbc 2040 8dbc
000000d0: bb56 86bd e194 3d3d ea9d c53c d4dd 94bd
000000e0: 9d18 913d 8027 d1bc 6ee3 df3d f11c e1bd
000000f0: 28d3 25bd 1838 893b df28 39bd 46c3 94bd
00000100: 3b33 8dbd 4348 f03c 59ee 4dbc e1b2 5cbd
00000110: a5fb 8ebc a366 b4bd 86f5 f4bc 1edf 4a3c
00000120: 4ace a13d c0af cfbd af9c 4dbd a28e 033c
00000130: f56c 243d ada8 843d e3b4 3cbd 7ade 9abc
00000140: a75d 82bd 360e d03c b55f 103d 4efe 89bd
00000150: a50d 1a3d c76b ae3d 34d7 88be e624 65bc
00000160: 9b65 cebc 1d7c 04bc e40c 35bc 53a8 b73c
00000170: 24e4 dabc 9be4 65bd d5ff 28bc 0d79 263d
00000180: 42fb 8ebb f64b d43c cfc3 af3d 0351 593d
00000190: f84d b2bc 13c1 b23d a2a3 bdbc 4d6e a03c
000001a0: 73eb ce3c 529a 4b3d 04a7 283d 1f44 a33d
000001b0: 47a0 99bd 2d2d 373d f93e 163e de65 b83c
000001c0: 72c0 88bc f7a2 86be bbe4 9f3d 4267 b4bc
000001d0: 33f0 0ebe 9a0a 06be 6858 0eb9 66ac 26be
000001e0: 4585 04be 8069 13bd 5b48 91bd fe5c a53d
000001f0: 76c7 d1bd 308b 9ebd f520 a43d d004 ca3d
00000200: bda7 c6bd 22ef 653d 35d2 513d c88f 9abd
00000210: bc0a 04be 3ecb ee3c 43d9 32bd 6cca 3b3e
00000220: cf1f c9bc 09e4 bc3d 138c 48bd 5a56 8c3c
00000230: 39a1 163d 879f d1bd ec8a b7be ba23 0abe
00000240: 23c9 61bd 54e0 37be f1f8 bdbd 8f93 adbd
00000250: f6e0 ad3c d8f5 893d a2d4 1f3d 459e 1a3e
00000260: 2827 8f3d 2bc4 393e 35f8 e23d 26f2 22be
00000270: 2384 94bd ab6b e8bc ec8b 263d 69e4 4f3d
00000280: 0b97 0ebe 23a7 303d 8ff9 143d d543 41bd
00000290: 9a06 d5bd ca5b 3cbd 51a6 af3d 5a95 1c3e
000002a0: 3a19 213d df7c d63d d667 adbd ca22 913d
000002b0: 900c 2e3c b16c 053e bf54 b03d 9c36 08bd
000002c0: c0ac 0abd ec04 0f3d c660 8f3d 2f50 3b3d
000002d0: 4d54 093d e429 d8bc a702 28bd d850 59bd
000002e0: dd00 cebd 3585 8f3c 66f8 473d d3c6 993c
000002f0: a151 04bd 0a23 f53d 514e d33d 8bb3 513d
00000300: f9c6 7a3d 83c7 cebd f06b 213c e672 123d
00000310: e723 3c3d 80c2 623e 4723 a73d 3c5f 443d
00000320: 5e73 18be 2a61 333e caf9 49bb 4f3a 98bc
00000330: dfbc 76bd ba78 a63d f2f6 fdbd 3a08 06bb
00000340: f294 a23c 05b9 703d b444 d5bd 1123 013d
00000350: f52d 8cbd 7da5 0cbe 359e d13e 2a53 86bc
00000360: a843 973d 359b b73d b24d d83c 383e d13d
00000370: 1f76 98be f482 803d 0fe5 43bd a613 66bd
00000380: aa0b 093b f6de c0bc 2970 00be 60b5 37bd
00000390: 01a0 31bd 973f 87bd 7a87 24bc a03f 34bc
000003a0: 0962 a73d 9662 21be 68cd f3bd 9870 e73c
000003b0: 95d7 06bd c01a ebbb 2409 70bd 7ad8 d53d
000003c0: 1590 b9bd 492a 133e 9953 813d 0bfa f43d
000003d0: 6cda 4d3d e156 12bd 1e6a 10be 7138 943d
000003e0: 304d b83d b9f8 36bd 7026 42bd cb91 ac3d
000003f0: 1b76 193d 4b7b b7bc 0fa4 e7bd 823e 01be

network.4.bias f4 [64]
0.0873211 -0.026509916 0.061603665 0.078064 0.05366284 0.058520623 0.005563232 -0.03059614
-0.054000005 0.064612664 -0.032600507 -0.017127102 -0.07938538 -0.018411715 0.0019275045 0.013614194
0.04522612 0.039117187 0.025181266 -0.07035535 -0.056517784 -0.013278565 -0.0023289076 -0.05809918
0.026723394 0.07379012 -0.022013225 -0.011828807 -0.03430469 0.06698105 -0.0711159 -0.05156182
-0.0012661837 -0.06019228 -0.02308 -0.020059032 0.026074693 0.07409529 0.003544 0.04516958
0.053595264 -0.06785255 0.09614371 0.035903707 -0.065122105 0.04296874 0.0019616357 0.02259262
-0.023789512 -0.04295954 -0.02968205 -0.04955683 -0.03835941 0.028325336 0.07427063 -0.08187005
-0.014830448 0.067908294 0.042234946 0.07284863 -0.021130923 -0.03186383 -0.04869246 0.024500707
00000000: 68d5 b23d 532b d9bc 2054 7c3d 05e0 9f3d
00000010: 91cd 5b3d 52b3 6f3d c64b b63b c2a4 fabc
00000020: 1c2f 5dbd a553 843d 1c88 05bd 234e 8cbc
00000030: cd94 a2bd 2ad4 96bc 52a4 fc3a 110e 5f3c
00000040: 063f 393d 5839 203d f148 ce3c 7716 90bd
00000050: 317f 67bd 578e 59bc 96a0 18bb 68f9 6dbd
00000060: 05eb da3c 461f 973d 1455 b4bc 9dcd 41bc
00000070: 1383 0cbd 5c2d 893d 37a5 91bd 7d32 53bd
00000080: 13f6 a5ba 2e8c 76bd 4512 bdbc d752 a4bc
00000090: 989a d53c 45bf 973d 7442 683b bd03 393d
000000a0: b586 5b3d 47f6 8abd fee6 c43d c40f 133d
000000b0: bd5e 85bd fdff 2f3d c98e 003b 2914 b93c
000000c0: 39e2 c2bc 58f6 2fbd c527 f3bc 1afc 4abd
000000d0: c21e 1dbd 890a e83c 331b 983d 7cab a7bd
000000e0: 68fb 72bc 8113 8b3d 8dfe 2c3d aa31 953d
000000f0: c21a adbc a683 02bd bf71 47bd b5b5 c83c

network.6.weight f4 [1, 64]
-0.12745783 0.5031856 -0.20361122 0.25573152 0.4589063 0.13308306 0.42788303 0.6660169
0.09135662 0.095885664 -0.065185584 0.110345244 -0.11353951 -0.11322669 0.3329384 -0.17255749
-0.023632774 -0.03533374 -0.17148913 0.12062914 -0.10368643 0.54620415 -0.14661103 -0.03459293
-0.18001315 0.24572176 -0.15747188 0.5079372 0.5400316 -0.09914168 -0.0070858165 0.1354641
0.3003989 0.16526034 -0.066198856 -0.10401512 0.5188572 0.4431915 -0.16347425 -0.08762652
0.18274209 0.1962154 -0.10897144 0.019537972 0.09156452 0.26553795 -0.108904526 -0.2052694
0.5103873 0.048155632 -0.16782483 0.57028955 -0.10337617 -0.07943235 0.31593147 0.006002131
-0.17467801 0.4535772 -0.13060983 0.25467312 -0.090149105 -0.13212466 -0.078294106 0.3776922
00000000: 4e84 02be c5d0 003f 767f 50be 3eef 823e
00000010: c4f5 ea3e ed46 083e 7c13 db3e 1580 2a3f
00000020: 2e19 bb3d b45f c43d 0580 85bd b0fc e13d
00000030: 6787 e8bd 65e3 e7bd e776 aa3e e9b2 30be
00000040: 8599 c1bc 1dba 10bd d99a 2fbe 690c f73d
00000050: 8d59 d4bd 09d4 0b3f 3421 16be 51b1 0dbd
00000060: 5e55 38be 7c9e 7b3e 4f40 21be 2c08 023f
00000070: 833f 0a3f cb0a cbbd 2330 e8bb 1ab7 0a3e
00000080: e2cd 993e 023a 293e 4493 87bd e105 d5bd
00000090: d3d3 043f ffe9 e23e cb65 27be 8875 b3bd
000000a0: be20 3b3e b1ec 483e 6b2c dfbd 190e a03c
000000b0: 2e86 bb3d 97f4 873e 5609 dfbd 2432 52be
000000c0: bea8 023f d73e 453d 46da 2bbe 7ffe 113f
000000d0: e3b6 d3bd 6ead a2bd c5c1 a13e 86ad c43b
000000e0: cbde 32be 453b e83e 95be 05be 8464 823e
000000f0: 18a0 b8bd b04b 07be a958 a0bd df60 c13e
