models/most_importances_NN_lwp_k_fold_0.pth (torch, 172233 bytes, 7 tensors)

network.0.weight f4 [256, 3]
-0.5728333 -0.14604428 -0.17104188 -0.26225245 0.58224446 0.01428517 0.11481561 -0.1650241
-0.319453 0.08230021 0.123651974 -0.371442 -0.51012444 0.47089145 -0.093490794 -0.4846855
-0.22885014 0.40193734 0.095797375 -0.3363916 0.07805074 -0.4017087 -0.18069884 0.13292931
0.57990617 0.50547695 0.3000566 -0.4652968 -0.2991293 0.023274014 0.49389255 0.38538644
0.32348675 0.5802468 0.02974866 0.5160207 0.12642528 -0.23562182 0.5064797 0.28688222
-0.14170335 -0.12344824 -0.29306728 -0.28116944 0.090710014 0.51989865 0.30170453 -0.5655906
-0.46904513 0.52873945 -0.30986422 -0.5239041 -0.08453671 -0.38520086 -0.49984372 0.23000833
0.23716095 -0.662042 0.5130116 -0.35104725 0.44012594 0.2586098 0.45555884 -0.019184735
0.12481036 0.0048063244 0.16606249 0.24305223 -0.022957936 0.037809607 -0.36454076 -0.049924616
0.36001647 -0.32071576 -0.25459787 -0.41278765 0.12243134 -0.55422974 -0.14463446 0.27571863
0.26504427 0.40490565 0.30902776 0.5264195 -0.12741275 -0.53223664 -0.13501419 -0.5402346
-0.06968127 0.23221938 0.35625836 -0.08416068 0.54320294 0.56826425 -0.17882168 0.5557765
-0.40581164 0.3017106 0.45906433 -0.25950834 0.54032916 -0.09461939 0.4492195 0.002824845
0.53428596 0.2485315 0.2340926 -0.36317682 -0.1913915 -0.3097018 0.33876908 -0.2952892
-0.01437579 -0.50861675 -0.12301145 0.27390352 -0.25879052 -0.4619307 -0.54201895 -0.41538972
0.07873466 -0.22324897 -0.08470786 0.086245336 0.05593082 -0.37202647 -0.25998536 -0.077989966
0.5788532 -0.041094765 -0.22259273 -0.4446968 -0.48975492 -0.058989946 -0.106705904 0.44363987
-0.58794695 -0.43498904 -0.3309025 -0.13232422 0.5399567 0.070083685 0.4602772 -0.24318665
0.59043574 0.5492994 0.31531966 0.54078335 -0.3564352 0.5529669 0.12336684 -0.04541426
0.5907094 0.5910762 -0.29530883 0.48135644 0.3123075 -0.48527563 -0.4326998 0.29342005
0.17068234 -0.27631545 0.04331834 -0.36726475 -0.1354482 -0.09274134 0.31881654 0.034451153
-0.6017418 0.2727669 -0.5242733 -0.29824278 -0.5166364 0.139576 -0.121230505 0.42013514
0.2711199 -0.20635974 -0.568053 0.2594573 0.29111132 -0.47450927 -0.011632774 -0.2676012
-0.5036107 -0.35614336 0.3603509 -0.18357651 -0.30763036 -0.15440124 0.046740957 -0.025994925
0.3187821 -0.33708933 0.45186087 0.3593307 0.4832129 0.30484948 0.54010123 0.24505459
-0.14505734 -0.07992982 0.25706643 -0.5426737 0.2884738 -0.45067552 -0.5312873 0.043964993
0.561845 -0.018540442 0.4154542 -0.4808989 0.34445712 0.39199996 0.38927853 -0.44632423
0.57510746 -0.34968227 0.40959308 0.41941032 0.5818103 -0.23591425 -0.14278677 -0.48227897
-0.41229212 0.042560488 -0.28571528 0.4998582 -0.3801648 0.3267135 0.5578325 -0.2555167
0.11271073 0.35632864 -0.48846608 -0.43505114 -0.43931746 -0.51150584 0.55052614 -0.41957054
-0.35189664 -0.015428425 -0.27908295 -0.19457175 0.13340835 -0.32374385 -0.027017822 0.23514125
-0.60146105 -0.5157898 0.017100353 -0.305293 -0.11417405 -0.42407274 -0.31168348 -0.12442813
00000000: 34a5 12bf a28c 15be 9a25 2fbe f445 86be
00000010: f90d 153f 580c 6a3c 7224 eb3d 14fc 28be
00000020: 588f a3be 038d a83d 3f3d fd3d a52d bebe
00000030: 8497 02bf af18 f13e 1a78 bfbd b328 f8be
00000040: b157 6abe bbca cd3e 6a31 c43d 853b acbe
00000050: 11d9 9f3d c3ac cdbe 1e09 39be 9f1e 083e
00000060: bb74 143f f066 013f 05a1 993e 623b eebe
00000070: 7a27 99be 25a9 be3c 7cdf fc3e 5f51 c53e
00000080: 0ea0 a53e 0e8b 143f 76b3 f33c ef19 043f
00000090: a175 013e d946 71be a7a8 013f 3ae2 923e
000000a0: af1a 11be 6ed2 fcbd ea0c 96be 71f5 8fbe
000000b0: 2cc6 b93d 1418 053f 0479 9a3e 8cca 10bf
000000c0: af26 f0be 785b 073f 86a6 9ebe 941e 06bf
000000d0: 9521 adbd 0c39 c5be 84eb ffbe 4e87 6b3e
000000e0: 52da 723e 967b 29bf ba54 033f 77bc b3be
000000f0: 3058 e13e 8168 843e 023f e93e 4e29 9dbc
00000100: 939c ff3d 5f7e 9d3b 490c 2a3e afe2 783e
00000110: 4812 bcbc 3fde 1a3d 16a5 babe c17d 4cbd
00000120: 1454 b83e db34 a4be a75a 82be e758 d3be
00000130: 48bd fa3d 00e2 0dbf 0e1b 14be fe2a 8d3e
00000140: e2b3 873e cb4f cf3e e338 9e3e 6ec3 063f
00000150: 7d78 02be a940 08bf 2941 0abe d14c 0abf
00000160: 0eb5 8ebd ebca 6d3e 7f67 b63e 6f5c acbd
00000170: 590f 0b3f c479 113f 081d 37be 5e47 0e3f
00000180: 8bc6 cfbe d079 9a3e 7b0a eb3e 47de 84be
00000190: 0353 0a3f d0c7 c1bd 1900 e63e 0921 393b
000001a0: f7c6 083f 0b7f 7e3e f8b5 6f3e 50f2 b9be
000001b0: 22fc 43be 3c91 9ebe 2473 ad3e 2530 97be
000001c0: 6f88 6bbc b534 02bf 6ded fbbd 153d 8c3e
000001d0: 3180 84be 2e82 ecbe c1c1 0abf f6ad d4be
000001e0: a33f a13d 619b 64be 517b adbd 65a1 b03d
000001f0: b717 653d 417a bebe cd1c 85be 34b9 9fbd
00000200: b92f 143f fc52 28bd 59ef 63be 4daf e3be
00000210: 28c1 fabe 719f 71bd a088 dabd c424 e33e
00000220: b183 16bf e2b6 debe 0d6c a9be 0080 07be
00000230: 9a3a 0a3f 0988 8f3d 74a9 eb3e ec05 79be
00000240: cc26 173f e39e 0c3f 9471 a13e c770 0a3f
00000250: ad7e b6be 3d8f 0d3f c1a7 fc3d 4e04 3abd
00000260: bb38 173f c550 173f b832 97be 5a74 f63e
00000270: c5e6 9f3e 0c76 f8be d48a ddbe 273b 963e
00000280: 5ac7 2e3e 3879 8dbe 926e 313d 200a bcbe
00000290: efb2 0abe 2cef bdbd ec3b a33e a71c 0d3d
000002a0: c00b 1abf 1aa8 8b3e c636 06bf 47b3 98be
000002b0: 4842 04bf 03ed 0e3e b347 f8bd f41b d73e
000002c0: 3ad0 8a3e f84f 53be ec6b 11bf 96d7 843e
000002d0: 8b0c 953e e1f2 f2be 6497 3ebc 0603 89be
000002e0: a1ec 00bf 6c58 b6be ea7f b83e 7bfb 3bbe
000002f0: ba81 9dbe 5c1b 1ebe 7273 3f3d 4ff3 d4bc
00000300: 6837 a33e f996 acbe 4f5a e73e 32fa b73e
00000310: ae67 f73e 3b15 9c3e 1344 0a3f 97ef 7a3e
00000320: e989 14be 3fb2 a3bd 369e 833e aaec 0abf
00000330: d7b2 933e f1be e6be 7202 08bf a314 343d
00000340: 13d5 0f3f 20e2 97bc 6ab6 d43e 6138 f6be
00000350: af5c b03e 38b4 c83e 844f c73e 9c84 e4be
00000360: 3e3a 133f 8e09 b3be 2fb6 d13e f3bc d63e
00000370: 85f1 143f 8193 71be b236 12be 45ed f6be
00000380: f417 d3be e853 2e3d 4649 92be 6aed ff3e
00000390: f6a4 c2be fe46 a73e 1cce 0e3f 16d3 82be
000003a0: e2d4 e63d b570 b63e 3a18 fabe 06bf debe
000003b0: 38ee e0be 0cf2 02bf 48ef 0c3f f3d1 d6be
000003c0: cc2b b4be 81c7 7cbc f6e3 8ebe d13d 47be
000003d0: 339c 083e c1c1 a5be 7b54 ddbc dec8 703e
000003e0: 5af9 19bf cd0a 04bf 0a16 8c3c 5d4f 9cbe
000003f0: 16d4 e9bd 1020 d9be fa94 9fbe 2dd4 febd

network.0.bias f4 [256]
-0.29490492 -0.20854098 0.22033337 0.20461164 0.21218815 0.38301456 0.19823506 0.4469356
-0.37835187 -0.5380459 0.19266978 0.40407127 0.04348951 -0.56964564 0.58016485 0.20973836
-0.35780767 -0.3347263 0.49760452 -0.4132811 -0.1617083 0.4858757 0.008557596 -0.12427719
0.26232052 -0.24521436 -0.48955917 0.08968546 0.06845803 -0.24357435 0.38353395 0.37763932
-0.034615763 -0.28314078 0.09173849 0.26431748 -0.54359823 0.40994042 -0.09209934 -0.18531762
-0.2043796 -0.15017426 -0.117780305 0.30386093 0.103165865 -0.17274018 -0.16635098 0.47647434
0.2715855 0.46357048 0.45585927 0.06463827 -0.44844544 0.09887936 0.09273956 0.2119857
-0.2590302 -0.3003873 0.38139725 0.028483497 0.15062232 0.113341436 0.4010835 0.41096777
-0.2096864 -0.5127532 -0.22351633 -0.13464867 0.106080055 -0.5590773 0.06507234 0.59237856
-0.14495397 0.26900196 0.0932435 0.42119607 -0.20357819 0.501696 -0.41452342 0.11407419
0.37734932 0.010544285 0.41293594 0.50374234 -0.46535993 -0.06673841 0.5383727 0.46418273
0.310213 0.5658673 -0.032012034 0.5341897 0.41990992 -0.015497489 -0.37260768 -0.33994615
0.22789846 -0.46450046 -0.16101687 -0.101677686 0.16420317 0.27501866 0.09652509 0.4896744
-0.17400487 -0.38674587 -0.1821019 -0.16227512 0.14895725 -0.15625186 -0.5510202 -0.44449955
-0.011508594 -0.12474052 0.6057713 0.31249067 0.03642654 -0.30271378 -0.3800227 0.0067348075
-0.33504617 0.46703327 0.15850629 -0.4150742 -0.1305818 -0.062150996 -0.3281664 0.38108066
0.5176641 -0.5225196 -0.28432134 -0.32247943 0.10852878 0.28537107 -0.20927383 0.5305904
0.2116962 -0.5601853 0.14005968 -0.11582434 -0.6021348 0.58259696 -0.11208706 0.39906988
-0.18217456 -0.45873764 -0.4040765 0.2111483 -0.041362286 -0.26756084 -0.2028252 0.44758862
0.16054581 0.07642594 0.38707924 -0.031412452 0.36968157 -0.017066883 0.26720294 0.3638485
0.59183884 0.47716254 0.29076603 0.19996828 0.042672593 -0.04665724 0.39556885 -0.01248116
0.19385985 -0.33423427 -0.37303624 -0.20602746 0.48643857 0.1324996 -0.422265 -0.13296428
-0.45032945 -0.5399753 0.5355939 -0.17297035 0.04690315 -0.4960189 0.11832587 0.028552342
-0.49980855 -0.08792673 0.0150331 0.2380702 -0.26746815 0.50176984 -0.5264241 -0.6174418
0.5230746 -0.13720302 0.21811011 0.003388359 0.25160655 0.0101264315 -0.5190104 0.36586034
0.24086587 0.005257593 0.07380158 0.05778737 -0.062310774 0.4519678 0.10932978 0.1153176
0.41054943 -0.2004857 -0.20584366 0.23915346 0.14919545 0.31667247 0.18116342 -0.045393754
0.26994622 -0.38219413 -0.5366345 -0.4953939 0.20320192 -0.2167199 -0.015081489 0.09883512
-0.50959605 0.2192301 0.1736644 -0.22489001 -0.53310645 -0.19774647 0.4333367 -0.29075447
-0.28100082 0.44506836 -0.2528467 -0.14622828 0.52953154 0.15484837 0.35656503 0.22084013
-0.51635575 -0.48195234 -0.0296311 -0.301261 0.1713048 -0.03885727 -0.20316945 0.55601925
0.5630615 -0.07931134 0.5151522 -0.5254257 0.118891194 0.51593816 -0.4176815 0.051516965
00000000: c7fd 96be c48b 55be 129f 613e b785 513e
00000010: da47 593e 7c1a c43e 22fe 4a3e bed4 e43e
00000020: 56b7 c1be 60bd 09bf 3a4b 453e 6ee2 ce3e
00000030: 0e22 323d 4cd4 11bf af85 143f a7c5 563e
00000040: 9132 b7be 3f61 abbe 05c6 fe3e 9599 d3be
00000050: dc96 25be b3c4 f83e 2935 0c3c 0a85 febd
00000060: e04e 863e 7919 7bbe 80a7 fabe 03ad b73d
00000070: b933 8c3d 8e6b 79be 905e c43e f159 c13e
00000080: 42c9 0dbd d4f7 90be 64e1 bb3d 9f54 873e
00000090: 4129 0bbf b6e3 d13e 949e bcbd e7c3 3dbe
000000a0: e348 51be 48c7 19be cd36 f1bd a993 9b3e
000000b0: a048 d33d cde2 30be e957 2abe 72f4 f33e
000000c0: 410d 8b3e 1c59 ed3e 6366 e93e 1261 843d
000000d0: a49a e5be 4381 ca3d 3dee bd3d c812 593e
000000e0: 9b9f 84be 5dcc 99be 8046 c33e 3956 e93c
000000f0: bd3c 1a3e 8e1f e83d d15a cd3e 5e6a d23e
00000100: 08b8 56be cb43 03bf 77e1 64be 57e1 09be
00000110: 8040 d93d b11f 0fbf a644 853d 1fa6 173f
00000120: d06e 14be a0ba 893e 73f6 be3d 03a7 d73e
00000130: cd76 50be 266f 003f 6a3c d4be bb9f e93d
00000140: ee33 c13e f0c1 2c3c 576c d33e 42f5 003f
00000150: a843 eebe 26ae 88bd cbd2 093f 5ca9 ed3e
00000160: 3dd4 9e3e aedc 103f 0d1f 03bd a8c0 083f
00000170: 6ffe d63e 2ee9 7dbc 6fc6 bebe 6c0d aebe
00000180: 375e 693e 01d3 edbe 9be1 24be 643c d0bd
00000190: e024 283e 3fcf 8c3e f2ae c53d 9ab6 fa3e
000001a0: 552e 32be 8e03 c6be ec78 3abe 732b 26be
000001b0: 4088 183e 7d00 20be a90f 0dbf 7295 e3be
000001c0: 8b8e 3cbc f577 ffbd d413 1b3f c7fe 9f3e
000001d0: ff33 153d 4dfd 9abe 5692 c2be a9af dc3b
000001e0: 2c8b abbe fc1e ef3e 794f 223e 9b84 d4be
000001f0: 3cb7 05be 0b92 7ebd 6d05 a8be 011d c33e
00000200: a285 043f d8c3 05bf 9192 91be 061c a5be
00000210: 5644 de3d 281c 923e e14b 56be c6d4 073f
00000220: e3c6 583e 4e68 0fbf ce6b 0f3e 5035 edbd
00000230: 8225 1abf 1325 153f e78d e5bd e352 cc3e
00000240: f88b 3abe a9df eabe 1de3 cebe 4337 583e
00000250: 806b 29bd bcfd 88be 69b1 4fbe 562a e53e
00000260: 1f66 243e 3485 9c3d 402f c63e 58aa 00bd
00000270: e746 bd3e d9cf 8bbc d3ce 883e 5a4a ba3e
00000280: c082 173f a64e f43e 49df 943e 7cc4 4c3e
00000290: 75c9 2e3d a91b 3fbd 0088 ca3e c87d 4cbc
000002a0: 3283 463e c120 abbe 9bfe bebe ddf8 52be
000002b0: 7a0e f93e faad 073e 1e33 d8be ca27 08be
000002c0: 9591 e6be d23b 0abf af1c 093f 241f 31be
000002d0: 841d 403d 30f6 fdbe d554 f23d 9ae6 e93c
000002e0: e8e6 ffbe ee12 b4bd 644d 763c adc8 733e
000002f0: 96f1 88be fd73 003f bbc3 06bf aa10 1ebf
00000300: 38e8 053f f37e 0cbe 4258 5f3e 3b0f 5e3b
00000310: 93d2 803e 55e9 253c dedd 04bf 0c52 bb3e
00000320: 8ba5 763e e347 ac3b 4825 973d 73b2 6c3d
00000330: 9539 7fbd 5368 e73e 4be8 df3d a22b ec3d
00000340: 8933 d23e 204c 4dbe aec8 52be a5e4 743e
00000350: b1c6 183e e522 a23e e782 393e cdee 39bd
00000360: 6436 8a3e f3ae c3be e160 09bf 45a4 fdbe
00000370: 2a14 503e d2eb 5dbe 5a18 77bc 116a ca3d
00000380: e374 02bf db7d 603e 15d5 313e 9149 66be
00000390: aa79 08bf 0d7e 4abe 4fde dd3e c5dd 94be
000003a0: 57df 8fbe 00e0 e33e 1f75 81be debc 15be
000003b0: 618f 073f 9290 1e3e b18f b63e ea23 623e
000003c0: e42f 04bf 75c2 f6be ecbc f2bc e23e 9abe
000003d0: 876a 2f3e cd28 1fbd a70b 50be 4757 0e3f
000003e0: cc24 103f fc6d a2bd 04e1 033f 4c82 06bf
000003f0: 3a7d f33d 8614 043f 59da d5be 7403 533d

network.2.weight f4 [128, 256]
0.03988602 -0.07040987 0.0067266095 0.046209905 0.09004269 -0.02827511 -0.04012929 0.030479804
0.036980953 0.030503122 -0.037108537 -0.014582404 0.01683705 -0.024537574 -0.08544642 0.019488672
-0.007984279 0.036501404 -0.089837484 0.012283221 -0.005767698 -0.026980918 -0.011606859 -0.015066461
-0.006883892 0.045559645 -0.07048254 -0.046986375 -0.051485036 0.008470579 -0.01230593 0.050304066
-0.06806182 -0.25566533 0.03358296 -0.009877898 0.033827677 -0.012945042 0.18456459 -0.004146366
-0.06704941 0.05380896 -0.08625131 0.06406541 -0.038622584 -0.039558057 -0.04649148 0.018676827
0.022474347 0.08180897 0.030102924 0.07425064 0.03549706 0.021321673 0.04382551 0.051685307
0.03294236 0.030178223 -0.0024510217 -0.06618262 0.015779963 -0.029647833 0.025026523 0.027389113
0.06645764 -0.022040736 0.05408331 -0.0043343073 0.044430476 -0.078339085 0.05611843 0.033239022
-0.0015173639 0.021244815 0.05335532 -0.025371492 0.021117853 0.01786196 -0.017343229 0.062748045
0.034414556 0.0593612 0.027278157 -0.01817094 0.006970345 0.052889325 -0.03143927 -0.027430035
-0.010328459 -0.043188743 -0.0025009313 -0.029211981 -0.028168563 0.010323932 -0.021414157 -0.027579691
-0.022581507 -0.006821043 0.02892371 0.0039368644 0.020386837 0.018069968 -0.008307969 0.0757203
0.0018730327 0.018693028 0.0277348 0.054843113 0.06637358 -0.0809236 0.018920027 0.06408984
0.06888916 -0.029521585 0.018623244 0.014589421 0.048388314 0.032345094 -0.025904985 0.11895746
-0.040861312 0.05669874 0.036831 0.0696993 0.03110362 0.068816744 -0.010967169 -0.059371825
-0.0064705834 0.07901907 0.03784474 -0.018706162 0.05661461 -0.047028624 0.02417562 -0.03275991
0.028865157 -0.030963019 0.010413647 -0.018456927 0.035982173 -0.01429137 -0.03742528 -0.035698995
0.039127693 -0.0565463 0.04403145 0.07963325 0.056373253 0.03508164 0.027686013 0.003881024
-0.049102243 -0.018988935 -0.054401573 -0.035737943 0.007811864 -0.010778207 0.0419379 -0.02567084
0.022407025 0.0008143058 -0.030692078 0.028807472 0.0067782667 -0.020632707 -0.038194306 0.051657256
-0.0007092913 -0.010360006 0.021067047 -0.00047409083 0.025373075 0.0822847 0.03099388 0.066951275
-0.00959232 0.036808368 -0.013202328 -0.014830303 -0.011405478 0.010558223 -0.023466183 -0.09292533
-0.0020965887 0.02005306 -0.022509191 -0.04150739 -0.0031574243 0.07954388 0.01923395 0.0073645352
0.0798689 -0.041791882 -0.05368206 -0.018057227 -0.01484113 -0.012263344 -0.060049273 -0.032658458
0.055798903 -0.033168662 -0.019507453 -0.029105369 -0.064852566 0.03548651 0.026003577 0.013676205
-0.020118147 -0.046896324 0.054205757 -0.014627689 -0.021820685 0.073623575 -0.01053039 -0.043360222
0.06158516 0.07247453 -0.028983817 0.048041612 -0.050355665 -0.037677463 -0.046503473 -0.06465978
0.014931438 -0.07061759 -0.008427724 0.022354707 -0.03713423 -0.11184329 -0.023796149 -0.058237974
0.03111863 -0.03549149 0.1683283 0.044940475 0.06921182 -0.040945437 -0.047346827 -0.08323112
-0.084028505 0.015556131 -0.007544478 -0.01844439 0.007961595 0.032269612 0.014395838 0.012377274
0.051217582 0.052792583 -0.028065113 0.010532279 -0.042494494 0.04023688 0.031396344 0.04440045
00000000: 865f 233d 0d33 90bd e46a dc3b 9946 3d3d
00000010: 4d68 b83d 34a1 e7bc 9c5e 24bd c8b0 f93c
00000020: 5779 173d afe1 f93c 1fff 17bd 09eb 6ebc
00000030: daed 893c 0603 c9bc 88fe aebd b5a6 9f3c
00000040: 7ed0 02bc 7f82 153d b7fc b7bd 903f 493c
00000050: f5fe bcbb 1607 ddbc b22a 3ebc 51d9 76bc
00000060: 4692 e1bb c09c 3a3d 2659 90bd c974 40bd
00000070: f9e1 52bd 2fc8 0a3c d09e 49bc a30b 4e3d
00000080: ff63 8bbd 91e6 82be 498e 093d e8d6 21bc
00000090: e48e 0a3d 7117 54bc 80fe 3c3e 3dde 87bb
000000a0: 3351 89bd c966 5c3d 87a4 b0bd ba34 833d
000000b0: b732 1ebd a107 22bd da6d 3ebd 2500 993c
000000c0: 1f1c b83c 768b a73d 689a f63c b810 983d
000000d0: 5d65 113d caaa ae3c 6182 333d f9b3 533d
000000e0: 91ee 063d 5238 f73c 52a1 20bb c18a 87bd
000000f0: fb44 813c 03e0 f2bc 6c04 cd3c 225f e03c
00000100: f11a 883d c68e b4bc 7686 5d3d ce06 8ebb
00000110: bbfc 353d 3e70 a0bd 70dc 653d a425 083d
00000120: 49e2 c6ba 9b09 ae3c 1c8b 5a3d e0d7 cfbc
00000130: 59ff ac3c 3f53 923c 6313 8ebc 0c82 803d
00000140: 47f6 0c3d bb24 733d 7176 df3c 39db 94bc
00000150: 7e67 e43b 7aa2 583d 77c6 00bd f4b4 e0bc
00000160: b238 29bc aee6 30bd aae6 23bb f74d efbc
00000170: c2c1 e6bc b625 293c be6c afbc ceee e1bc
00000180: dafc b8bc 0e83 dfbb 6bf1 ec3c d000 813b
00000190: 4c02 a73c 7807 943c 261e 08bc 3f13 9b3d
000001a0: 8c80 f53a 1f22 993c 1734 e33c 2ca3 603d
000001b0: dfee 873d 46bb a5bd 2cfe 9a3c 8941 833d
000001c0: c315 8d3d 40d7 f1bc c68f 983c 7808 6f3c
000001d0: d332 463d 4a7c 043d b136 d4bc f89f f33d
000001e0: 315e 27bd f03c 683d 1adc 163d 82be 8e3d
000001f0: 05cd fe3c cbef 8c3d a4af 33bc df2f 73bd
00000200: 3007 d4bb c0d4 a13d 1603 1b3d aa3d 99bc
00000210: b9e4 673d 16a1 40bd f30b c63c 412f 06bd
00000220: 9f76 ec3c 28a6 fdbc 009e 2a3c fb32 97bc
00000230: 0b62 133d 5a26 6abc 404b 19bd 1c39 12bd
00000240: 5c44 203d 189d 67bd 525a 343d c216 a33d
00000250: a4e7 663d c4b1 0f3d c7cd e23c c758 7e3b
00000260: 6f1f 49bd af8e 9bbc 2fd4 5ebd f361 12bd
00000270: aafa ff3b 1497 30bc 13c7 2b3d a74b d2bc
00000280: f08e b73c 2377 553a f46d fbbc a6fd eb3c
00000290: 391c de3b ec05 a9bc a271 1cbd 8f96 533d
000002a0: bcef 39ba 04bd 29bc cd94 ac3c 658f f8b9
000002b0: 32db cf3c e184 a83d e1e6 fd3c c01d 893d
000002c0: 1b29 1dbc 5fc4 163d 944e 58bc cdfa 72bc
000002d0: 0bde 3abc 66fc 2c3c 273c c0bc a34f bebd
000002e0: ec66 09bb 5146 a43c 3265 b8bc a703 2abd
000002f0: caec 4ebb e7e7 a23d 8490 9d3c 3352 f13b
00000300: 4e92 a33d f72d 2bbd b8e1 5bbd c0ec 93bc
00000310: 3628 73bc 31ec 48bc 3af6 75bd e0c4 05bd
00000320: 648d 643d dddb 07bd 18ce 9fbc 626e eebc
00000330: 6cd1 84bd 4d5a 113d 7405 d53c 2912 603c
00000340: d0ce a4bc 5c16 40bd db06 5e3d f9a8 6fbc
00000350: 4bc1 b2bc f5c7 963d a887 2cbc 7d9a 31bd
00000360: b940 7c3d 876d 943d 786f edbc 48c7 443d
00000370: be41 4ebd af53 1abd 6d7a 3ebd 596c 84bd
00000380: fda2 743c f49f 90bd 7014 0abc 3821 b73c
00000390: 101a 18bd 180e e5bd 24f0 c2bc f18a 6ebd
000003a0: 7fec fe3c 865f 11bd 415e 2c3e 8113 383d
000003b0: edbe 8d3d 67b6 27bd bfee 41bd 1475 aabd
000003c0: 2317 acbd 24df 7e3c ab37 f7bb b018 97bc
000003d0: 5a71 023c 242d 043d 85dc 6b3c 0dca 4a3c
000003e0: 87c9 513d 093d 583d cfe8 e5bc 948f 2c3c
000003f0: b50e 2ebd 6dcf 243d 7499 003d 3fdd 353d

network.2.bias f4 [128]
0.05440582 0.022674274 -0.0014925476 0.025806002 0.0068685794 -0.044533826 -0.020118326 0.045029823
0.047618516 0.0067772428 0.017095655 0.044636957 -0.020289615 -0.03041706 0.012157485 0.0645838
0.014092357 0.0265782 0.029781481 -0.0042186948 -0.036712967 0.06019083 -0.05405459 -0.05392688
-0.020992568 -0.047186594 -0.01895602 -0.03990078 0.0744684 -0.022883935 -0.036669202 0.06439465
0.0015057379 -0.044307344 -0.027660988 0.008365096 0.057916388 0.04953134 0.036019426 0.045473784
0.05492441 0.016420549 -0.044326317 0.003343235 0.0303792 -0.037352767 -0.04253225 -0.037148453
-0.030598134 0.011495758 -0.014732152 0.0016175851 -0.014983003 0.009839299 -0.016377965 -0.0013707682
-0.036747787 0.10109754 -0.03722717 0.021970235 -0.027140813 0.06472163 0.06119228 0.015408775
-0.06159033 -0.044132963 -0.019441662 0.027859526 -0.00012269424 -0.012328652 0.008097925 0.007599129
0.008554589 0.008520933 0.019688586 -0.053561952 0.06812988 -0.052917942 0.06836402 -0.015173566
0.07776239 -0.05680823 0.055436395 0.043062717 -0.019608935 0.039226077 0.02328279 0.08132832
-0.0025584013 0.0817901 0.06715144 0.029101064 0.026834477 0.081457935 0.041551698 -0.046986073
-0.048150055 0.037749447 -0.010756485 -0.023252714 -0.012312904 -0.05173485 0.047439802 0.07457074
0.018893154 0.021303765 -0.057906438 -0.004600638 4.929987e-05 0.050796285 0.018696504 -0.011084726
0.045343567 -0.0255237 0.03428989 0.056787595 0.056260798 0.062525354 0.053316936 0.023550428
0.07058399 0.041970577 0.0732929 0.09129698 -0.012083012 0.06074669 0.002840488 0.06662384
00000000: a3d8 5e3d 66bf b93c 96a1 c3ba 1c67 d33c
00000010: d211 e13b 1a69 36bd 30cf a4bc 3171 383d
00000020: a20b 433d a213 de3b 300c 8c3c 3ed5 363d
00000030: 6836 a6bc 332d f9bc 3030 473c 8344 843d
00000040: a1e3 663c 86ba d93c 4bf8 f33c fa3c 8abb
00000050: 5660 16bd a98a 763d 5968 5dbd 6fe2 5cbd
00000060: 9bf8 abbc bb46 41bd a849 9bbc 006f 23bd
00000070: e382 983d 1777 bbbc 7232 16bd 58e1 833d
00000080: 2e5c c53a 9e7b 35bd 4c99 e2bc c10d 093c
00000090: bc39 6d3d 60e1 4a3d 1b89 133d b842 3a3d
000000a0: 6bf8 603d 6384 863c 838f 35bd 2d1a 5b3b
000000b0: cddd f83c 37ff 18bd 4c36 2ebd fa28 18bd
000000c0: f0a8 fabc b458 3c3c 205f 71bc 2605 d43a
000000d0: 457b 75bc 0335 213c 152b 86bc 59ab b3ba
000000e0: d984 16bd 3a0c cf3d 847b 18bd ecfa b33c
000000f0: 6956 debc c68c 843d c2a4 7a3d 1675 7c3c
00000100: 2446 7cbd c4c4 34bd 1f44 9fbc a939 e43c
00000110: 7ca7 00b9 1dfe 49bc 29ad 043c 1d02 f93b
00000120: 8c28 0c3c 629b 0b3c f549 a13c c763 5bbd
00000130: ae87 8b3d 7cc0 58bd 6f02 8c3d 8c9a 78bc
00000140: e341 9f3d bfaf 68bd 4611 633d 8862 303d
00000150: eba2 a0bc 86ab 203d 8dbb be3c 768f a63d
00000160: daaa 27bb 9181 a73d b286 893d 5b65 ee3c
00000170: fad3 db3c 6bd3 a63d 1d32 2a3d 7874 40bd
00000180: fe38 45bd 2a9f 1a3d f83b 30bc 7a7c bebc
00000190: 10bc 49bc ece7 53bd 3d50 423d 8bb8 983d
000001a0: d1c5 9a3c 3c85 ae3c 4d2f 6dbd f3c0 96bb
000001b0: 55c7 4e38 c40f 503d 6929 993c b69c 35bc
000001c0: 2dba 393d 1417 d1bc 8e73 0c3d 1c9a 683d
000001d0: b971 663d 4b0d 803d dc62 5a3d d4ec c03c
000001e0: 578e 903d 57e9 2b3d 971a 963d e9f9 ba3d
000001f0: d3f7 45bc 85d1 783d 7b27 3a3b 1472 883d

network.4.weight f4 [64, 128]
-0.01436143 0.019292425 -0.042626385 0.013340468 -0.102017954 -0.07675038 0.09625329 0.06884878
-0.001868157 0.046655394 -0.009463095 0.3535774 -0.051098015 0.07101011 -0.018420093 0.0908492
0.22174385 -0.05587486 -0.052001633 -0.038723428 -0.045636658 -0.003491266 0.36182663 0.06294847
0.12779306 0.02642494 -0.06343567 0.06686703 0.08164987 -0.103841215 0.056267444 -0.12361255
0.0049515124 0.078469105 -0.008206576 -0.06445761 0.09779337 -0.034938835 0.052586578 0.051859617
0.0740275 -0.032709327 -0.051435214 -0.15059628 0.017693628 0.0266171 -0.051978607 0.05316083
0.03809351 -0.13197401 0.013387219 -0.16754524 -0.033196498 0.069746405 0.040653117 -0.014801974
-0.013635247 0.07553339 0.034586016 -0.016349258 0.09718849 -0.04411423 0.29711843 0.060134668
-0.024725469 -0.042486876 0.01597271 0.06787994 0.019240148 0.052288417 -0.0002731817 0.059244752
0.099876605 -0.00082680676 0.14832525 0.06508361 0.014081514 0.34674984 0.10321074 0.08542749
-0.07328794 0.001975417 0.004135833 -0.0005669383 -0.021599296 -0.023058712 0.00084914535 0.098773524
-0.07198812 0.06784096 0.116208725 0.09200167 -0.087783925 0.012264017 0.0043172687 0.093541875
-0.08791743 0.04538204 -0.052192662 0.00031043074 0.29618254 0.055685923 -4.767281e-05 0.030203788
0.060144775 -0.10327247 -0.06702288 -0.12495105 -0.096290655 -0.07690913 0.06478182 -0.040320054
-0.021603733 0.023288779 -0.09568702 -0.016678568 -0.10329405 0.037968297 -0.10905203 -0.069919676
0.05128935 0.032062855 -0.048766077 -0.0722891 0.08267236 -0.04771393 0.26374358 0.10539153
0.11882529 -0.009028932 -0.070670225 0.059848096 -0.0053334404 -0.07405126 0.051949546 0.023891598
0.04878826 -0.030609159 -0.016332606 0.24365452 -0.06062799 0.019945307 -0.014943148 0.08914195
0.14102042 0.051859733 0.046847273 0.095399365 0.05955854 0.04232742 0.2825312 0.0007590058
0.084847 0.15338506 -0.031787083 0.059766937 -0.05622152 -0.054655436 0.057408717 -0.12951611
0.070877366 0.022712568 0.052900005 -0.045024373 -0.07276058 -0.06078932 0.07844097 0.0756699
0.052360635 0.033419408 -0.068941765 -0.012875794 -0.055829786 0.5257731 0.062159974 0.022849102
-0.067547016 -0.07129742 0.076246105 -0.057415564 0.02950984 0.019918317 -0.05858596 -0.06310959
-0.08291156 0.08757184 0.04274133 -0.010198835 0.12652446 0.07284842 0.33004144 0.08493862
-0.043546166 0.05987436 0.061938062 0.062227525 0.092538804 -0.023377886 0.024044134 0.03846831
0.038599703 -0.0014169617 0.118113644 0.10575771 -0.008760721 0.33050555 0.041688357 -0.009688909
0.031207731 0.044870384 -0.06967194 0.023011094 -0.015910445 -0.00048993283 -0.075493574 -0.004527997
-0.081704766 -0.0034166933 -0.00087819755 0.06642254 0.027885567 0.058940135 -0.013306107 0.029862128
-0.074578255 0.06866292 -0.06693528 -0.028063012 0.29257774 -0.06738733 -0.04215827 -0.047396116
0.116253495 -0.02362031 0.019143332 0.07589568 0.04430789 0.06272032 -0.048755288 -0.05618348
0.10361347 -0.08330294 0.044877306 0.068222515 -0.05949937 0.107522555 -0.05195808 -0.07537067
0.017793262 0.06945818 0.0075790393 0.0073563736 0.09760936 0.011702947 0.32312593 0.0072297524
00000000: 344c 6bbc 260b 9e3c 0199 2ebd fa91 5a3c
00000010: caee d0bd 4e2f 9dbd 7220 c53d 9700 8d3d
00000020: f2dc f4ba ba19 3f3d 190b 1bbc 1908 b53e
00000030: 274c 51bd c06d 913d bce5 96bc 250f ba3d
00000040: d210 633e 0add 64bd aaff 54bd 759c 1ebd
00000050: 81ed 3abd b9cd 64bb 5741 b93e 21eb 803d
00000060: 2fdc 023e 1e79 d83c 90ea 81bd 95f1 883d
00000070: 0c38 a73d b4aa d4bd b178 663d 9428 fdbd
00000080: 4c40 a23b 69b4 a03d e074 06bc 5a02 84bd
00000090: e447 c83d 061c 0fbd 0665 573d c06a 543d
000000a0: bb9b 973d 37fa 05bd bbad 52bd e935 1abe
000000b0: 3af2 903c 1b0c da3c 85e7 54bd 2cbf 593d
000000c0: f107 1c3d 3224 07be 1156 5b3c fb90 2bbe
000000d0: 0df9 07bd 34d7 8e3d e283 263d fb83 72bc
000000e0: 5f66 5fbc 40b1 9a3d 11aa 0d3d e1ee 85bc
000000f0: c20a c73d 1fb1 34bd e81f 983e c54f 763d
00000100: 118d cabc b806 2ebd 33d9 823c a304 8b3d
00000110: 849d 9d3c 612c 563d d439 8fb9 a0aa 723d
00000120: 1b8c cc3d 10be 58ba 93e2 173e 8e4a 853d
00000130: 27b6 663c 3289 b13e 2760 d33d 9cf4 ae3d
00000140: fd17 96bd ff75 013b e285 873b 969e 14ba
00000150: 02f1 b0bc a0e5 bcbc 2e99 5e3a c649 ca3d
00000160: 826e 93bd 34f0 8a3d d7fe ed3d 5f6b bc3d
00000170: 0fc8 b3bd 04ef 483c e077 8d3b e292 bf3d
00000180: 0e0e b4bd 85e2 393d f9c7 55bd 4fc1 a239
00000190: 3da5 973e ec16 643d 4af4 47b8 ef6d f73c
000001a0: 5e5a 763d 8480 d3bd 4b43 89bd 56e6 ffbd
000001b0: 0934 c5bd 8982 9dbd 55ac 843d a426 25bd
000001c0: 50fa b0bc 1cc8 be3c 8ef7 c3bd 7ea1 88bc
000001d0: d58b d3bd a584 1b3d ac56 dfbd 0c32 8fbd
000001e0: c814 523d 5754 033d f0be 47bd 4f0c 94bd
000001f0: 2050 a93d af6f 43bd 6609 873e 84d7 d73d
00000200: ac5a f33d 16ee 13bc 8dbb 90bd 4723 753d
00000210: 24c4 aebb 30a8 97bd 0cc9 543d 50b8 c33c
00000220: 33d6 473d 0fc0 fabc f5cb 85bc 9280 793e
00000230: 0e55 78bd 5764 a33c 1bd4 74bc 0e90 b63d
00000240: a867 103e df6a 543d ede2 3f3d be60 c33d
00000250: a8f3 733d 845f 2d3d eea7 903e 04f8 463a
00000260: 44c4 ad3d f910 1d3e 2c33 02bd 2dce 743d
00000270: 8948 66bd 61de 5fbd 6725 6b3d df9f 04be
00000280: 2728 913d b50f ba3c adad 583d 7a6b 38bd
00000290: 8003 95bd 39fe 78bd a9a5 a03d d2f8 9a3d
000002a0: 1b78 563d cae2 083d 5731 8dbd fff4 52bc
000002b0: c6ad 64bd 1199 063f 759b 7e3d 0a2e bb3c
000002c0: 1756 8abd 6204 92bd eb26 9c3d 952c 6bbd
000002d0: 9fbe f13c bd2b a33c d5f7 6fbd 9a3f 81bd
000002e0: 89cd a9bd dd58 b33d 8811 2f3d 0419 27bc
000002f0: a18f 013e 8d31 953d 31fb a83e 4df4 ad3d
00000300: 775d 32bd d13e 753d c4b2 7d3d 4ae2 7e3d
00000310: fc84 bd3d fb82 bfbc 34f8 c43c f290 1d3d
00000320: b91a 1e3d 58b9 b9ba 91e5 f13d 8097 d83d
00000330: 2189 0fbc 0638 a93e 69c1 2a3d 3bbe 1ebc
00000340: 5ba7 ff3c 02ca 373d 29b0 8ebd c381 bc3c
00000350: 9f56 82bc d66e 00ba 609c 9abd 985f 94bb
00000360: d454 a7bd 9aea 5fbb d736 66ba 8a08 883d
00000370: 4670 e43c 366b 713d dc01 5abc 6ca1 f43c
00000380: 7cbc 98bd 259f 8c3d 5d15 89bd 67e4 e5bc
00000390: c0cc 953e 5e02 8abd 26ae 2cbd 6e22 42bd
000003a0: 5016 ee3d 617f c1bc 7ad2 9c3c 326f 9b3d
000003b0: 317c 353d 8373 803d a0b3 47bd a620 66bd
000003c0: 4d33 d43d bb9a aabd 44d1 373d 3fb8 8b3d
000003d0: 9db5 73bd c934 dc3d ffd1 54bd f05b 9abd
000003e0: 2dc3 913c 1740 8e3d 9759 f83b bc0d f13b
000003f0: 6be7 c73d b8bd 3f3c c370 a53e 8fe7 ec3b

network.4.bias f4 [64]
0.04658223 0.07550841 -0.03871249 0.021561513 0.026514059 0.051092174 0.09529757 -0.029191494
-0.06352701 0.021466143 0.043685958 -0.08459641 -0.036875997 0.09840977 0.09838084 0.0961971
-0.06015423 -0.03622742 -0.071455844 0.07677295 0.025295554 -0.067636505 -0.05790468 0.059822068
-0.08245726 -0.04967763 -0.041930404 -0.07389749 -0.03466293 -0.008584999 0.052297644 -0.075313374
0.022610258 0.08942407 0.06724755 -0.05421871 0.061978497 -0.046292074 0.031142233 0.011049821
0.05487388 -0.023754494 0.057397753 0.023021413 0.06777337 0.03920093 0.023177428 0.0077060987
0.062738225 -0.023386896 -0.07030577 0.052052535 0.064418495 0.011961339 0.031091008 -0.030487914
0.053857125 0.024456222 0.019613115 -0.0041225636 0.009033492 0.06782555 0.027577853 -0.0050187935
00000000: 02cd 3e3d 27a4 9a3d fd90 1ebd c5a1 b03c
00000010: 0334 d93c 0746 513d 5f2b c33d 0023 efbc
00000020: 731a 82bd c4d9 af3c 0cf0 323d e240 adbd
00000030: 490b 17bd 108b c93d e57b c93d fc02 c53d
00000040: 4864 76bd 3463 14bd 7157 92bd 233b 9d3d
00000050: 9f38 cf3c 0285 8abd 752d 6dbd fc07 753d
00000060: 5adf a8bd c57a 4bbd 37bf 2bbd 9157 97bd
00000070: b7fa 0dbd 18a8 0cbc 0e36 563d e63d 9abd
00000080: 2639 b93c f823 b73d 15b9 893d 7014 5ebd
00000090: 2add 7d3d c29c 3dbd ff1d ff3c 4f0a 353c
000000a0: 6fc3 603d c998 c2bc e819 6b3d 6797 bc3c
000000b0: c4cc 8a3d 2891 203d 97de bd3c 7183 fc3b
000000c0: e67c 803d e095 bfbc 79fc 8fbd 0a35 553d
000000d0: d8ed 833d 7ef9 433c 92b2 fe3c cac1 f9bc
000000e0: 4a99 5c3d 6a58 c83c afab a03c 9216 87bb
000000f0: 3601 143c 1fe8 8a3d f3ea e13c b174 a4bb

network.6.weight f4 [1, 64]
0.12773204 0.08111806 -0.07133035 -0.06381028 0.104982 0.13973747 -0.066999584 0.17497575
-0.16360717 -0.074698664 -0.16095844 -0.31688088 0.15826954 -0.15173197 -0.044589393 0.12551644
-0.09799528 0.33217406 -0.06991439 0.21560861 -0.16049463 0.28920805 -0.17679314 0.5073884
-0.08167326 -0.07849166 -0.036305584 -0.03713748 0.2718032 0.16558105 0.51157725 -0.40210524
-0.11110905 0.15888578 -0.14232479 0.10774372 -0.16589518 -0.0031459332 0.15921757 0.1682042
-0.09205887 0.17715625 -0.15954112 -0.04576874 -0.18517229 0.020501385 0.19368967 -0.108592816
-0.10766573 0.27226573 -0.6208385 0.3155697 -0.14756486 -0.096302316 -0.08896323 -0.11703545
-0.067341514 0.18565795 -0.13776292 -0.11341679 0.1732337 -0.056915194 -0.03130229 -0.17076
00000000: 30cc 023e 3a21 a63d a615 92bd f7ae 82bd
00000010: ce00 d73d 5717 0f3e 1437 89bd d82c 333e
00000020: a388 27be 9dfb 98bd 4ad2 24be 363e a2be
00000030: 6911 223e a05f 1bbe 5ea3 36bd 6287 003e
00000040: c0b1 c8bd b812 aa3e 472f 8fbd 81c8 5c3e
00000050: b458 24be 1413 943e 4309 35be 35e4 013f
00000060: 4f44 a7bd 3cc0 a0bd 2ab5 14bd 781d 18bd
00000070: ca29 8b3e 148e 293e baf6 023f bde0 cdbe
00000080: 248d e3bd f4b2 223e 97bd 11be bda8 dc3d
00000090: 6de0 29be 002c 4ebb ee09 233e b93d 2c3e
000000a0: 5c89 bcbd 7368 353e bf5e 23be 0178 3bbd
000000b0: ce9d 3dbe 85f2 a73c 9656 463e e965 debd
000000c0: da7f dcbd 6a66 8b3e 46ef 1ebf 5a92 a13e
000000d0: 3e1b 17be 263a c5bd 5b32 b6bd 48b0 efbd
000000e0: 59ea 89bd 1e1d 3e3e b911 0dbe 1047 e8bd
000000f0: 2d64 313e e81f 69bd d436 00bd b6db 2ebe
