models/most_importances_NN_Nd_max_k_fold_0.pth (torch, 176359 bytes, 7 tensors)

network.0.weight f4 [256, 7]
-0.28347015 0.03288498 -0.32270795 0.21454084 0.37194848 -0.051996276 0.13632627 0.3471022
-0.047924064 -0.08355038 -0.30631363 0.36241877 -0.33211645 -0.02639535 0.28268126 -0.1780615
-0.39879277 -0.3318425 0.034154866 -0.11941258 0.3695856 0.22708225 -0.2041302 0.03946095
0.3186615 -0.11210868 0.31089017 0.25257534 0.2980863 -0.3467333 -0.29993364 0.29654598
0.122948326 0.36845925 0.34057647 0.10687183 -0.041946486 -0.31528223 0.23618501 -0.07711641
-0.1583677 -0.2402766 0.18643421 0.14709538 0.38252482 -0.014479699 0.13523374 -0.021562757
-0.30623958 0.31846556 -0.1668569 -0.28474736 0.03745199 0.16121985 -0.0029049728 -0.18355675
-0.27121788 0.20536366 -0.2565225 0.32635102 0.069875084 0.025888484 -0.39094153 -0.043397937
0.121759206 0.34037203 -0.1338218 -0.13067879 -0.15632527 -0.28918487 0.2674035 -0.16753435
0.35605124 0.24970627 -0.3658273 0.38698268 0.31372112 -0.115783766 -0.10124655 0.20517185
-0.08455756 -0.12480202 0.39170498 0.36771932 -0.2822639 -0.017413944 0.2637751 -0.11454092
0.082788676 -0.05946273 0.4027594 -0.049814124 0.19261707 -0.124198884 -0.4340369 0.15647154
0.14210252 -0.110142276 0.38058355 0.093312696 -0.18609592 -0.17819695 0.13846545 -0.2970905
0.16117606 0.07281557 -0.25195104 0.041582186 0.21778797 0.28281754 0.34443334 0.02117376
-0.35775757 -0.30817676 0.24386927 0.065588154 -0.2824826 -0.31317127 -0.02104252 -0.2669191
0.26803184 -0.22737934 0.11791718 -0.028493602 -0.20125932 -0.13613337 -0.020164866 -0.35254237
0.39922893 -0.15332529 -0.29507884 -0.065642886 0.42847446 0.08782749 0.08320012 -0.22596858
-0.15537682 -0.19356337 -0.14869836 0.06855699 0.3092231 0.08040043 -0.21983492 0.014803957
0.19335988 0.029473208 0.35771835 -0.13104734 0.3462588 -0.015943807 0.20584565 0.34596783
0.21278642 -0.37435794 -0.17373475 0.10634689 0.12924856 -0.0068377703 0.38988286 -0.31303298
-0.31996205 0.2979561 0.39789233 -0.29483184 -0.04014938 -0.14602496 -0.02936594 -0.23545027
-0.123269446 -0.34885836 0.2583083 -0.0043332586 -0.3421484 -0.14519447 0.29304734 0.26870957
0.003289877 -0.36359766 0.1911045 0.028886879 0.19447286 -0.08902574 -0.38392374 -0.30631956
0.2298595 0.2587054 -0.12251992 0.3522303 0.2217245 0.28147995 0.19414917 -0.14979035
-0.23865917 0.10772536 -0.06224872 0.003116189 -0.16011812 0.3289957 0.2981318 0.38635045
-0.02911373 0.035918176 0.1205615 0.2599554 0.1863496 -0.28393388 -0.07137324 -0.13803506
0.19265258 0.3914779 0.21679054 -0.3167825 0.15006422 -0.14468949 0.2895236 -0.045989618
0.17407736 -0.2462942 0.18692377 0.21615526 0.23821782 -0.16411714 0.28061417 0.07069826
0.24503152 -0.23613974 -0.074771754 -0.021902392 0.050867103 0.20099741 0.12181386 0.23019442
0.08104163 0.044698518 -0.34165376 -0.033200953 0.34799698 0.34513745 -0.32732195 -0.16475889
0.05757319 0.10196658 0.20403787 -0.05642652 -0.21162939 -0.038658686 -0.01837423 -0.12326253
0.089681715 0.29854557 -0.19296105 0.12618852 -0.22577222 -0.09039098 -0.21578605 -0.055072956
00000000: 0023 91be 67b2 063d fa39 a5be 98b0 5b3e
00000010: 0870 be3e 0cfa 54bd 1d99 0b3e 61b7 b13e
00000020: 064c 44bd 761c abbd 24d5 9cbe f48e b93e
00000030: 2b0b aabe 103b d8bc 99bb 903e c155 36be
00000040: 912e ccbe 43e7 a9be f9e5 0b3d 958e f4bd
00000050: 533a bd3e 4088 683e 8207 51be cea1 213d
00000060: 9a27 a33e 3c99 e5bd ff2c 9f3e 8e51 813e
00000070: c49e 983e 0787 b1be e790 99be e0d4 973e
00000080: 55cc fb3d b1a6 bc3e 0a60 ae3e 9edf da3d
00000090: 14d0 2bbd ac6c a1be 7cda 713e 35ef 9dbd
000000a0: 242b 22be 120b 76be 9ce8 3e3e 2ca0 163e
000000b0: 4bda c33e 423c 6dbc b77a 0a3e 61a4 b0bc
000000c0: 6fcb 9cbe eb0d a33e 89dc 2abe 68ca 91be
000000d0: 4267 193d d116 253e 5b61 3ebb 4df6 3bbe
000000e0: 12dd 8abe da4a 523e eb56 83be 7b17 a73e
000000f0: ab1a 8f3d 1614 d43c 7d29 c8be 09c2 31bd
00000100: e45c f93d 3e45 ae3e 9508 09be a9d0 05be
00000110: bb13 20be 0a10 94be 1de9 883e 208e 2bbe
00000120: 594c b63e 00b3 7f3e b74d bbbe 9822 c63e
00000130: 0ea0 a03e 0a20 edbd 5a5a cfbd 9218 523e
00000140: 842c adbd 3498 ffbd 8e8d c83e b545 bc3e
00000150: e584 90be b0a7 8ebc 880d 873e 6e94 eabd
00000160: 1c8d a93d 318f 73bd 7b36 ce3e e509 4cbd
00000170: 693d 453e fc5b febd 163a debe 133a 203e
00000180: 5383 113e 4692 e1bd d9db c23e ba1a bf3d
00000190: ee8f 3ebe 4379 36be e3c9 0d3e 3f1c 98be
000001a0: 560b 253e 5420 953d baff 80be 1552 2a3d
000001b0: cf03 5f3e 76cd 903e 9159 b03e 9874 ad3c
000001c0: 002c b7be 58c9 9dbe deb8 793e 1553 863d
000001d0: 8fa1 90be fc57 a0be 5d61 acbc 9fa9 88be
000001e0: 783b 893e 21d6 68be 907e f13d 6a6b e9bc
000001f0: ec16 4ebe 8c66 0bbe ca30 a5bc 6f80 b4be
00000200: bc67 cc3e 4e01 1dbe 9314 97be c76f 86bd
00000210: 0161 db3e e6de b33d d364 aa3d 4f64 67be
00000220: 1a1b 1fbe 7a35 46be 6244 18be 9b67 8c3d
00000230: 7d52 9e3e fba8 a43d 681c 61be 4c8c 723c
00000240: 2200 463e cc71 f13c dc26 b73e 4631 06be
00000250: d548 b13e 969c 82bc 34c9 523e b222 b13e
00000260: afe4 593e d8ab bfbe 86e7 31be 66cc d93d
00000270: bc59 043e 600f e0bb ba9e c73e dc45 a0be
00000280: 11d2 a3be b48d 983e 8bb8 cb3e 33f4 96be
00000290: ad73 24bd 9187 15be d790 f0bc e019 71be
000002a0: b174 fcbd 909d b2be fc40 843e 02fe 8dbb
000002b0: 132e afbe dcad 14be 4d0a 963e 4d94 893e
000002c0: fa9a 573b 7929 babe e6b0 433e 2da4 ec3c
000002d0: e523 473e 2153 b6bd a791 c4be ebd5 9cbe
000002e0: 4a60 6b3e 0975 843e b9eb fabd 8857 b43e
000002f0: bf0b 633e 241e 903e 0acf 463e a462 19be
00000300: 1263 74be 1d9f dc3d 84f8 7ebd fa38 4c3b
00000310: 01f6 23be 2072 a83e bba4 983e bacf c53e
00000320: eb7f eebc f01e 133d f3e8 f63d e018 853e
00000330: 6ed2 3e3e c85f 91be 222c 92bd 1059 0dbe
00000340: b846 453e cb6f c83e 57fe 5d3e 5131 a2be
00000350: 6faa 193e 7b29 14be 703c 943e 9c5f 3cbd
00000360: 5641 323e 8c34 7cbe f268 3f3e ce57 5d3e
00000370: 5fef 733e 530e 28be a9ac 8f3e 40ca 903d
00000380: 8be9 7a3e 9ece 71be ef21 99bd a56c b3bc
00000390: 065a 503d 44d2 4d3e 8c79 f93d 16b8 6b3e
000003a0: 27f9 a53d cb15 373d 3eed aebe b9fd 07bd
000003b0: a92c b23e dbb5 b03e be96 a7be 8eb6 28be
000003c0: ded1 6b3d dbd3 d03d 4eef 503e 7f1f 67bd
000003d0: 60b5 58be 9258 1ebd 8e85 96bc 1171 fcbd
000003e0: 0cab b73d f7da 983e 9597 45be 9037 013e
000003f0: d530 67be e81e b9bd 05f7 5cbe 2e94 61bd

network.0.bias f4 [256]
0.3888185 -0.25728053 0.2987938 0.24063057 -0.20795137 0.3162363 -0.12014159 0.26680776
0.07083271 0.2191941 0.077361934 0.023296434 0.3908103 -0.2867624 -0.29590955 0.3692762
-0.048862725 0.30726627 0.14728327 0.05930463 -0.05475606 0.1330107 0.34281904 -0.2137896
-0.28106815 0.38464773 0.11758206 0.2773197 -0.26604298 0.028956924 -0.009808381 0.14467652
0.04093161 -0.38831136 -0.12980537 -0.29306397 -0.19505437 0.07750748 0.18531194 0.069543004
0.26684257 0.09873873 -0.12411676 -0.29385206 0.23748828 0.14540136 -0.1559193 0.32487646
-0.08742454 -0.22926529 -0.1899683 -0.018860336 -0.17452227 0.09221595 0.34467182 -0.30991545
0.06315506 -0.2513735 0.21462055 0.42275155 -0.31607983 -0.35644197 -0.077736475 -0.30229002
0.23380439 -0.11142861 0.03813568 -0.06950734 -0.23860167 -0.16863014 -0.06005016 0.3345366
-0.012532257 -0.2763272 -0.11802624 0.16428712 0.39239088 0.01267224 0.04483705 -0.057938736
-0.2383797 0.022483595 -0.21353209 -0.014367405 -0.4365167 -0.25716984 -0.06225918 -0.28190085
0.2570368 0.18055548 0.30202082 0.28617036 0.1692548 -0.13802475 0.12879235 0.34637377
-0.14942431 0.12414143 0.3715953 0.26861125 0.081647284 0.078335874 0.35283053 0.26527393
-0.373576 -0.024755735 0.30273792 -0.31473896 -0.22832678 -0.09006403 0.24625255 0.292897
-0.31210658 0.33788517 -0.06173317 -0.16061293 0.07026166 -0.1545941 0.16006249 0.12542005
0.15583925 0.074077316 0.3324649 -0.10978326 0.0069231326 -0.15506668 0.13986194 0.22468925
-0.16245957 0.04078521 0.3603612 -0.33292753 -0.21183363 0.21954857 0.02308028 -0.35381082
0.18937118 -0.1798312 -0.011995531 0.4310244 0.3269403 -0.03404948 0.12920918 -0.35841376
0.17362817 0.23283672 0.27346325 -0.2815309 0.25466633 -0.19820681 -0.23597625 -0.30503404
0.19093284 -0.3283557 0.32327458 0.13747945 0.047713675 0.18164979 0.3530324 -0.1060785
-0.1559531 0.03187048 -0.33645234 -0.09451428 -0.060621515 -0.3615919 0.25223312 -0.28572917
-0.017541666 0.33429542 -0.22862925 0.23011164 0.36055955 0.35785422 -0.12806468 -0.11042356
0.21634403 -0.379846 0.0015983633 0.26488176 0.07683141 0.39513826 -0.22728059 0.02597971
0.027984945 0.27684146 -0.04086023 -0.20223792 -0.15557075 0.37815017 0.047176432 -0.14183283
0.042016506 -0.32694325 -0.33067474 -0.23912187 -0.19530253 -0.31583738 0.21495447 1.3010517e-05
-0.31976026 0.09220665 0.051448386 0.1300972 0.33002108 -0.058858037 0.05141509 -0.08491138
-0.08921204 -0.30376792 0.06115843 -0.17323354 -0.21895042 0.20358706 -0.31918728 -0.015073777
0.35283145 -0.28307664 0.360939 0.331266 0.31467083 0.3698865 -0.18672277 0.30324647
-0.02527603 0.18733358 -0.3517187 0.32772285 -0.09246752 -0.16943865 0.053248767 0.34014323
0.28727657 -0.0886942 0.010201538 0.36006287 -0.37349826 0.0058362046 -0.3201443 0.084251784
0.10564596 0.38892993 -0.33432573 0.40339544 0.32370487 -0.09284728 -0.20473793 0.13025463
0.39655808 -0.2037202 0.27718583 0.29845247 0.04866331 -0.11294667 0.13367082 0.33008116
00000000: 3813 c73e 46ba 83be 80fb 983e dc67 763e
00000010: 34f1 54be b9e9 a13e cb0c f6bd 079b 883e
00000020: bd10 913d 6b74 603e ef6f 9e3d 2ad8 be3c
00000030: 4a18 c83e 85d2 92be 7581 97be c511 bd3e
00000040: 4824 48bd 0152 9d3e 6dd1 163e 69e9 723d
00000050: e447 60bd f533 083e fa85 af3e a9eb 5abe
00000060: 2ae8 8fbe 8cf0 c43e ddce f03d d9fc 8d3e
00000070: c936 88be 1237 ed3c 55b3 20bc 1526 143e
00000080: e7a7 273d bfd0 c6be b3eb 04be 7b0c 96be
00000090: 55bc 47be 3ebc 9e3d 6ac2 3d3e 906c 8e3d
000000a0: 979f 883e 8837 ca3d ee30 febd c773 96be
000000b0: 2130 733e 18e4 143e 4fa9 1fbe 3556 a63e
000000c0: a30b b3bd 85c4 6abe 0d87 42be fe80 9abc
000000d0: f7b5 32be b7db bc3d d378 b03e 3dad 9ebe
000000e0: 7157 813d 07b4 80be 7dc5 5b3e e472 d83e
000000f0: 37d5 a1be 907f b6be 4d34 9fbd c2c5 9abe
00000100: 6b6a 6f3e af34 e4bd 2934 1c3d dd59 8ebd
00000110: ff53 74be 61ad 2cbe 28f7 75bd 6248 ab3e
00000120: 1854 4dbc c27a 8dbe beb7 f1bd e23a 283e
00000130: 75e7 c83e 3a9f 4f3c 0ea7 373d 2b51 6dbd
00000140: cf19 74be 842f b83c 28a8 5abe 4465 6bbc
00000150: 1e7f dfbe c4ab 83be 7b03 7fbd 4f55 90be
00000160: 549a 833e 89e3 383e 79a2 9a3e ec84 923e
00000170: 2151 2d3e 5c56 0dbe 24e2 033e e757 b13e
00000180: b002 19be dd3d fe3d bd41 be3e 6a87 893e
00000190: b136 a73d 8f6e a03d 34a6 b43e fcd1 873e
000001a0: 5a45 bfbe 8acc cabc 7700 9b3e 7725 a1be
000001b0: 7fce 69be 7d73 b8bd a129 7c3e 98f6 953e
000001c0: 6fcc 9fbe 49ff ac3e ecdb 7cbd b777 24be
000001d0: 58e5 8f3d ea4d 1ebe 6ce7 233e 1d6e 003e
000001e0: 5394 1f3e d9b5 973d d738 aa3e 0cd6 e0bd
000001f0: 72db e23b cdc9 1ebe f837 0f3e f014 663e
00000200: cd5b 26be 640e 273d 4381 b83e 7a75 aabe
00000210: eaea 58be 57d1 603e db12 bd3c b126 b5be
00000220: 85ea 413e ac25 38be e788 44bc 3baf dc3e
00000230: b864 a73e 7877 0bbd 694f 043e 0282 b7be
00000240: 95cb 313e c06c 6e3e 6003 8c3e d124 90be
00000250: a063 823e baf6 4abe c2a3 71be 6c2d 9cbe
00000260: e683 433e 3d1e a8be 3f84 a53e 6ac7 0c3e
00000270: 6a6f 433d 6702 3a3e aac0 b43e af3f d9bd
00000280: 2bb2 1fbe 9f8a 023d 7b43 acbe b490 c1bd
00000290: 444e 78bd 9322 b9be b324 813e 184b 92be
000002a0: 8ab3 8fbc c528 ab3e c91d 6abe 63a2 6b3e
000002b0: 439b b83e ab38 b73e 6323 03be bf25 e2bd
000002c0: 4a89 5d3e 2d7b c2be 2c80 d13a 959e 873e
000002d0: c959 9d3d 904f ca3e 3ebc 68be 67d3 d43c
000002e0: af40 e53c 2abe 8d3e 0e5d 27bd 7517 4fbe
000002f0: f04d 1fbe e69c c13e 133c 413d a03c 11be
00000300: 8019 2c3d 1b65 a7be 334e a9be 5ddc 74be
00000310: 63fd 47be 70b5 a1be 061d 5c3e bf47 5a37
00000320: 9eb7 a3be d7d6 bc3d 8bbb 523d 3338 053e
00000330: 86f8 a83e 2015 71bd a198 523d 05e6 adbd
00000340: cdb4 b6bd 7887 9bbe 4381 7a3d 2264 31be
00000350: 8a34 60be 2079 503e 846c a3be 01f8 76bc
00000360: 53a6 b43e 6cef 90be ffcc b83e b29b a93e
00000370: 891c a13e c361 bd3e 4134 3fbe 1f43 9b3e
00000380: ad0f cfbc 60d4 3f3e 7914 b4be 4acb a73e
00000390: 9c5f bdbd 5381 2dbe 611b 5a3d 4127 ae3e
000003a0: ea15 933e 4ea5 b5bd 5a24 273c 295a b83e
000003b0: 2a3b bfbe a23d bf3b f4e9 a3be 338c ac3d
000003c0: e95c d83d d321 c73e be2c abbe d989 ce3e
000003d0: a5bc a53e b726 bebd d2a6 51be 7861 053e
000003e0: a909 cb3e 079c 50be 4deb 8d3e c3ce 983e
000003f0: 2e53 473d 9550 e7bd 01e1 083e 6600 a93e

network.2.weight f4 [128, 256]
0.014294733 -0.033656955 -0.01791887 0.061430905 -0.03336009 -0.024067545 0.04328214 -0.048595786
0.036788654 0.07206504 0.05914851 0.07550997 0.026442328 -0.07583918 -0.09660777 -0.03340547
-0.045057647 0.07184168 -0.0039238906 0.036508787 -0.020961445 -0.029899107 0.013655279 -0.0019325683
-0.018684365 -0.061203588 0.033230215 -0.05345874 0.021237768 0.02664331 -0.0015167838 0.08620467
-0.038777612 -0.07456208 0.049554095 -0.029964862 0.055866342 0.041581474 0.046342604 -0.018017001
0.023790268 -0.008116352 0.027540434 0.031969253 0.021160396 -0.01977677 0.07519169 0.015938295
0.015168236 -0.04509406 -0.017494425 -0.06296162 0.00555789 0.026181791 -0.030518332 -0.008775866
0.05280606 0.003975021 -0.003062293 0.004637197 -0.013841047 -0.068294115 -0.02140577 0.020433914
-0.05529279 -0.08244048 0.047119748 0.048800696 -0.03219789 -0.072687745 -0.026458142 0.056928568
0.012904078 -0.10860209 0.05968752 0.052288774 0.0032226797 -0.01629102 -0.013380931 -0.026812896
-0.0017831582 0.04676042 -0.04490849 -0.0198254 0.041191306 -0.012203092 -0.023697998 0.01558448
0.06021236 0.015643228 0.013389163 -0.005481477 0.024362404 -0.03936893 -0.038238037 0.04377061
0.068878 -0.022846807 0.09356585 0.021735558 0.039753146 -0.0700103 0.01332416 -0.080723375
0.06343891 0.073776886 -0.02409726 0.014836759 0.0072632595 -0.021886753 -0.0075023565 0.012408787
0.0730085 0.07334376 0.105273314 0.003677931 0.08824688 -0.03212574 -0.046278104 -0.0115059605
-0.018938629 0.013144567 -0.0020205078 0.013388695 0.034103904 -0.00567955 -0.02642797 0.042643625
0.069275185 0.041114897 0.033639736 0.10151152 0.056548703 0.00586044 -0.011153829 0.04341958
0.009624279 -0.126462 -0.013601466 -0.021311333 -0.029897831 0.03280984 0.022594115 0.03485146
0.007453032 0.050684035 -0.028746756 0.012341926 0.027460879 -0.036543623 0.026199473 0.069750406
0.0542569 0.0086902045 0.02346682 -0.004066254 0.009677338 -0.037745908 0.03499871 -0.02992491
-0.0095732305 0.040433638 0.052090727 0.0101726595 -0.04693029 -0.10314728 0.04688208 0.060575224
0.018898932 -0.0477208 0.013188443 0.06777542 -0.0006501083 -0.0147907045 -0.02165574 0.026820729
-0.046766147 0.020662861 -0.0098606255 -0.0006166422 -0.006066091 -0.025688116 -0.019706402 0.034166902
-0.06332002 0.01270059 0.022946134 0.037125077 -0.032684002 -0.026457295 -0.010424282 -0.04288124
-0.019683735 -0.019074788 0.0899831 0.08265788 -0.03560107 -0.028955966 -0.010743252 0.005148589
-0.0045938315 0.0320851 0.050930776 0.0019609225 0.024239281 -0.0054896716 0.029911278 -0.01645896
-0.104158096 -0.017802924 -0.0049950485 0.022024022 0.019101946 -0.10736929 -0.036380634 -0.014135479
-0.039905265 0.05665677 0.08380861 0.06776519 0.03149291 -0.032234095 -0.06205163 0.0070079397
0.04473427 -0.08224298 -0.059257224 -0.00091860956 -0.013845294 -0.037520166 -0.041104704 0.022978008
0.015525964 0.019942831 -0.025400912 0.02300321 0.12559634 -0.0486724 -0.032168366 0.07219961
0.024302242 -0.04960742 -0.019473638 0.0394971 -0.05594954 -0.05421363 0.03951113 0.02088853
0.02876028 -0.05083295 -0.014075806 0.053677518 -0.027904293 -0.020974346 -0.08118528 -0.032401115
00000000: 7534 6a3c e0db 09bd 98ca 92bc f99e 7b3d
00000010: 97a4 08bd 4d29 c5bc 9d48 313d 600c 47bd
00000020: b3af 163d d696 933d b545 723d f9a4 9a3d
00000030: 959d d83c 9251 9bbd 4bda c5bd 2dd4 08bd
00000040: 5e8e 38bd bb21 933d fb93 80bb 3d8a 153d
00000050: 56b7 abbc f9ee f4bc 64ba 5f3c 3b4e fdba
00000060: f40f 99bc 9db0 7abd 681c 083d 8df7 5abd
00000070: d4fa ad3c 1243 da3c d2ce c6ba 138c b03d
00000080: 46d5 1ebd 01b4 98bd 3cf9 4a3d df78 f5bc
00000090: 1bd4 643d 5651 2a3d bed1 3d3d 6498 93bc
000000a0: cfe3 c23c 73fa 04bc 7a9c e13c 31f2 023d
000000b0: 9158 ad3c e502 a2bc 1afe 993d 0791 823c
000000c0: 3184 783c 8db4 38bd 7850 8fbc 06f2 80bd
000000d0: f61e b63b 327b d63c 9501 fabc a6c8 0fbc
000000e0: 2b4b 583d e540 823b c0b0 48bb a1f3 973b
000000f0: 8fc5 62bc c9dd 8bbd 275b afbc 0665 a73c
00000100: b17a 62bd 8ed6 a8bd a300 413d 3de3 473d
00000110: efe1 03bd 50dd 94bd bfbe d8bc ee2d 693d
00000120: a06b 533c c66a debd e77a 743d c12c 563d
00000130: 9833 533b bf74 85bc b13b 5bbc b8a6 dbbc
00000140: dcb8 e9ba db87 3f3d f7f1 37bd e168 a2bc
00000150: 37b8 283d 7aef 47bc 4e22 c2bc 0c56 7f3c
00000160: 3ca1 763d 3a26 803c 385e 5b3c f69d b3bb
00000170: aa93 c73c 5141 21bd 7d9f 1cbd d048 333d
00000180: e90f 8d3d 3a29 bbbc 749f bf3d c50e b23c
00000190: 32d4 223d 8f61 8fbd 944d 5a3c 4c52 a5bd
000001a0: 42ec 813d 5618 973d 9e67 c5bc e115 733c
000001b0: a300 ee3b d94b b3bc 54d6 f5bb 3a4e 4b3c
000001c0: 7b85 953d 4135 963d 8999 d73d 7109 713b
000001d0: c8ba b43d 4896 03bd 1c8e 3dbd 7f83 3cbc
000001e0: 2f25 9bbc 4f5c 573c 7f6a 04bb 425c 5b3c
000001f0: 89b0 0b3d 851b babb 787f d8bc 15ab 2e3d
00000200: 26e0 8d3d 1868 283d d2c9 093d 46e5 cf3d
00000210: 9d9f 673d ef08 c03b 8dbe 36bc bbd8 313d
00000220: 27af 1d3c 417f 01be afd8 5ebc 1b95 aebc
00000230: 4cec f4bc 9c63 063d 4b17 b93c 68c0 0e3d
00000240: 9038 f43b 109a 4f3d 517e ebbc ca35 4a3c
00000250: a3f5 e03c c4ae 15bd 47a0 d63c 4dd9 8e3d
00000260: 7c3c 5e3d 5c61 0e3c 7d3d c03c 363e 85bb
00000270: b38d 1e3c 749b 1abd cf5a 0f3d 1625 f5bc
00000280: 0ad9 1cbc be9d 253d 165d 553d 3aab 263c
00000290: fa39 40bd e23e d3bd 6d07 403d ba1d 783d
000002a0: efd1 9a3c e376 43bd 5714 583c d7cd 8a3d
000002b0: 086c 2aba b654 72bc 6167 b1bc 25b7 db3c
000002c0: dc8d 3fbd 2945 a93c 768e 21bc 28a6 21ba
000002d0: 0fc6 c6bb e26f d2bc 526f a1bc 98f2 0b3d
000002e0: edad 81bd 2316 503c 88f9 bb3c 7710 183d
000002f0: a9df 05bd f8bc d8bc 9cca 2abc 3da4 2fbd
00000300: c93f a1bc bb42 9cbc 0f49 b83d 8948 a93d
00000310: 6dd2 11bd 1035 edbc 7704 30bc 7fb5 a83b
00000320: da87 96bb aa6b 033d ca9c 503d d282 003b
00000330: 7591 c63c b4e2 b3bb 7f08 f53c f1d4 86bc
00000340: d750 d5bd 70d7 91bc 81ad a3bb b96b b43c
00000350: af7b 9c3c 6ee4 dbbd dc03 15bd 7f98 67bc
00000360: b473 23bd ee10 683d d9a3 ab3d 7ac8 8a3d
00000370: b6fe 003d e607 04bd da29 7ebd dca2 e53b
00000380: 483b 373d 026f a8bd b4b7 72bd d8ce 70ba
00000390: 5fd7 62bc bfae 19bd 685d 28bd 603c bc3c
000003a0: 9d60 7e3c 265f a33c 9315 d0bc 3a71 bc3c
000003b0: 549c 003e b65c 47bd fac2 03bd 64dd 933d
000003c0: 7f15 c73c 2631 4bbd 2e87 9fbc b6c7 213d
000003d0: 582b 65bd 1c0f 5ebd 6cd6 213d 6c1e ab3c
000003e0: ae9a eb3c 3636 50bd 369e 66bc f5dc 5b3d
000003f0: 8b97 e4bc 64d2 abbc 7844 a6bd 08b7 04bd

network.2.bias f4 [128]
-0.046886887 -0.0336584 0.065132655 0.060012396 0.05697772 0.07500103 0.066307604 -0.001904332
0.0075509194 -0.04058888 -0.02700532 0.05519851 -0.035451822 -0.020247927 -0.033871733 -0.024563566
0.006388979 0.01701664 -0.047549292 -0.015934927 0.0468989 0.070849724 0.029501203 -0.05534784
-0.052090786 0.003931312 0.019470885 -0.050266206 -0.06643907 0.03988775 0.056929912 -0.018258682
0.03663559 -0.028243016 -0.014657454 0.03842756 0.026829137 0.04367005 0.034129847 -0.0010026703
0.023793677 -0.071463615 0.048495904 0.061440375 0.06379561 0.05731275 0.06600549 0.01660581
-0.030120369 -0.03716953 -0.00384011 -0.024289578 -0.032653183 -0.05473344 -0.0031564538 0.0324821
0.006310319 0.015198987 0.032389782 -0.012117894 -0.035166766 0.07202045 -0.042416018 0.009869301
-0.03821786 0.039765358 -0.017616421 0.0002696674 0.005801974 0.033029918 0.06035302 0.023576628
-0.03972797 -0.012584208 -0.001097434 0.030457167 -0.015198987 -0.029025562 -0.06435902 0.04983379
-0.08632114 -0.017248403 0.0767112 0.03846701 -0.044023693 0.00042071682 0.048412953 -0.067435
0.059302676 0.04634282 -0.070260026 0.044990998 -0.02401978 0.0579469 -0.032404147 0.037867058
0.031578634 -0.06474597 -0.034527086 -0.039249208 0.03394778 0.019671103 -0.025128448 0.004857955
0.040396627 -0.059572253 0.032136794 -0.048862707 -0.0034121417 0.0025345641 0.032436494 -0.06272374
0.027565408 0.011771363 0.057264533 0.04728556 -0.02713198 0.038630337 -0.04004209 0.07927339
0.0034227208 0.03621244 -0.0077252416 -0.0059896484 0.0030871942 -0.047286395 0.06081805 -0.01761968
00000000: 770c 40bd 64dd 09bd 4564 853d 8fcf 753d
00000010: 7861 693d 249a 993d 48cc 873d c79a f9ba
00000020: b46d f73b 8740 26bd 433a ddbc d517 623d
00000030: ee35 11bd fbde a5bc 16bd 0abd 8839 c9bc
00000040: a45a d13b 7b66 8b3c 0cc3 42bd f789 82bc
00000050: 1019 403d a919 913d 82ac f13c 6bb4 62bd
00000060: 265d 55bd 3cd2 803b 6881 9f3c f0e3 4dbd
00000070: 3511 88bd 5661 233d 572f 693d 3b93 95bc
00000080: 330f 163d e65d e7bc d125 70bc 3866 1d3d
00000090: c7c8 db3c 5edf 323d bdcb 0b3d 086c 83ba
000000a0: f5ea c23c 845b 92bd a4a3 463d e7a8 7b3d
000000b0: 46a7 823d c6c0 6a3d e32d 873d e808 883c
000000c0: febe f6bc 143f 18bd 5baa 7bbb f0fa c6bc
000000d0: 58bf 05bd 2c30 60bd 82dc 4ebb f30b 053d
000000e0: cbc6 ce3b 2c05 793c 26ab 043d 228a 46bc
000000f0: 070b 10bd 757f 933d 6bbc 2dbd d9b2 213c
00000100: 558a 1cbd 00e1 223d 5050 90bc 2562 8d39
00000110: 7c1e be3b 614a 073d ba34 773d c623 c13c
00000120: ccb9 22bd fe2d 4ebc c6d7 8fba 4f81 f93c
00000130: 2c05 79bc 04c7 edbc a9ce 83bd 841e 4c3d
00000140: 23c9 b0bd 864c 8dbc c31a 9d3d 958f 1d3d
00000150: 3052 34bd a893 dc39 a94c 463d 5c1b 8abd
00000160: 5de7 723d f8d1 3d3d 7de4 8fbd 7b48 383d
00000170: 21c5 c4bc bb59 6d3d 36ba 04bd 7d1a 1b3d
00000180: 9958 013d 8999 84bd 466c 0dbd c7c3 20bd
00000190: d40c 0b3d 4b25 a13c 2dda cdbc 7b2f 9f3b
000001a0: ef76 253d 0902 74bd dfa1 033d 4324 48bd
000001b0: 3d9e 5fbb ee1a 263b 21dc 043d 4e75 80bd
000001c0: dad0 e13c addc 403c 378e 6a3d 81ae 413d
000001d0: e343 debc d83a 1e3d 2d03 24bd 165a a23d
000001e0: ba4f 603b 7f53 143d 0624 fdbb d044 c4bb
000001f0: 8652 4a3b 61af 41bd 591c 793d 2657 90bc

network.4.weight f4 [64, 128]
-0.042994 -0.04577816 0.059573606 0.056521248 0.036086723 -0.035390705 -0.10881771 -0.024341278
0.01565244 -0.06137685 -0.07110686 0.12914509 0.03361822 -0.054346647 -0.09941898 -0.20117076
0.035086058 0.16890338 -0.120621845 0.3502257 0.04719041 0.025626251 -0.059825454 0.058247745
-0.015965428 0.036674544 0.22871988 -0.091294415 -0.0037608969 0.10621793 -0.15802015 -0.018072229
-0.0672698 0.06497597 -0.036285073 0.09726859 0.056753553 0.046039637 0.1436988 0.06936499
0.0023650774 0.11862747 0.048102904 -0.04781758 -0.09457106 0.033340722 0.051160306 -0.044031676
0.08573959 0.028264863 0.018419296 0.08154383 0.055798218 0.30240536 -0.28401917 0.10769294
0.055884793 -0.06559227 -0.015337028 0.009225393 -0.05864352 -0.22009937 -0.04279436 0.0030380713
0.09945161 -0.033351213 -0.13618818 0.003928132 0.07095304 0.023640407 -0.08307173 -0.028500946
-0.0037452162 0.05911583 0.0028523442 -0.02290198 0.12011831 -0.016122561 -0.08197549 0.022378964
0.21325296 -0.035094056 -0.09168831 0.042350147 -0.12164553 0.00013092419 0.12616046 0.10806414
0.11633136 -0.035355773 0.40732145 -0.121066265 -0.06731494 0.04563937 0.049307734 0.0067850323
-0.031679276 0.053081382 0.032338712 0.043643225 0.007242595 0.122516066 0.07570229 0.054922078
0.04862802 0.13090496 -0.10537099 0.09277324 0.006956119 -0.1400161 -0.07813784 0.050328825
-0.065587886 -0.021081667 -0.033746388 0.0044058175 0.08078936 0.07433242 -0.052567508 0.016175937
-0.108129494 0.16046505 -0.021749415 0.08180667 0.11948925 0.035441995 -0.20146345 -0.060273085
-0.049015995 -0.075550914 -0.02159168 -0.021365875 0.102684 0.011676853 -0.07686055 -0.067440964
0.103941336 -0.15597363 -0.04283338 0.17120421 0.065932356 -0.039936285 -0.07047381 -0.036373325
0.12686446 0.19704862 -0.07397275 0.3282549 -0.023671689 0.11806855 -0.10877382 0.04452379
0.041649707 0.06885499 0.13445114 -0.118269615 0.048744965 -0.023723325 -0.07226046 0.09338361
-0.043644734 0.022628598 0.09248469 0.0074651265 0.0134472195 -0.048017852 0.01729574 0.17421922
-0.024031322 0.20443296 0.10926798 -0.06202489 -0.07023566 -0.014502288 0.06232843 -0.07358819
0.014665264 0.10126061 -0.069885716 0.077168204 0.15698214 0.24182677 -0.22706749 -0.0023820202
-0.029500067 0.031945735 -0.049389042 0.036387157 0.01391048 -0.18655902 -0.05870125 -0.06886088
0.115338586 -0.08492612 0.00014438029 0.062331613 0.07076903 0.09003698 -0.019635592 0.0282938
-0.022512585 0.019943917 0.040144335 0.024557466 0.14662276 0.083130576 0.014090626 0.0028055944
0.25033897 0.043744706 -0.12642048 -0.00022788453 -0.08089256 -0.024064118 0.08712444 0.10850711
0.07409316 0.1058057 0.2192927 -0.13394484 -0.068376966 0.048741646 -0.009980682 0.019305767
-0.037058234 0.11014725 0.017976163 0.018484123 0.0513677 0.065856494 0.032218456 0.09142699
0.019642133 0.07101404 -0.09364165 0.018406348 -0.05840498 -0.1427125 0.07839989 0.05979321
-0.016343357 -0.048412066 -0.09887745 0.09057952 -0.036936387 0.02242263 -0.017605688 0.057564083
-0.026641902 0.22178522 0.0025731553 0.03610164 0.034123663 -0.0675195 -0.12458412 0.030602863
00000000: 7a1a 30bd e181 3bbd 7403 743d d382 673d
00000010: accf 133d d8f5 10bd d2db debd 5c67 c7bc
00000020: 8c39 803c 4b66 7bbd 79a0 91bd 9c3e 043e
00000030: 42b3 093d 979a 5ebd 2e9c cbbd b5ff 4dbe
00000040: 66b6 0f3d 02f5 2c3e 9608 f7bd c850 b33e
00000050: bb4a 413d 25ee d13c 890b 75bd 3095 6e3d
00000060: eec9 82bc 0c38 163d 8b35 6a3e 91f8 babd
00000070: 6179 76bb c988 d93d 09d0 21be 360c 94bc
00000080: c0c4 89bd 1f12 853d a89f 14bd c134 c73d
00000090: 6a76 683d 0f94 3c3d c725 133e 3b0f 8e3d
000000a0: 6aff 1a3b f6f2 f23d 8d07 453d 5edc 43bd
000000b0: 79ae c1bd 4890 083d 788d 513d 8f5a 34bd
000000c0: 3d98 af3d b78b e73c 10e4 963c 7400 a73d
000000d0: ac8c 643d e0d4 9a3e f66a 91be 1e8e dc3d
000000e0: 74e7 643d 3d55 86bd 2848 7bbc 1a26 173c
000000f0: 3034 70bd bb61 61be 2449 2fbd 611a 473b
00000100: 49ad cb3d 489b 08bd ea74 0bbe 8fb7 803b
00000110: d44f 913d 87a9 c13c 8321 aabd d17a e9bc
00000120: 4d72 75bb 7123 723d 65ee 3a3b ef9c bbbc
00000130: 9700 f63d 7613 84bc c4e2 a7bd 1754 b73c
00000140: fc5e 5a3e c9be 0fbd 15c7 bbbd 5977 2d3d
00000150: 4b21 f9bd b248 0939 3530 013e bb50 dd3d
00000160: 233f ee3d 37d1 10bd 708c d03e 97f1 f7bd
00000170: 6adc 89bd 59f0 3a3d e8f6 493d fa54 de3b
00000180: 21c2 01bd dd6b 593d 9975 043d 3dc3 323d
00000190: 4a53 ed3b b4e9 fa3d cd09 9b3d f9f5 603d
000001a0: 2d2e 473d f30b 063e bfcc d7bd e5ff bd3d
000001b0: 28f0 e33b 6160 0fbe bb06 a0bd 9925 4e3d
000001c0: f152 86bd 76b3 acbc a739 0abd ad5e 903b
000001d0: e474 a53d 993b 983d 0751 57bd 6683 843c
000001e0: ff72 ddbd f350 243e d42b b2bc 418a a73d
000001f0: c8b6 f43d a02b 113d 6f4c 4ebe e9e0 76bd
00000200: ffc4 48bd 70ba 9abd 09e1 b0bc 7d07 afbc
00000210: fd4b d23d 4550 3f3c 1069 9dbd 7d1e 8abd
00000220: 32df d43d 8db7 1fbe 0e72 2fbd 2850 2f3e
00000230: 8b07 873d 3b94 23bd 9354 90bd 32fc 14bd
00000240: c2e8 013e 1dc7 493e 067f 97bd 0711 a83e
00000250: 21eb c1bc edcd f13d cfc4 debd 945e 363d
00000260: e298 2a3d d803 8d3d 8fad 093e 5737 f2bd
00000270: cda8 473d 6b57 c2bc 4bfd 93bd e83f bf3d
00000280: d2c4 32bd 9c5f b93c 9d68 bd3d 059e f43b
00000290: ba51 5c3c 5eae 44bd ccaf 8d3c 8666 323e
000002a0: 56dd c4bc e056 513e e4c7 df3d d00d 7ebd
000002b0: b7d7 8fbd 019b 6dbc 194c 7f3d 68b5 96bd
000002c0: 9346 703c b961 cf3d 3e20 8fbd 5d0a 9e3d
000002d0: edbf 203e 70a1 773e 6184 68be ab1b 1cbb
000002e0: 20aa f1bc 88d9 023d 2a4c 4abd b30a 153d
000002f0: c8e8 633c 5409 3fbe b970 70bd ef06 8dbd
00000300: a336 ec3d bfed adbd ca64 1739 6f4f 7f3d
00000310: 5aef 903d 4f65 b83d d2da a0bc 66c8 e73c
00000320: 506c b8bc 6d61 a33c 636e 243d bd2c c93c
00000330: 4724 163e 5d40 aa3d 5edc 663c 10de 373b
00000340: 6e2c 803e a62d 333d 5f74 01be 4af4 6eb9
00000350: 00ab a5bd 1d22 c5bc 4c6e b23d fa38 de3d
00000360: 28be 973d a9b0 d83d 448e 603e d628 09be
00000370: 3909 8cbd 52a5 473d 0486 23bc 2127 9e3c
00000380: 60ca 17bd e294 e13d bf42 933c 046c 973c
00000390: f066 523d c5df 863d 80f7 033d 133e bb3d
000003a0: 8ae8 a03c cf6f 913d 32c7 bfbd e9c8 963c
000003b0: 0f3a 6fbd 3a23 12be 1f90 a03d bae9 743d
000003c0: 81e2 85bc bb4b 46bd 4380 cabd c181 b93d
000003d0: 9c4a 17bd aaaf b73c ce39 90bc 51c8 6b3d
000003e0: 1e40 dabc aa1b 633e 62a2 283b 50df 133d
000003f0: 41c5 0b3d aa47 8abd f625 ffbd dbb2 fa3c

network.4.bias f4 [64]
-0.07715716 0.016798483 0.0016106651 -0.019051079 -0.040118005 -0.017140072 0.08374444 0.04024269
-0.008937284 -0.06464672 -0.02535181 0.0660379 -0.011474033 -0.059231818 0.081550196 0.08388431
-0.0036167407 0.007141098 0.079534486 -0.06376794 -0.084715724 -0.07077134 -0.057670448 0.085776456
0.04777219 -0.07738658 0.06606519 0.030982684 0.02717541 0.08096196 0.06544788 0.060901493
-0.049216915 0.008208627 0.03910763 0.089410074 -0.016629182 -0.0124339275 -0.040910766 0.025707193
-0.059268896 0.071329914 -0.06405859 -0.0329502 0.07545975 -0.06155741 0.02231071 0.0774695
0.0799667 0.06008535 0.03004545 0.018333051 0.0669543 -0.009118601 0.07959225 0.03208192
-0.07682683 0.07646575 0.05198941 0.03676122 0.071468614 0.055471353 0.0017934392 0.024013687
00000000: 9304 9ebd f99c 893c f41c d33a 0211 9cbc
00000010: c752 24bd 5669 8cbc 3482 ab3d 85d5 243d
00000020: b06d 12bc 8065 84bd 99ae cfbc e13e 873d
00000030: 95fd 3bbc 109d 72bd ca03 a73d 8acb ab3d
00000040: d706 6dbb dfff e93b fae2 a23d c498 82bd
00000050: 707f adbd 90f0 90bd d937 6cbd 91ab af3d
00000060: c6ac 433d db7c 9ebd 304d 873d 66cf fd3c
00000070: f79e de3c 62cf a53d 8a09 863d d873 793d
00000080: ad97 49bd 7a7d 063c 522f 203d a11c b73d
00000090: ec39 88bc acb7 4bbc 0c92 27bd e497 d23c
000000a0: f1c3 72bd 6b15 923d 2631 83bd caf6 06bd
000000b0: a48a 9a3d 9f23 7cbd f3c4 b63c 54a8 9e3d
000000c0: 95c5 a33d 0e1c 763d e021 f63c 322f 963c
000000d0: 561f 893d 2f66 15bc 4301 a33d 5568 033d
000000e0: 6357 9dbd 139a 9c3d d9f2 543d ef92 163d
000000f0: 235e 923d ee35 633d d511 eb3a 5ab8 c43c

network.6.weight f4 [1, 64]
0.20220743 0.30186993 0.28766143 -0.08386694 -0.072038636 0.11076198 0.32138386 0.041079815
-0.11216594 -0.09225578 0.33552742 0.1657792 0.10068235 0.25894699 0.015295902 -0.21796766
-0.12057396 0.15962628 0.20725325 0.4910843 -0.10106563 0.27231392 0.023262665 -0.100291975
0.3716895 0.17852989 -0.1914854 0.16403295 0.19937845 -0.045169 0.31082788 0.404345
-0.08554058 0.32368094 -0.0958717 0.40304822 -0.23483717 0.30817926 -0.12772572 -0.1385768
-0.14469749 0.14467946 0.14215386 0.1462088 -0.15408564 -0.14089613 0.13224383 -0.10839973
0.12770307 -0.1472655 -0.181576 -0.13894242 -0.1456773 0.43982416 -0.13114224 -0.1019478
0.3257524 0.18009016 -0.17386173 0.088966876 -0.22129889 0.41685456 -0.17541215 0.18664904
00000000: 770f 4f3e b28e 9a3e 5c48 933e 6ec2 abbd
00000010: fe88 93bd 2dd7 e23d 6d8c a43e 4f43 283d
00000020: 42b7 e5bd 99f0 bcbd 40ca ab3e 06c2 293e
00000030: 8c32 ce3d b394 843e aa9b 7a3c ea32 5fbe
00000040: 7bef f6bd 1275 233e 323a 543e 676f fb3e
00000050: 7ffb cebd bb6c 8b3e 5891 be3c e165 cdbd
00000060: 164e be3e 8ad0 363e c014 44be 41f8 273e
00000070: dd29 4c3e 2103 39bd d524 9f3e 4f06 cf3e
00000080: e62f afbd 82b9 a53e 6258 c4bd 565c ce3e
00000090: 2879 70be acc9 9d3e 88ca 02be 14e7 0dbe
000000a0: 942b 14be da26 143e c890 113e c2b7 153e
000000b0: a0c8 1dbe 1347 10be ed6a 073e ad00 debd
000000c0: 98c4 023e c4cc 16be 0fef 39be ec46 0ebe
000000d0: 6e2c 15be a230 e13e 274a 06be 02ca d0bd
000000e0: 05c9 a63e 8e69 383e cf08 32be 4434 b63d
000000f0: 2d9c 62be f66d d53e 3e9f 33be ed20 3f3e
